DAC/policy_actor.pth (torch, 108563 bytes, 8 tensors)

net.model.0.weight f4 [128, 6]
0	0xbe8734fa	-0.26407605
1	0x3e2ff41d	0.17182966
2	0xbdb43adf	-0.08800291
3	0x3d731dea	0.0593547
4	0x3ecca001	0.39965823
5	0xbda56e88	-0.08077723
6	0xbe16dce7	-0.14732705
7	0xbcbbc7da	-0.022922445
8	0x3df62e15	0.12020508
9	0x3e10d502	0.14143756
10	0xbe848f37	-0.25890514
11	0xbdc851ce	-0.09781228
12	0xbe197cba	-0.14988986
13	0xbe5519a9	-0.2081057
14	0xbe61ed3a	-0.22063151
15	0xbd5fded1	-0.054655854
16	0x3ebaac6b	0.3645967
17	0x3dbe0676	0.09278576
18	0xbdd0b3bd	-0.10190532
19	0xbdfcf80c	-0.12351999
20	0x3d659f6b	0.056060236
21	0x3d8c8c26	0.06862669
22	0x3dcbbc1f	0.099479906
23	0x3e772128	0.24133742
24	0xbca2b8a3	-0.019863432
25	0x3db14d88	0.08657366
26	0xbebc08ae	-0.36725372
27	0xbe59a05f	-0.21252583
28	0x3e632207	0.22180949
29	0x3e4c04f4	0.19923764
30	0xbe8a0317	-0.26955482
31	0xbe6aa870	-0.22915816
32	0xbe06d6cf	-0.1316788
33	0x3e511ff6	0.20422348
34	0x3e0c8814	0.13723785
35	0x3e50ed22	0.20402959
36	0xbc7b5a0f	-0.015341296
37	0x3dac443b	0.084114514
38	0xbe576824	-0.2103582
39	0x3e7f44b0	0.24928546
40	0xbe374696	-0.1789802
41	0xbe86cad0	-0.2632661
42	0xbeb5c52a	-0.35501987
43	0x3e91dbd5	0.2848803
44	0x3ec803ff	0.3906555
45	0x3e96ffa9	0.29491928
46	0xbea66ed6	-0.32506436
47	0x3d1eb1dc	0.03874384
48	0x3e5c11a7	0.21491109
49	0x3dcf0924	0.10109165
50	0xbeab1484	-0.3341409
51	0x3ecb4310	0.39699602
52	0x3e84bdac	0.25925958
53	0xbc2d9aee	-0.01059602
54	0xbcdf2e8e	-0.027243879
55	0x3e9e3198	0.30897212
56	0xbe8689c6	-0.26276988
57	0x3e40cfbf	0.18829249
58	0x3e8ec1e7	0.2788231
59	0xbd8d0c8b	-0.06887158
60	0xbe2dea07	-0.16983806
61	0x3e9a58e0	0.3014593
62	0xbe48c993	-0.19608144
63	0x3d85258b	0.065013014
64	0xbeaffbe7	-0.34371874
65	0xbe21327e	-0.15741917
66	0xbc7a02b8	-0.015259437
67	0xbe441827	-0.19149838
68	0x3e7861cc	0.24256057
69	0x3eb4b014	0.35290587
70	0x3e88bcd0	0.26706553
71	0xbdc30045	-0.09521536
72	0xbd90881b	-0.0705721
73	0xbeb41718	-0.3517387
74	0xbe1776bf	-0.14791392
75	0x3cef2abc	0.029195182
76	0xbea5eb3f	-0.3240604
77	0xbed0d976	-0.4079091
78	0xbdf503e8	-0.11963636
79	0xbc6fbd66	-0.014632558
80	0x3d1c088c	0.03809409
81	0x3d851cc4	0.06499627
82	0x3e114107	0.14184962
83	0xbdbe1fe6	-0.09283428
84	0x3db16f3d	0.08663795
85	0xbe7938aa	-0.24338022
86	0x3ca3bc2e	0.019987192
87	0x3e905e94	0.28197157
88	0xbe5504b3	-0.20802574
89	0xbebc3c44	-0.3676473
90	0xbcee600a	-0.02909853
91	0x3ebde188	0.3708613
92	0xbd4d6535	-0.050145347
93	0x3ce9c658	0.02853696
94	0xbe8c30f3	-0.27381095
95	0x3ddd6748	0.10810715
96	0x3e0e0010	0.13867211
97	0x3e8c7629	0.274339
98	0xbe5d8508	-0.21632779
99	0xbe801562	-0.25016314
100	0xbd9212fc	-0.07132527
101	0xbdf5a0fb	-0.11993595
102	0x3de850f3	0.11343565
103	0x3ea878b4	0.3290459
104	0x3e9ebf3d	0.31005278
105	0x3e89be6a	0.26903087
106	0x3e4dfe30	0.20116496
107	0x3e08d842	0.13363746
108	0x3e437380	0.19087029
109	0x3dff705f	0.12472605
110	0x3db2daae	0.08733116
111	0xbe5c3d35	-0.21507724
112	0xbebcceb4	-0.36876452
113	0xbea16100	-0.31519318
114	0xbda3c87b	-0.07997223
115	0x3cd4f69a	0.025996495
116	0xbdf47547	-0.119364314
117	0x3dee4777	0.116347246
118	0xbea978cd	-0.33099976
119	0xbdcdce07	-0.10049062
120	0xbce51308	-0.027963176
121	0xbe520fd8	-0.20513856
122	0xbdd71dbd	-0.10503719
123	0x3e28714b	0.16449468
124	0x3e53db88	0.20689213
125	0x3e2fac95	0.17155679
126	0x3ce2ab7f	0.027669666
127	0xbdae05e4	-0.08497217
128	0xbe5821de	-0.2110667
129	0x3e45928f	0.19294189
130	0x3ebf624e	0.37379688
131	0x3ea84ff1	0.3287349
132	0xbdf73f88	-0.120726645
133	0x3e95a67d	0.29228583
134	0x3e456aa7	0.19278966
135	0xbe98c4dc	-0.29837692
136	0xbd2cccaa	-0.04218737
137	0xbdc7df99	-0.09759445
138	0xbe85cb48	-0.26131654
139	0xbd9e9781	-0.07743741
140	0xbdf8b696	-0.121442005
141	0xbd865c32	-0.065605536
142	0x3e6912ad	0.2276103
143	0x3d481365	0.04884662
144	0x3e0f5a7c	0.13999361
145	0xbe0f10d6	-0.13971266
146	0xbe89e84b	-0.26935038
147	0xbea5104f	-0.32239005
148	0x3e980ae4	0.2969581
149	0x3b76e774	0.0037674578
150	0x3dad74ea	0.08469565
151	0xbe73d640	-0.23812199
152	0x3d64f7d5	0.055900414
153	0x3e16bdfa	0.14720908
154	0xbe527d62	-0.20555642
155	0x3d3ead2e	0.046551876
156	0x3d9873e0	0.074439764
157	0x3bf23529	0.007391591
158	0x3e73ab31	0.23795773
159	0xbeccc20e	-0.39991802
160	0xbec8f368	-0.39248204
161	0xbe58d925	-0.21176584
162	0xbc0e9237	-0.0087018525
163	0xbecd1bc3	-0.40060243
164	0xbe218677	-0.1577395
165	0xbe345273	-0.17609577
166	0xbe0db002	-0.13836673
167	0x3c4267eb	0.011865596
168	0xbe824a71	-0.2544742
169	0xbebbdf6a	-0.3669389
170	0xbd97ce68	-0.07412416
171	0xbcfcb64b	-0.030848643
172	0xbdd1cb8a	-0.102439
173	0x3e3b4581	0.18288232
174	0xbe2b88bb	-0.16751377
175	0xbe2490e1	-0.16070892
176	0x3e23bd37	0.15990148
177	0x3eb35e3a	0.35032827
178	0x3d9541ec	0.07287964
179	0x3e5eef98	0.21771085
180	0x3e8de04a	0.2771018
181	0x3e9e3e45	0.30906883
182	0xbe7fc4ee	-0.24977466
183	0x3dff4d8b	0.12465962
184	0x3e1f897b	0.15579788
185	0x3e21b880	0.15793037
186	0xbe4fe3ea	-0.20301786
187	0x3e9d1586	0.30680484
188	0x3e895dd5	0.268294
189	0x3e4022ca	0.18763271
190	0x3e994326	0.29934043
191	0xbe06b000	-0.13153076
192	0xbeae87c4	-0.34087956
193	0x3ebbfd96	0.36716908
194	0xbe1e4361	-0.1545539
195	0x3b979673	0.0046260892
196	0x3d6f0898	0.058357805
197	0x3e03fec3	0.12890153
198	0xbe58d77d	-0.21175952
199	0xbe29f164	-0.1659599
200	0x3e2d2ce5	0.16911657
201	0xbe406a90	-0.1879065
202	0xbe536f4f	-0.2064793
203	0x3c85972a	0.016307432
204	0xbe6042f7	-0.21900545
205	0x3eacb59b	0.33732304
206	0xbdcbe4a3	-0.09955718
207	0xbbc7528c	-0.0060828384
208	0x3cc0185e	0.02344912
209	0xbe21d599	-0.15804137
210	0xbea97c70	-0.3310275
211	0x3b4527bd	0.00300835
212	0xbdb9f202	-0.090793625
213	0x3db201b9	0.08691735
214	0xbd9e1777	-0.07719319
215	0xbe801913	-0.2501913
216	0xbc176923	-0.009241375
217	0x3e861818	0.26190257
218	0x3e8f3e12	0.27977043
219	0x3dda542e	0.10660587
220	0x3d1a5ebe	0.03768801
221	0xbca6b05c	-0.020347767
222	0x3d6db3b5	0.05803271
223	0x3ec591f9	0.3858793
224	0x3e0e8dc0	0.13921261
225	0xbe413426	-0.1886755
226	0xbe3e97ab	-0.18612544
227	0xbec7621d	-0.38942042
228	0xbea91c8a	-0.33029586
229	0x3d5ad5ed	0.05342667
230	0x3ddfbcc7	0.10924678
231	0x3e14bf18	0.14526021
232	0xbecd11ed	-0.4005274
233	0x3e243e07	0.16039287
234	0x3d826092	0.063660756
235	0xbe07b3f1	-0.13252236
236	0xbe8dbf7f	-0.27685162
237	0x3e9bea23	0.3045207
238	0xbecc2cda	-0.3987797
239	0x3eb8376c	0.35979784
240	0x3e4af308	0.19819272
241	0xbe2ea73d	-0.17055984
242	0xbe6a4195	-0.2287658
243	0xbe734ecd	-0.23760529
244	0x3ebf363a	0.3734606
245	0x3ea96f8e	0.33092922
246	0x3e4b61bb	0.198615
247	0xbeac7335	-0.33681646
248	0x3da6be64	0.08141783
249	0xbea3598e	-0.31904262
250	0x3d9cb8b4	0.07652417
251	0x3eb6f0e6	0.35730666
252	0x3eac5a9c	0.3366288
253	0x3e192e92	0.14959171
254	0x3e818a2f	0.25300738
255	0x3d3a06a0	0.045416474

net.model.0.bias f4 [128]
0	0x3ea5519a	0.3228882
1	0xbdad4e21	-0.084621675
2	0x3ef971fe	0.48719782
3	0x3ecb0f74	0.39660227
4	0xbe5d8751	-0.2163365
5	0x3e06f0bf	0.13177775
6	0x3eb413d6	0.35171384
7	0x3eaec3b9	0.341337
8	0xbe77b3d5	-0.24189694
9	0x3e534824	0.20632988
10	0xbe6e4e00	-0.23271942
11	0x3e065559	0.13118495
12	0xbde65051	-0.11245788
13	0xbebcdbcb	-0.3688644
14	0x3e8cfe80	0.27537918
15	0x3e3b4eb9	0.18291749
16	0xbe8cb44a	-0.274813
17	0x3e1bfcfc	0.15233225
18	0x3e2e27e4	0.17007405
19	0x3e36b93d	0.178441
20	0x3e4b8023	0.19873099
21	0x3ee2f170	0.44324827
22	0xbde99c58	-0.11406773
23	0xbe06af91	-0.13152911
24	0x3dc80322	0.097662225
25	0xbeb5dcb0	-0.35519934
26	0x3ec0fe57	0.37694046
27	0x3dcf51b6	0.10123007
28	0xbddb3948	-0.10704285
29	0x3ee46f71	0.44616273
30	0xbe8e918c	-0.27845418
31	0xbc277c13	-0.010222453
32	0x3dfbb3cb	0.12290152
33	0xbe637c19	-0.22215308
34	0x3ed9a72c	0.42510355
35	0x3e8fda83	0.280964
36	0xbe842f67	-0.25817415
37	0x3e5e0fe8	0.21685755
38	0x3e7a9876	0.24472222
39	0x3e886b4d	0.26644364
40	0x3dcbccba	0.09951158
41	0xbe65c419	-0.22438087
42	0xbe241885	-0.16024978
43	0x3ed72d2f	0.4202666
44	0xbe88cdc1	-0.26719478
45	0x3ecdec22	0.40219218
46	0x3e2f3f5f	0.17114018
47	0x3dd6f651	0.104962
48	0x3e2bacad	0.1676509
49	0xbab6e0e1	-0.0013952517
50	0x3ef3fa74	0.47652018
51	0xbd9a16b0	-0.075238585
52	0x3e8d9e6b	0.27659926
53	0xbebd48a1	-0.36969474
54	0x3e9216f5	0.2853314
55	0xbe9ac341	-0.30227092
56	0xbe683895	-0.22677834
57	0xbc8ddd0e	-0.017317321
58	0xbea31d6c	-0.31858385
59	0xbeacd2e4	-0.33754647
60	0xbd9b4d6a	-0.07583125
61	0x3ebb1ea2	0.36546808
62	0xbcf86cd2	-0.030325327
63	0x3dec5ae2	0.11540772
64	0xbebd976c	-0.37029588
65	0x3ec1d2b8	0.37856078
66	0xbeb0a116	-0.344979
67	0x3eccb9da	0.39985543
68	0x3de409ab	0.111346565
69	0xbeca2b8d	-0.39486352
70	0x3eaf8351	0.34279874
71	0xbe3f6978	-0.18692577
72	0xbd9cc739	-0.07655186
73	0x3e2b179e	0.16708228
74	0x3e7d41b6	0.24732098
75	0x3ed652b7	0.4185998
76	0xbe8c1833	-0.27362213
77	0x3e6f5244	0.23371226
78	0x3e2fa3f3	0.17152385
79	0xbe537694	-0.20650703
80	0x3ee3f617	0.4452369
81	0xbbba2875	-0.0056810924
82	0xbd3a1d21	-0.045437936
83	0xbd7585dc	-0.05994211
84	0xbe938537	-0.28812572
85	0xbeceefe7	-0.40417406
86	0xbd2b74d1	-0.04185945
87	0x3e9e1472	0.30874974
88	0x3e55b023	0.20867972
89	0xbdd2b28f	-0.102879636
90	0xbd9597ae	-0.07304321
91	0x3e186659	0.14882793
92	0xbe9827ef	-0.29717967
93	0x3e4bc519	0.19899406
94	0x3e162c9a	0.14665452
95	0xbda9a505	-0.08283428
96	0x3e881073	0.2657505
97	0x3eae5966	0.3405258
98	0x3eb872a5	0.36024967
99	0xbe3663be	-0.17811486
100	0xbe97ea7e	-0.2967109
101	0xbe01d626	-0.12679347
102	0xbe73cf91	-0.23809649
103	0x3e8e1722	0.27752024
104	0xbe67cd20	-0.22636843
105	0xbe991a21	-0.29902747
106	0xbd49f167	-0.049302485
107	0xbecf8057	-0.40527603
108	0xbec01a6a	-0.37520152
109	0x3e4a0232	0.197274
110	0x3ee44e3a	0.44590932
111	0x3ec0d04e	0.37658924
112	0xbebe306c	-0.37146318
113	0x3ddb16c0	0.106976986
114	0x3ea263e7	0.31716844
115	0x3e82b8e7	0.25531694
116	0xbe6d8749	-0.23196138
117	0x3eaeae11	0.34117177
118	0x3eba40f6	0.36377686
119	0x3dc02db0	0.09383714
120	0xbcbd0578	-0.023073897
121	0x3e9dd818	0.3082893
122	0xbec869c2	-0.39143187
123	0xbeccc760	-0.3999586
124	0x3dd77aed	0.10521493
125	0xbd8a8d6e	-0.06765257
126	0x3e380cd5	0.17973645
127	0xbde3e219	-0.11127109

net.model.2.weight f4 [128, 128]
0	0x3dc925c9	0.0982166
1	0xbcb29fef	-0.021804778
2	0x3d8498ec	0.0647448
3	0xb8cf060b	-9.871655e-05
4	0xbd24751d	-0.04015075
5	0xbb2611f3	-0.0025340288
6	0xbbfe7d24	-0.007766383
7	0x3dae703a	0.08517499
8	0x3d3dbaf7	0.04632088
9	0x3d0a6b85	0.033793945
10	0x3d4af558	0.049550384
11	0x3d9aa21f	0.075504534
12	0xbdaa24a5	-0.08307771
13	0xbd698b6a	-0.05701772
14	0x3dfc7493	0.12326922
15	0x3db7c88a	0.08973797
16	0xbd4821d2	-0.04886038
17	0x3db7043a	0.08936353
18	0x3b4d69ac	0.0031343503
19	0x3bce4dfe	0.0062959185
20	0xbc7cc90c	-0.015428793
21	0xbb4efc33	-0.0031583428
22	0xbd619a95	-0.05507906
23	0xbdb15c52	-0.08660187
24	0x3df7acb9	0.12093491
25	0xbc646730	-0.013940617
26	0xbcba4991	-0.022740157
27	0x3da033e2	0.07822396
28	0xbd90fb58	-0.0707919
29	0xbbd8c192	-0.0066148723
30	0x3bbcce32	0.005761885
31	0xbd8c5d99	-0.0685379
32	0xbbc463f8	-0.0059933625
33	0xbd21cf2a	-0.039504208
34	0xbcbb6a8b	-0.022877952
35	0x3d068d38	0.03284952
36	0xbd88b05a	-0.066742614
37	0x3b45c8e3	0.0030179552
38	0x3db32b4a	0.08748491
39	0x3dc8e3a8	0.09809047
40	0x3dee5dd4	0.1163899
41	0x3db0e671	0.08637703
42	0x3d858966	0.06520347
43	0x3d7266db	0.059180122
44	0x3db28eff	0.087186806
45	0xbbbeec9e	-0.005826547
46	0x3d218ff3	0.03944392
47	0x3dca505b	0.09878608
48	0x3dcc70ef	0.09982478
49	0xbd39b22b	-0.04533593
50	0x3e026365	0.12733229
51	0xbd879161	-0.06619526
52	0xbd26ffb1	-0.04077119
53	0x3cd46669	0.02592774
54	0x3d6e5094	0.058182314
55	0xbdb249c8	-0.08705479
56	0xbb5cd33e	-0.0033695246
57	0x3da02d92	0.07821192
58	0x3d1dbd5b	0.03851066
59	0x3d45c667	0.048284914
60	0x3d37488e	0.044746928
61	0x3e07d55a	0.13264981
62	0xbca753c1	-0.02042568
63	0x3d9ae9f0	0.07564151
64	0x3c84fb42	0.01623309
65	0x3ddcad95	0.10775296
66	0x3d3d51f3	0.04622073
67	0xbc90c20a	-0.01767065
68	0x3b9a7561	0.0047136997
69	0xbdb103b0	-0.086432815
70	0xbcf273ce	-0.029596236
71	0x3d0aaeb4	0.033858016
72	0x3cfaceb5	0.030616144
73	0x3d8577e1	0.06517006
74	0x3dbd1149	0.092318125
75	0x3db8e713	0.09028449
76	0xbd9c3ceb	-0.07628807
77	0x3dd17ea2	0.102292314
78	0x3dfaf1d3	0.122531556
79	0xbca25d59	-0.019819902
80	0x3c3fb67c	0.0117012225
81	0x3bedd392	0.007257887
82	0x3c258702	0.010102989
83	0x3d46e18e	0.04855495
84	0xbc465a2d	-0.0121064605
85	0x3c906155	0.017624537
86	0x3d854480	0.06507206
87	0x3d7ba6e5	0.06143846
88	0x3dc57d93	0.09643092
89	0xbd901cb7	-0.07036727
90	0x3d5d3b65	0.05401172
91	0x3d2e7fad	0.04260223
92	0xbd9482c8	-0.07251507
93	0xbd1a294e	-0.037637047
94	0x3dbecb0e	0.09316073
95	0xbd460ab4	-0.04835005
96	0x3ddd53c0	0.1080699
97	0xbcbe5e45	-0.02323831
98	0x3d4bd82b	0.0497667
99	0x3d7f75f6	0.062368356
100	0xbdab983d	-0.083786465
101	0xbd9b4752	-0.07581963
102	0xbd27a2f1	-0.040926877
103	0x3dd4897b	0.10377785
104	0x3db32878	0.08747953
105	0xbd8fd853	-0.070236824
106	0xbc8c3a44	-0.017117627
107	0xbd857cd4	-0.0651795
108	0xbdaaa358	-0.083319366
109	0x3c4042fc	0.01173472
110	0x3db84a18	0.08998507
111	0x3d9a724e	0.07541333
112	0x3d032338	0.03201601
113	0x3dc70aaa	0.09718831
114	0x3dee7b4d	0.116446115
115	0x3d2071b1	0.039170925
116	0x3d0525ce	0.032506756
117	0x3c336aee	0.010950787
118	0x3c3a4702	0.011369469
119	0x3e0f4a6a	0.1399323
120	0xbc15dfa8	-0.009147562
121	0x3df52d40	0.119715214
122	0xbcaf5855	-0.021404425
123	0x3d652139	0.055939887
124	0x3d09c804	0.033638015
125	0xbca1b99c	-0.019741826
126	0x3d7b142e	0.06129854
127	0x3db138dc	0.08653423
128	0xbd464f68	-0.04841557
129	0x3c8a4558	0.016878769
130	0xbd3d7fb6	-0.046264373
131	0x3d1598ac	0.036522552
132	0xbd6638c1	-0.05620647
133	0xbd80257d	-0.0625715
134	0xbcecbfc7	-0.02890004
135	0x3dab0f24	0.08352497
136	0x3da06436	0.07831614
137	0x3d632ccb	0.05546264
138	0x3caa41f3	0.0207834
139	0xbd09e88a	-0.033669032
140	0x3d4d14ef	0.050068792
141	0xbd7cc59b	-0.06171189
142	0x3d3bfed6	0.045897327
143	0xbd8190ee	-0.06326471
144	0x3daf1198	0.085482776
145	0xbcff3007	-0.03115083
146	0x3c6df02a	0.014522592
147	0xbc2e7f56	-0.010650476
148	0x3db0ac8e	0.08626662
149	0xbd887744	-0.06663373
150	0xbd9cfc24	-0.076652795
151	0x3cf8131d	0.030282551
152	0x3d547348	0.051867753
153	0xbd173ade	-0.036921374
154	0x3d6e2552	0.05814106
155	0x3c9d830d	0.019227529
156	0x3c9181b3	0.01776204
157	0xbdb1036f	-0.08643233
158	0x3d0b8dff	0.034070965
159	0xbc65dbe1	-0.014029474
160	0x3d8312d7	0.06400078
161	0x3ccd0b79	0.025029885
162	0x3d4218a0	0.047386765
163	0xbd0f0b5f	-0.034922954
164	0x3c6f61f0	0.014610752
165	0xbd29a7e4	-0.04141988
166	0xbcb458d6	-0.022015017
167	0x3bacb434	0.0052705053
168	0x3da2c990	0.07948601
169	0xbd0f1c13	-0.034938883
170	0x3c4ea6f2	0.012613045
171	0xbc3187e0	-0.010835618
172	0xbdaced53	-0.084437035
173	0x3d667c0d	0.056270648
174	0xbd96da78	-0.07365888
175	0x3c2fdb31	0.010733412
176	0x3d29f3df	0.04149234
177	0x3d4bf036	0.04978963
178	0xbd08db70	-0.033412397
179	0xbceaaa06	-0.028645527
180	0xbda5a2c2	-0.08087684
181	0xbdaecb9a	-0.08534928
182	0xbc860c0c	-0.016363166
183	0xbd5ad48b	-0.053425353
184	0xbcee4f1e	-0.02909046
185	0xbc914aa8	-0.017735794
186	0x3d396603	0.0452633
187	0xbced237b	-0.028947582
188	0x3b01a4f1	0.001978215
189	0xbd0d892b	-0.03455464
190	0x3d6dd4b9	0.058064196
191	0x3d4a713f	0.049424406
192	0xbd3b8717	-0.04578313
193	0xbb8a0e42	-0.0042131254
194	0x3b3c7cca	0.0028760904
195	0xbd123c00	-0.03570175
196	0xbd49eff8	-0.049301118
197	0x3d91d10d	0.071199514
198	0x3da9e282	0.08295156
199	0xbd849ef4	-0.064756304
200	0xbcf93211	-0.030419381
201	0xbd23fb37	-0.0400345
202	0xbd4465b6	-0.04794856
203	0xbcaf8a01	-0.02142811
204	0x3ccabbd9	0.024747776
205	0x3d290b1c	0.04127036
206	0x3d002d17	0.031293
207	0xbaa531ef	-0.0012603382
208	0x3d5e50f5	0.054276425
209	0xbc75c26d	-0.014999968
210	0x3d3b5a01	0.04574013
211	0x3d92ae80	0.071621895
212	0xbbdcbcb4	-0.0067363624
213	0xbda76665	-0.08173827
214	0x3d7b26cd	0.0613163
215	0x3d36ea2e	0.044656925
216	0x3ce6205b	0.0280916
217	0xbd2949db	-0.0413302
218	0x3d5de0f5	0.054169614
219	0xbadbdec2	-0.0016774761
220	0xbd93af2c	-0.07211146
221	0x3d9809ee	0.07423769
222	0x3d3cc232	0.046083637
223	0xbd5f058c	-0.05444865
224	0xbda1cbee	-0.079002246
225	0xbda21e35	-0.07915918
226	0x3d4a7b23	0.04943384
227	0xbdb24b33	-0.08705749
228	0xbd8cfc44	-0.06884053
229	0xbb1eacfc	-0.0024211993
230	0x3c8d191d	0.017223889
231	0x3d828120	0.06372285
232	0x3d92cc24	0.07167843
233	0xbd026c7a	-0.031841733
234	0x3d14d1ff	0.03633308
235	0xbd1b020f	-0.03784376
236	0x3d85649a	0.06513329
237	0x3cacee19	0.021109628
238	0xbaad8528	-0.0013238536
239	0xbc88b240	-0.016686559
240	0x3c92d714	0.017924823
241	0xbaf47731	-0.0018651244
242	0x3cff621f	0.031174717
243	0xbc927848	-0.01787962
244	0x3d991317	0.07474344
245	0x3da66277	0.081242494
246	0xbd35fe40	-0.044431925
247	0xbce91392	-0.028451715
248	0x3b4e25da	0.0031455667
249	0x3da65062	0.081208006
250	0x3cce1afb	0.02515935
251	0x3d7b8889	0.061409507
252	0xbd1f9641	-0.038961653
253	0xbd01bf26	-0.031676434
254	0xbd71d941	-0.05904508
255	0xbcba3eaa	-0.022734959

net.model.2.bias f4 [128]
0	0x3d9af433	0.075661086
1	0xbd0bdb37	-0.034144606
2	0x3d7d9924	0.061913624
3	0x3d583493	0.052784514
4	0x3d83b396	0.06430738
5	0x3e03a45c	0.12855667
6	0x3def05a5	0.116709985
7	0xbd6a2c0c	-0.057170913
8	0xbda0f03f	-0.07858323
9	0x3e035d77	0.12828623
10	0xbd4a518d	-0.04939418
11	0xbd38b2d4	-0.04509242
12	0x3e3ebca3	0.18626647
13	0x3ddc2723	0.10749652
14	0x3d2ec87c	0.042671666
15	0xbd82cd4e	-0.06386815
16	0x3de744a9	0.11292393
17	0x3d1e9967	0.038720515
18	0xbd9f9da8	-0.077937424
19	0x3dd20304	0.102544814
20	0x3d7052e9	0.05867282
21	0xbd4831e5	-0.048875708
22	0x3d86b529	0.06577522
23	0xbb224598	-0.002476072
24	0xbc7e7b84	-0.015532378
25	0x3e004299	0.12525405
26	0x3d40eb18	0.047099203
27	0x3dd029a2	0.10164191
28	0x3c4341a5	0.011917506
29	0xbc164027	-0.009170569
30	0x3b2671e6	0.0025397479
31	0x3d8dafd9	0.06918306
32	0xbd52bf38	-0.05145189
33	0x3d0d88af	0.03455418
34	0x3dd631ce	0.10458718
35	0xbd3548c7	-0.04425886
36	0xbd7c1a6e	-0.061548643
37	0x3d004e91	0.031324927
38	0xbd740dbf	-0.05958342
39	0x3d22b7bd	0.039726008
40	0x3b827894	0.003981659
41	0x3cacd1c6	0.021096122
42	0xbc2a9553	-0.010411578
43	0xbdac7d4a	-0.084223345
44	0xbd702df6	-0.05863758
45	0xbc9d18a7	-0.019176794
46	0x3c48cfa5	0.012256538
47	0x3dd57a84	0.104237586
48	0x3ce5a4f8	0.028032765
49	0x3d12b153	0.03581364
50	0x3bd6d8e3	0.0065566166
51	0xbc9e31d1	-0.019310864
52	0x3d93fb07	0.07225614
53	0x3d399058	0.045303673
54	0xbd84dd6a	-0.06487544
55	0x3d3a3dbb	0.045469027
56	0x3d72cf90	0.05927998
57	0x3d13e5f4	0.036107972
58	0x3c6a1440	0.014287055
59	0x3e0d50b9	0.13800324
60	0xbd956d14	-0.072961956
61	0xbd273f0d	-0.040831614
62	0xbd322753	-0.043494534
63	0x3d4c54bc	0.049885496
64	0xbd82fbd6	-0.0639569
65	0x3d9c51ac	0.07632765
66	0x3d7bbbd3	0.06145842
67	0xbd13ce41	-0.03608537
68	0xbc149d9d	-0.009070781
69	0xbdaeb745	-0.0853105
70	0xbd9b5783	-0.07585051
71	0xbd8a14ea	-0.0674227
72	0x3c3f304d	0.011669231
73	0x3d1732a3	0.036913525
74	0xbd02b10b	-0.031907123
75	0x3a13759a	0.0005625129
76	0x3cd2cca0	0.025732338
77	0x3cbbfeff	0.02294874
78	0x3ddde279	0.10834212
79	0x3be0807d	0.0068512545
80	0xbd6cf7df	-0.057853576
81	0xbd370655	-0.044683773
82	0xbd768892	-0.060188837
83	0xbd74e462	-0.059788115
84	0x3e086115	0.13318284
85	0xbd7ab83c	-0.061210856
86	0x3cebb3d4	0.028772272
87	0xbb44e376	-0.0030042804
88	0x3db31d17	0.08745783
89	0xbd860547	-0.06543975
90	0x3b958860	0.0045633763
91	0x3db2f7ff	0.08738708
92	0x3dcd79bc	0.100329846
93	0x3d137a88	0.036005527
94	0xbc55bb77	-0.013045183
95	0x3da4026a	0.08008273
96	0x3c057b60	0.008147091
97	0x3d9f50fc	0.077791184
98	0xbca28f6c	-0.01984378
99	0x3d719b97	0.058986273
100	0xbd876867	-0.0661171
101	0xbd75e7f0	-0.060035646
102	0x3d28636f	0.041110452
103	0xbd8f60b0	-0.070008636
104	0xbd4dd3d1	-0.050250832
105	0xbd23e71e	-0.040015332
106	0x3d775ed0	0.060393155
107	0xbd042676	-0.03226324
108	0x3dc11fc9	0.09429891
109	0xbda6a4d8	-0.0813691
110	0x3bdc0d94	0.006715486
111	0x3da44aca	0.080220774
112	0x3c0773b8	0.008267336
113	0x3cf25769	0.029582696
114	0x3d80feaa	0.06298573
115	0x3d965f16	0.07342355
116	0x3dc600f3	0.0966815
117	0xbd927482	-0.07151128
118	0x3b85aa66	0.004079151
119	0xba91a563	-0.0011111911
120	0xbcfcdf6d	-0.030868256
121	0x3cef0b68	0.029180244
122	0x3a30aefd	0.00067399425
123	0xbd04326d	-0.032274652
124	0xbcc2abbc	-0.02376353
125	0xbca218df	-0.01978725
126	0x3daa5429	0.083168335
127	0xbc9966b9	-0.01872574

net.model.4.weight f4 [64, 128]
0	0x3da67c45	0.08129171
1	0xbd9035b7	-0.07041495
2	0xbc969df5	-0.018385867
3	0xbcd7ba41	-0.02633393
4	0x3d6d7d32	0.057980724
5	0x3c32c2d5	0.010910709
6	0x3de7dc11	0.11321271
7	0x3d1f01cb	0.03882007
8	0x3dac6ae1	0.08418823
9	0x3df977c9	0.1218105
10	0x3cb71e70	0.02235338
11	0x3d8a7f49	0.06762559
12	0x3e2459f5	0.16049941
13	0x3df19a9f	0.1179707
14	0x3d9dd57d	0.07706735
15	0x3d780315	0.060549814
16	0x3d4d2211	0.050081316
17	0x3d0209ab	0.0317475
18	0x3d76f372	0.06029076
19	0x3d65431b	0.0559722
20	0x3d609d20	0.054837346
21	0x3c0b8dbb	0.008517678
22	0x3d8b899a	0.06813355
23	0x3d9c668b	0.07636746
24	0xbd99b17a	-0.07504554
25	0xbd021b77	-0.031764474
26	0xba7f5ac2	-0.0009741002
27	0x3dff5a5a	0.12468405
28	0xbaa1e65b	-0.0012351976
29	0x3d999f04	0.07501033
30	0x3d882414	0.06647506
31	0x3d875b22	0.06609179
32	0x3c99d540	0.018778443
33	0x3d02745f	0.03184926
34	0x3d000f40	0.031264544
35	0xbdae36fa	-0.0850658
36	0x3db3394d	0.08751164
37	0x3d3a0c0d	0.04542165
38	0xbc5c2507	-0.013436562
39	0xbda19a5d	-0.078907706
40	0xbd80d31a	-0.062902644
41	0x3dbd9e22	0.09258677
42	0xbd69774e	-0.056998543
43	0x3bd54729	0.006508727
44	0xbd7d0adc	-0.061777934
45	0x3d89161d	0.06693671
46	0x3dd76f42	0.105192676
47	0x3da81e1c	0.08208868
48	0xbcc16e66	-0.023612212
49	0x3bfe653e	0.007763534
50	0xbc0bb51b	-0.008527066
51	0xbca1b48d	-0.019739414
52	0x3e075fe2	0.1322017
53	0xbd2f1a35	-0.042749602
54	0x3cc3d2cc	0.023904227
55	0xbd0ffe1b	-0.035154443
56	0xbd45b721	-0.04827035
57	0x3d5b4a4b	0.05353765
58	0x3c22aa2e	0.009928269
59	0xbceec803	-0.029148107
60	0xbafd3ebb	-0.0019321063
61	0xbd14c4d3	-0.03632052
62	0x3d473651	0.048635785
63	0x3dd7866d	0.105236866
64	0xbdb209f4	-0.08693305
65	0xbc5809dd	-0.013185945
66	0x3d818af7	0.063253336
67	0x3e085005	0.13311775
68	0x3cc9afcb	0.024619957
69	0x3d71612a	0.058930553
70	0xbd9f85f5	-0.07789222
71	0xbcf42efa	-0.029807556
72	0x3db9ff83	0.09081938
73	0xbd4e7d2e	-0.05041235
74	0x3d97f0d2	0.0741898
75	0xbd15b064	-0.036545172
76	0x3b5fc6ad	0.003414552
77	0x3d89f3ae	0.06735931
78	0x3e0288b9	0.12747468
79	0x3db37919	0.08763332
80	0x3d5723c3	0.05252434
81	0x3d74fd64	0.059811965
82	0x3c8e2a58	0.017354175
83	0xbd01bf53	-0.0316766
84	0x3dae5781	0.08512784
85	0x3d03a433	0.032139014
86	0xbbbe766e	-0.0058124578
87	0xbb4c69bf	-0.003119096
88	0x3d7ea38b	0.062167685
89	0xbd8c08bf	-0.06837606
90	0xbd8a1eff	-0.06744193
91	0x3d00f70a	0.031485595
92	0x3d94ac58	0.072594345
93	0x3e02847e	0.12745854
94	0x3d2fbad1	0.04290277
95	0x3db459a6	0.088061616
96	0xbc5d2d9e	-0.0134996455
97	0xbcff9cb9	-0.03120266
98	0x3dca48ac	0.09877142
99	0xbd025569	-0.031819735
100	0x3d9f4bd6	0.077781364
101	0x3d353d60	0.044247985
102	0x3dd1790b	0.10228165
103	0x3d8c343a	0.06845899
104	0xbd22954a	-0.039693154
105	0xbd875877	-0.0660867
106	0xbbc3ad4e	-0.0059715873
107	0x3d8a9b64	0.0676792
108	0x3d86b3ce	0.06577264
109	0xbd9c6cf4	-0.07637969
110	0x3de3caba	0.111226514
111	0x3cb51d6f	0.022108762
112	0xbd0a3463	-0.033741366
113	0x3e077a85	0.13230331
114	0xbd8d37f9	-0.068954416
115	0x3d922dd2	0.07137646
116	0x3c8f4a16	0.017491382
117	0x3d76381e	0.06011211
118	0x3b81e0de	0.003963574
119	0x3d249a67	0.040186312
120	0x3d9deb3c	0.07710883
121	0x3d9b6ca8	0.07589084
122	0x3ddded5d	0.10836289
123	0x3da7d62e	0.081951484
124	0xbda23c53	-0.07921662
125	0x3c224055	0.009903033
126	0x3dff6a4b	0.12471446
127	0xbc245e28	-0.010032214
128	0xbd2b3993	-0.041802954
129	0xbd363d8f	-0.0444923
130	0xbcdb2cfd	-0.02675485
131	0xbd83179a	-0.06400986
132	0xbd5672f5	-0.052355725
133	0xbce42f25	-0.027854512
134	0x3d89407b	0.06701752
135	0x3d66b460	0.056324363
136	0xbd4b2617	-0.049596872
137	0x3c35893e	0.011080084
138	0x3cf96a2c	0.030446135
139	0xbd1c85b2	-0.03821344
140	0x3dc1f916	0.094713375
141	0x3d85c15b	0.0653102
142	0x3dae2c57	0.08504551
143	0x3cb58eb9	0.022162782
144	0x3d9abe91	0.07555879
145	0x3c19710a	0.0093653295
146	0x3d887c06	0.066642806
147	0xbcacafb0	-0.021079868
148	0xbca232ee	-0.019799676
149	0xbd7ca04e	-0.061676316
150	0xbbe56411	-0.0070004542
151	0xbd0af007	-0.033920314
152	0x3d74067c	0.059576496
153	0x3d6e7d3f	0.058224913
154	0x3d1f20ef	0.038849767
155	0x3de82e29	0.11336929
156	0x3d62b915	0.05535229
157	0x3c5416fc	0.012944933
158	0xbda3693b	-0.079790555
159	0x3db47c1c	0.088127345
160	0xbd15f287	-0.036608245
161	0x3c368492	0.011140006
162	0x3da09879	0.07841582
163	0xbc78f350	-0.015194729
164	0x3a90c101	0.0011043848
165	0xbd980e87	-0.07424646
166	0x3d8c4b49	0.06850297
167	0xbd9ed8c1	-0.07756186
168	0xbd879f58	-0.06622189
169	0x3c914f56	0.017738026
170	0xbce6936b	-0.028146466
171	0x3d31ef4a	0.043441094
172	0x3d7bcc08	0.061473876
173	0xbd994c2c	-0.07485232
174	0x3de147a3	0.10999992
175	0x3dd114a3	0.10209014
176	0xbdb3f517	-0.087869816
177	0xbd732806	-0.05936434
178	0xbce334e1	-0.027735176
179	0xbd8013c9	-0.06253774
180	0x3c8c4fc1	0.017127873
181	0xbd434293	-0.047670912
182	0xbd3ea6c6	-0.046545766
183	0xbd809b0e	-0.06279574
184	0xbd34d24b	-0.044145864
185	0x3d77ee9d	0.060530294
186	0x3cc7dcb9	0.024397241
187	0x3c903350	0.017602593
188	0xbd505d62	-0.050870307
189	0x3b8c93ef	0.004290096
190	0xb9869676	-0.00025670574
191	0x3df44a35	0.11928216
192	0x3c7aac31	0.015299843
193	0x3c3ada42	0.011404576
194	0x3be7cd94	0.0070740674
195	0x3d74ee89	0.059797797
196	0x3cd988e2	0.026554529
197	0xbac982f9	-0.0015374116
198	0x3d275052	0.040848084
199	0xbdb0bfdb	-0.086303435
200	0x3d90e798	0.07075423
201	0x3da70566	0.081553265
202	0x3bad7320	0.005293265
203	0xbd9b058a	-0.07569416
204	0x3d81df49	0.063414164
205	0x3d991f91	0.07476724
206	0x3c8db314	0.017297305
207	0x3d08cfbd	0.03340124
208	0x3d7aacdb	0.061200004
209	0x3c1d1512	0.009587543
210	0x3d56fc49	0.05248669
211	0xbd87dc35	-0.06633798
212	0x3e003797	0.12521206
213	0x3b8982de	0.004196509
214	0x3dfd7c0d	0.123771764
215	0xbcb8225a	-0.022477318
216	0x3d5c07a4	0.053718224
217	0x3c147cf4	0.009062994
218	0xbd4ffb27	-0.050776627
219	0x3dcc255b	0.099680625
220	0xbd322c00	-0.043498993
221	0xbc924471	-0.017854901
222	0x3ddb8508	0.10718733
223	0x3df153da	0.117835715
224	0xbcbd1d20	-0.023085177
225	0x3de0bb73	0.10973253
226	0x3af98bd1	0.0019038861
227	0x3d3034a8	0.043018967
228	0x3c427c2f	0.011870428
229	0x3c9d7ae6	0.019223642
230	0x3d53f54a	0.051747598
231	0xbd1bfb6a	-0.038081564
232	0xbc8d3f37	-0.017242057
233	0xbbcd3351	-0.006262221
234	0xbd94b7a6	-0.07261591
235	0x3c879d54	0.016554512
236	0x3e05706b	0.13031165
237	0xbdafd209	-0.08584983
238	0xbac4d16e	-0.0015016028
239	0x3c2f0772	0.010682927
240	0xbd90d4b2	-0.070718184
241	0xbbbc0f49	-0.005739127
242	0xbd776c8b	-0.06040625
243	0x3b3563ed	0.0027677969
244	0x3d845301	0.06461144
245	0x3d484eb0	0.048903167
246	0xbc91b1a6	-0.017784905
247	0xbd09f845	-0.033684034
248	0xbd9bc5e8	-0.07606107
249	0xbaf058b6	-0.0018336985
250	0x3dbd5d70	0.092463374
251	0x3d3503c1	0.044193033
252	0x3bb5c88d	0.005547589
253	0xbcc805a9	-0.024416761
254	0x3db985ec	0.09058747
255	0x3d743ef7	0.05963036

net.model.4.bias f4 [64]
0	0x3c0f68f1	0.008753047
1	0x3dcfe522	0.101511255
2	0x3d35409e	0.044251077
3	0x3d7135a2	0.05888904
4	0x3cb0d577	0.021586163
5	0x3d8eb0b7	0.069672994
6	0xbbd0d26b	-0.00637274
7	0xbd47dadb	-0.0487927
8	0xbd1a31c2	-0.03764511
9	0x3d8d7d9d	0.069087245
10	0x3c234e82	0.009967448
11	0x39b43e75	0.0003437881
12	0xbbcd5816	-0.006266604
13	0x3d9b3c8a	0.07579906
14	0x3d3b1c21	0.045681123
15	0x3bd0a1c1	0.006366939
16	0xbd0d89dd	-0.034555305
17	0xbd02159c	-0.03175889
18	0xbd63e6ea	-0.05564014
19	0xbd5ae389	-0.05343965
20	0x3d857777	0.06516927
21	0xbd114083	-0.035461914
22	0x3dcd8dff	0.10036849
23	0x3c97b16f	0.018517224
24	0x3dbe9113	0.093050145
25	0xbd8484f7	-0.064706735
26	0xbcc4354f	-0.0239512
27	0x3d760f0f	0.060072955
28	0xbc1aa273	-0.009438145
29	0x3da8fc5e	0.0825126
30	0xba2e0c08	-0.0006639366
31	0xbda851f2	-0.08218755
32	0xbd8072bb	-0.06271883
33	0xbc4e50ad	-0.012592477
34	0xbc37a2c0	-0.011208236
35	0x3d491dc4	0.049100652
36	0x3dd89045	0.10574392
37	0x3da30f84	0.07961944
38	0xbc8ade7a	-0.016951788
39	0x3ca40548	0.02002205
40	0x3d133f3f	0.035948988
41	0x3d66aed2	0.056319065
42	0x3cac0908	0.0210004
43	0xbdb3ec62	-0.08785321
44	0x3ce3ba42	0.027798776
45	0x3d02300e	0.03178411
46	0x3c50cfe5	0.012744878
47	0x3d646a5e	0.055765502
48	0xbbc4ff18	-0.006011855
49	0x3cf1391f	0.029446183
50	0xbda182e7	-0.07886296
51	0x3d65e29f	0.056124326
52	0xbd8f2f21	-0.06991411
53	0x3d4a91b5	0.049455363
54	0x3c1a4065	0.009414767
55	0xbcc16283	-0.023606544
56	0x3c0d89fc	0.008638855
57	0x3d127dfb	0.035764676
58	0x3d891abc	0.06694552
59	0x3defeafd	0.11714742
60	0x3da46130	0.080263495
61	0x3d93542c	0.07193789
62	0xbbddff42	-0.006774814
63	0xbd529016	-0.051406942

net.model.6.weight f4 [8, 64]
0	0x3d4ea234	0.050447658
1	0xbce61eaf	-0.028090803
2	0x3cd5ee09	0.02611448
3	0x3d47d578	0.048787564
4	0xbd3ce5a2	-0.046117432
5	0x3df9dcb2	0.122002974
6	0x3df45cf1	0.1193179
7	0xbc677520	-0.014127046
8	0x3ee9a7ec	0.45635927
9	0x3ceeedeb	0.029166183
10	0x3f088aa9	0.5333658
11	0xbd337bf3	-0.04381938
12	0xbd82b43e	-0.06382035
13	0x3d3ff7d3	0.046867203
14	0xbd66431c	-0.056216344
15	0x3daba3d9	0.08380861
16	0xbdd9e74c	-0.106398195
17	0x3e216d0d	0.15764256
18	0xbdca5c72	-0.09880914
19	0x3cf4d6e1	0.029887618
20	0x3cf3690b	0.029713174
21	0x3df1bbda	0.11803408
22	0xbcb907d4	-0.02258674
23	0x3d04ab62	0.032390006
24	0x3c91adc2	0.01778305
25	0xbd92f58c	-0.071757406
26	0x3d36bde4	0.044614688
27	0x3d6414cb	0.055683892
28	0x3d8b88be	0.06813191
29	0x3dd83879	0.10557646
30	0xbb3c6311	-0.0028745572
31	0x3d48e9b2	0.049050994
32	0xbc466120	-0.012108117
33	0x3df82e10	0.12118161
34	0x3d14d711	0.036337916
35	0xbc35e7d6	-0.011102637
36	0x3d69d505	0.057087917
37	0x3e0f6628	0.14003813
38	0xbdf242d6	-0.11829154
39	0xbdfae230	-0.12250173
40	0xbdd14d7a	-0.102198556
41	0xbdd135ea	-0.102153614
42	0x3d938607	0.07203298
43	0x3ded9d1e	0.11602233
44	0xbd6643b8	-0.056216925
45	0xbd8e29cb	-0.06941565
46	0x3e2222c8	0.1583358
47	0xbdd94a1a	-0.10609837
48	0x3d2f7d1a	0.042843916
49	0x3d15d82d	0.036583114
50	0x3d8976f6	0.06712143
51	0x3e249c52	0.16075256
52	0x3de40f48	0.11135727
53	0xbd82353a	-0.063578084
54	0x3dec31c2	0.11532928
55	0x3c6fffb0	0.014648363
56	0x3ddbd9cd	0.107349016
57	0x3dedf6a4	0.116193086
58	0x3db4dbfa	0.0883102
59	0x3dd4edcf	0.10396921
60	0xbd8dbedc	-0.06921169
61	0x3e00811b	0.1254925
62	0x3c85ace1	0.016317787
63	0xbcbbc048	-0.022918835
64	0x3e1d489d	0.15359731
65	0x3e25a363	0.16175608
66	0x3e2e4a20	0.17020464
67	0xbda03343	-0.078222774
68	0x3df4e45f	0.11957621
69	0x3db789ab	0.08961805
70	0xbca1267e	-0.019671675
71	0x3d2e8bcc	0.04261379
72	0x3eb58a6c	0.3545717
73	0x3da700ff	0.08154487
74	0x3f01e249	0.5073591
75	0xbd8d61d9	-0.069034286
76	0x3da42f0a	0.080167845
77	0x3dbbe097	0.091736965
78	0xbdb01d2e	-0.085993156
79	0xbd8b4d8b	-0.068018995
80	0xbd0d6a54	-0.03452523
81	0x3bbb1949	0.0057098013
82	0x3c6e4860	0.014543623
83	0xbdbd618d	-0.09247122
84	0x3db5ca11	0.08876432
85	0xbda9b514	-0.08286491
86	0x3da3586f	0.07975852
87	0xbdca8e95	-0.098904766
88	0x3dad24cf	0.08454286
89	0xbd2f3bf4	-0.042781785
90	0xbdad919c	-0.084750384
91	0x3e07d956	0.13266501
92	0x3cac3246	0.021020066
93	0x3db065f4	0.08613196
94	0x3c352b88	0.011057742
95	0x3da01b98	0.07817763
96	0xbdc99a68	-0.09843904
97	0xbd89f73e	-0.06736611
98	0xbc98a82f	-0.018634884
99	0xbda74964	-0.08168295
100	0xbd14e980	-0.036355495
101	0x3e0633b1	0.13105656
102	0xbdaaa282	-0.08331777
103	0xbddb1fc4	-0.10699418
104	0x3d4549d6	0.04816612
105	0xbdecadd3	-0.11556592
106	0xbd8c2c6e	-0.06844412
107	0x3d75e6c4	0.06003453
108	0x3d8c4192	0.06848444
109	0x3b179db1	0.0023134763
110	0x3cda3428	0.026636198
111	0x3d29f09c	0.04148923
112	0x3cd5e1fa	0.02610873
113	0x3c51214a	0.012764284
114	0x3de879d2	0.113513604
115	0x3df80abc	0.121114224
116	0x3d378094	0.044800356
117	0xbd98714a	-0.07443483
118	0x3dc5df6f	0.09661757
119	0xbd714614	-0.058904722
120	0x3e21b9e5	0.1579357
121	0xbc29b89f	-0.0103589585
122	0x3dcc18ce	0.099656686
123	0x3b2c15cd	0.0026258111
124	0xbc4d67df	-0.012536972
125	0x3dbf2bce	0.09334527
126	0xba8942ad	-0.0010472141
127	0xbca8ee08	-0.020621315
128	0xbc09bff6	-0.008407583
129	0xbdb472bf	-0.088109486
130	0xbc28fb54	-0.010313828
131	0xbdc4eb51	-0.096151955
132	0x3d0e5ba5	0.034755368
133	0x3b0f45c5	0.0021861654
134	0x3dd82fc2	0.10555984
135	0x3dd180b2	0.10229625
136	0xbd271847	-0.040794637
137	0xbdcc0f01	-0.09963799
138	0xbdb6f4fc	-0.08933446
139	0x3d2ed252	0.042681046
140	0x3d950b34	0.072775275
141	0xbd544166	-0.05182018
142	0x3dab936e	0.08377729
143	0xbd85ac70	-0.065270305
144	0x3cabe828	0.020984724
145	0x3da0dc28	0.078544915
146	0x3da77012	0.081756726
147	0xbd98aef1	-0.074552424
148	0x3d783f83	0.060607444
149	0x3d563848	0.052299768
150	0x3d2d40be	0.04229807
151	0xbd0c563f	-0.03426194
152	0xbd9c6f49	-0.076384135
153	0x3d86b2e2	0.06577088
154	0x3b8153e0	0.0039467663
155	0x3da18e74	0.07888499
156	0x3d56a040	0.05239892
157	0xbdc69db3	-0.096980475
158	0x3db33f68	0.08752328
159	0x3cfeca1f	0.031102238
160	0xbdb2240c	-0.08698282
161	0xbc561410	-0.013066307
162	0x3b813873	0.003943497
163	0xbdef2e97	-0.11678808
164	0xbdaba551	-0.08381141
165	0xbd93b334	-0.07211915
166	0x3c881f68	0.016616538
167	0x3dd8a936	0.105791494
168	0xbd83bdc6	-0.06432681
169	0xbdfb8571	-0.12281311
170	0x3df0ea91	0.1176349
171	0x3d606d2c	0.054791614
172	0x3dec6b24	0.11543873
173	0x3dbf5240	0.0934186
174	0xbd680a88	-0.05665067
175	0xbcd918ea	-0.026501138
176	0x3d96b8a0	0.07359433
177	0xbdb14256	-0.08655231
178	0x3d764554	0.06012471
179	0xbd076b61	-0.03306139
180	0x393acc00	0.00017814338
181	0x3d1cf920	0.03832352
182	0xbddbaba1	-0.10726095
183	0xbd73cf18	-0.059523672
184	0xbde645ec	-0.11243805
185	0x3d7b8bfe	0.061412804
186	0x3dbef3b0	0.093238235
187	0xbd110c02	-0.035411842
188	0x3dce336e	0.10068403
189	0xbddde40b	-0.10834511
190	0x3dcf635e	0.10126375
191	0xbd8a8308	-0.067632735
192	0xbe02dae6	-0.12778816
193	0xbcc9b086	-0.024620306
194	0xbcd80a6d	-0.026372159
195	0xbd1d3678	-0.038382024
196	0xbca54b92	-0.020177636
197	0xbdeb6a75	-0.114949144
198	0x3d414802	0.047187813
199	0xbd5292d8	-0.051409572
200	0xbee782f2	-0.4521709
201	0x3dad664a	0.08466776
202	0xbf08e767	-0.5347809
203	0xbdf9408a	-0.12170513
204	0x3dc1dc40	0.094658375
205	0x3d9df995	0.077136196
206	0x3d0c10f8	0.03419587
207	0x3d21fe61	0.039549235
208	0xbd112378	-0.035434216
209	0x3d34cb33	0.0441391
210	0xbcf33938	-0.02969037
211	0xbdc3a265	-0.09552459
212	0x3d8a295d	0.06746171
213	0x3d806ca6	0.06270723
214	0xbd52127a	-0.051287152
215	0xbde915f4	-0.1138114
216	0xbd9bd76c	-0.07609448
217	0x3d169448	0.036762506
218	0x3d4642f8	0.04840371
219	0xbe3488ef	-0.17630361
220	0x3c9b69b2	0.018971298
221	0xbe0050b3	-0.12530784
222	0x3dd4f023	0.10397365
223	0xbd5b9fc9	-0.05361918
224	0xbd060324	-0.03271784
225	0x3caa0ab0	0.02075705
226	0xbc433730	-0.011915013
227	0xbb229c07	-0.0024812238
228	0xbdeb02e7	-0.11475163
229	0x3d1985f0	0.03748125
230	0xbc0f8020	-0.008758575
231	0xba553c00	-0.0008134246
232	0x3d95b5b6	0.07310049
233	0xbdb266d9	-0.08711023
234	0x3df04a06	0.11732869
235	0xbd4d62b8	-0.050142974
236	0xbdc90e8c	-0.09817228
237	0xbe059020	-0.1304326
238	0xbe245b54	-0.16050464
239	0xbd6eeaf2	-0.05832953
240	0xbd7c1e5b	-0.061552387
241	0x3b734f82	0.0037126248
242	0xbdbe9e2a	-0.09307511
243	0xbdfb4e15	-0.12270752
244	0x3cb6dda0	0.022322476
245	0xbd923614	-0.07139221
246	0xbd8db045	-0.06918386
247	0x3d454968	0.04816571
248	0xbd782e54	-0.060591057
249	0xbe1e04f7	-0.15431581
250	0x3c2a50e0	0.010395259
251	0xbe2d8d83	-0.16948514
252	0xbc4cca4b	-0.012499402
253	0x3c786b18	0.015162252
254	0xbd494378	-0.04913661
255	0x3d1476c0	0.03624606

net.model.6.bias f4 [8]
0	0xbadca4ce	-0.0016833784
1	0x3c595a78	0.013266198
2	0x3c6c3552	0.014417009
3	0xbe05b875	-0.13058646
4	0xbd4fa31f	-0.050692674
5	0xbd08a2c0	-0.033358335
6	0xbc8a1b24	-0.016858645
7	0xbd8326f3	-0.06403913
