DAC/policy_actor.pth (torch, 112925 bytes, 14 tensors)

net.model.0.weight f4 [128, 6]
000000 34 8f 05 bc c8 46 cd be e1 cb 05 be 18 ee 78 3e
       -0.008151818 -0.40093064 -0.13066055 0.24309576
000010 12 f9 b8 3e b1 41 d6 bc 74 02 90 b8 6f f5 80 3e
       0.36127526 -0.026154371 -6.866912e-05 0.2518725
000020 03 89 67 be 23 88 87 3e d1 47 ba be 9b 49 34 be
       -0.2261086 0.26471052 -0.36382917 -0.17606203
000030 bf 36 04 be d1 3f 88 3d bf 09 29 be 16 0b 87 3e
       -0.12911509 0.06652797 -0.16507624 0.26375645
000040 13 c6 93 3e e2 60 b9 be 55 b7 a6 3e f8 cb 77 3d
       0.28862056 -0.36206728 0.32561746 0.060497254
000050 a7 3f 70 be 80 24 68 be 74 7f 55 be 26 6f 81 3e
       -0.23461781 -0.22670174 -0.20849401 0.25280112
000060 61 71 28 bd 56 e7 94 be c2 f4 af be c9 df 5f 3d
       -0.04112375 -0.29082745 -0.34366423 0.054656778
000070 b7 f4 a3 be 75 a6 07 3e be 98 8d 3e bf 55 c4 bd
       -0.3202264 0.13247092 0.27655596 -0.09586667
000080 be ea a2 3e 5b ab ef 3d 16 2b 1f 3e f2 28 80 3e
       0.3181972 0.11702605 0.1554378 0.2503124
000090 77 08 b0 3e 49 be 68 be f0 e1 8a 3c ef 74 6e be
       0.34381458 -0.22728838 0.016953439 -0.23286794
0000a0 65 11 de bd b2 f0 02 3e 65 f1 ae be 42 f0 8c 3e
       -0.108431615 0.1278713 -0.34168544 0.27527052
0000b0 39 a8 a5 bd 99 1f ce 3e e7 2c 2f be a8 7c 37 3e
       -0.080887266 0.40258482 -0.17106973 0.17918646
0000c0 e9 9f 9e 3e 80 65 69 be c7 c5 02 3e b5 c7 bf be
       0.30981377 -0.22792625 0.12770759 -0.37457052
0000d0 71 4c b8 ba 89 71 b0 be 13 87 af ba c2 32 0f be
       -0.0014060867 -0.3446162 -0.0013391696 -0.13984206
0000e0 4b 53 c9 be 17 2d a3 bc 6d af 78 be 64 01 60 be
       -0.3932136 -0.019918961 -0.2428567 -0.2187553
0000f0 b8 65 ba be 9b 38 00 3e 43 ac a0 3e 54 59 77 3e
       -0.3640573 0.12521593 0.31381425 0.2415517
000100 42 a4 63 be c7 14 81 be e9 ae 64 be 38 1f 3f be
       -0.22230628 -0.25211164 -0.22332348 -0.18664253
000110 7d 72 84 3e 69 ed fb 3d 31 b6 05 3c c4 64 d0 3e
       0.25868598 0.12301142 0.008161114 0.40701878
000120 5c 86 81 3d 44 14 d0 3d 2e 84 85 3d c9 e0 c4 3e
       0.06324455 0.10160115 0.06519352 0.38452747
000130 38 d1 0c be e0 40 44 be bb 7a 2d bd 24 00 b6 be
       -0.13751686 -0.19165373 -0.042353373 -0.35546982
000140 e0 06 a2 be bd 69 2d 3d 06 e3 8c be c9 63 b9 bc
       -0.3164587 0.042337168 -0.27516955 -0.02263059
000150 74 5d ce 3e 6f 90 15 bd 0f 62 ce 3e 2f fd 5d 3d
       0.40305674 -0.036514696 0.40309188 0.054196533
000160 e4 c0 a7 3e b4 4f 03 be 04 66 1e 3e da 0b 52 be
       0.3276435 -0.12823373 0.15468603 -0.20512334
000170 37 65 cb 3d a6 59 5b be f5 7b 91 3d 18 d4 46 bd
       0.099314146 -0.21420917 0.07103721 -0.048542112
000180 8b 60 27 3e 72 d5 cb be 7e 65 85 3e 44 cb 1d 3e
       0.16345422 -0.39811283 0.26053995 0.15409571
000190 e2 7c 58 3e a6 e8 92 be b1 e3 5e be a9 07 87 3e
       0.21141389 -0.28693122 -0.21766545 0.26373032
0001a0 78 7c 23 be 1e 37 b5 be 9d 03 ce 3e 4a 92 93 3e
       -0.1596545 -0.35393614 0.40237132 0.28822547
0001b0 c2 01 c9 be c8 af b9 be 4d 28 6e be 98 2c 27 be
       -0.39259154 -0.36266923 -0.23257561 -0.16325605
0001c0 a7 c4 47 3c c5 be b6 3e 0c 51 fc bb 39 e4 94 be
       0.012192882 0.3569242 -0.007700091 -0.2908037
0001d0 9c 8a 85 be 36 6c 94 3e e6 1b 33 be 36 d5 3e 3e
       -0.26082313 0.28988808 -0.17491111 0.18636021
0001e0 b3 7b 2d bb 01 e1 af be cd 90 c9 3e 83 82 d2 3c
       -0.0026471436 -0.34351352 0.39368287 0.025696998
0001f0 d1 0a 45 be 46 f5 47 3e f9 0c a2 3e 3f 37 b5 bd
       -0.19242407 0.19527158 0.31650522 -0.08848428
000200 07 74 02 3e 07 cd 49 3e cd 7a 78 3e 4e fa 2a 3e
       0.12739573 0.19707118 0.24265595 0.16697046
000210 94 7d de bd 96 44 bf 3c 14 a9 a6 3e fb a3 39 bd
       -0.10863796 0.023348134 0.3255087 -0.0453224
000220 17 5c d0 ba 48 f2 1b 3e af d3 06 3e ca 2e 6b be
       -0.0015896586 0.15229142 0.13166688 -0.22967067
000230 c5 a7 97 3e c2 de 86 bd 41 1f a5 bc 71 07 59 3e
       0.29620185 -0.065854564 -0.020156505 0.21194245
000240 52 65 37 3e 24 ed c6 3e c9 54 ca be 97 35 bf 3e
       0.17909744 0.388528 -0.3951781 0.37345573
000250 bb 30 4a be 15 7a 9a be f6 e4 81 3e b9 3f a1 be
       -0.19745152 -0.30171266 0.25369996 -0.3149393
000260 1f 84 8f be f9 c4 a2 3e f8 22 c0 3e 9f dc 56 3d
       -0.28030488 0.31790903 0.3752668 0.052456494
000270 84 66 b1 be 2d 7f c7 bd 63 e9 6f 3e 1f 42 f3 bd
       -0.34648526 -0.09741054 0.23428874 -0.11877846
000280 3c 35 81 be 87 ea 7f be 08 9b dc 3b 41 f9 c4 be
       -0.25235927 -0.24991809 0.0067323484 -0.38471416
000290 94 0e 86 be 0a 6f dc bc 0b c7 78 be be 28 c4 3e
       -0.26182997 -0.026908416 -0.24294679 0.38312334
0002a0 2d 78 a5 3d 64 41 8f 3e 7d 37 50 be c4 18 b5 3e
       0.08079562 0.27979577 -0.20333667 0.35370457
0002b0 52 e6 3a 3e 0d ff c9 be 61 0e 84 bd 29 ae 7e 3e
       0.18251923 -0.394524 -0.06448055 0.24871124
0002c0 3d 40 23 be ce e7 9d 3d 65 a3 42 be 88 ec b3 be
       -0.15942474 0.07710229 -0.19007643 -0.35141397
0002d0 de d6 80 3e 7c 06 f5 bd 99 db e9 3d 41 38 c0 be
       0.2516393 -0.119641274 0.11418838 -0.37542918
0002e0 c0 b5 1a 3e a0 6d 61 3e 4b 03 a4 3e b0 91 07 3e
       0.15108395 0.22014475 0.32033762 0.13239169
0002f0 96 b5 d4 3d f0 e1 2e be 0f 7c 0c 3e 86 09 10 be
       0.10386197 -0.17078376 0.137192 -0.14066133
000300 a5 33 ca be a5 a8 5b be 2e 72 d2 bc bf 8a c4 3e
       -0.39492527 -0.21451052 -0.02568921 0.38387105
000310 9e f5 02 be cf 3a 54 3d 8a 90 e6 3c ff 1b 5d be
       -0.12789008 0.051813897 0.028145093 -0.21592711
000320 7d 8c ae be 5b e9 1f be 4d f3 a1 bd 0b fb 66 be
       -0.3409156 -0.15616362 -0.07907734 -0.22556703
000330 f3 20 b6 3e df fc c4 bc c4 16 b0 3e 94 76 a2 3e
       0.35572013 -0.02404636 0.3439237 0.31731093
000340 0a fc 25 3e b7 b3 b8 be e2 6b aa 3e 56 b4 34 be
       0.16209427 -0.36074612 0.33285433 -0.17646918
000350 47 70 7c 3c 3a 4b b4 bd 7c 22 69 be 39 60 7e 3e
       0.015407628 -0.08803411 -0.22767061 0.24841394
000360 8b 6c 9b 3d cf 12 23 bd d2 21 8d bd 01 fc 85 3e
       0.07589062 -0.03981286 -0.06891216 0.26168826
000370 8c 90 64 be c1 56 84 3e 99 5e e0 bc f6 90 f4 b9
       -0.22320765 0.25847438 -0.027388858 -0.0004664731
000380 7b d5 a3 be 08 cd 43 3e aa fb 8e 3e 37 4a af 3e
       -0.3199881 0.19121182 0.2792638 0.3423631
000390 60 96 a9 be d8 9d 19 3d 97 fe 26 3d 1e b3 5c 3e
       -0.3312254 0.037504047 0.04077014 0.21552703
0003a0 f8 9e 0b 3e 4f cb 09 bd 3a cb 2b 3e 2d 9e 83 3e
       0.1363486 -0.033641156 0.16776744 0.25706616
0003b0 be bd cd be b4 1b 3e 3e 0c 6c ba 3e 8e ec 52 3d
       -0.40183824 0.18565255 0.36410558 0.051495127
0003c0 62 cd cc 3e 6f 21 ea 3d 8d 4c ae 3e e3 31 08 be
       0.40000445 0.11432158 0.3404278 -0.1330028
0003d0 46 fb c8 be 65 df a0 be c0 a2 9c be 6b 1d 82 be
       -0.39254206 -0.31420437 -0.30592918 -0.2541307
0003e0 88 77 83 3e 73 ee a9 be 7f 35 6c be 4c 19 95 be
       0.25677133 -0.33189735 -0.23067282 -0.29120862
0003f0 0f 43 71 be 51 e7 95 3d c5 86 ac 3e d2 bf 01 3e
       -0.23560737 0.07319511 0.3369657 0.1267083

net.model.0.bias f4 [128]
000000 cb e1 ca 3e ee 77 9b 3e d2 e9 43 3c d1 e7 ce bd
       0.3962539 0.30364937 0.011957603 -0.10102809
000010 53 7d bd be 10 c9 ca be f9 2b 91 bd 0a af dc 3d
       -0.37009677 -0.39606524 -0.07088465 0.107755736
000020 52 2f 57 3e 31 13 8c be 16 83 ce 3e 0d 76 f8 3d
       0.21014145 -0.27358392 0.40334386 0.121318914
000030 15 d5 f0 3b a9 ab 6f be c2 24 86 3d 92 e4 58 3d
       0.00734962 -0.23405327 0.0654998 0.052952357
000040 e6 99 98 bd 74 af 8e 3e 7b 60 94 3e d4 2b c6 3e
       -0.07451229 0.27868235 0.2897986 0.38705313
000050 b7 4b 67 3e 9a 3d 1e be c8 7c 9b be d9 5f a7 3e
       0.22587477 -0.15453187 -0.30368638 0.32690313
000060 4c ce 0d 3e e2 25 cc be d0 b5 d5 3d 72 5f 1a 3e
       0.13848227 -0.39872652 0.104350686 0.15075472
000070 63 52 c9 3d 46 b1 42 be 6b 81 d1 3d 7f 43 84 be
       0.09830167 -0.19012937 0.10229763 -0.25832745
000080 3c b6 92 bc 78 09 22 3e 02 0b 98 3e cc 54 c3 3d
       -0.017909162 0.15823925 0.29695898 0.09537658
000090 df 2d 58 be 6c 8f 20 be ea 17 5b be 8a 63 a4 3e
       -0.21111248 -0.15679711 -0.21395841 0.32107192
0000a0 06 9d 25 be b5 60 4e 3c c1 12 b5 3d 98 11 66 3e
       -0.16173181 0.012596299 0.08841468 0.22467649
0000b0 15 e9 d6 3d 77 f4 97 3e fd 8d a3 3d d7 40 73 bd
       0.104936756 0.296787 0.079860665 -0.059388008
0000c0 39 58 3a 3e 61 3a b3 3e fd cd 29 be 0a ef 97 bd
       0.18197717 0.35005477 -0.16582485 -0.0741864
0000d0 b9 1d f2 bd 55 30 90 3e 2d f3 b8 3c 07 3d 45 3e
       -0.118220754 0.28161874 0.022576893 0.19261561
0000e0 f0 07 89 3e 11 c2 09 3e 86 ce 1d be f4 d6 cb 3e
       0.26763868 0.13452937 -0.15410814 0.39812434
0000f0 28 4c 8a 3e 0b 07 39 3e d2 c7 48 be 1f 2e 4a be
       0.27011228 0.18069093 -0.19607475 -0.19744156
000100 6e c8 ff bd 41 fb a6 3e 40 dc 3e 3d 82 f4 98 3d
       -0.12489401 0.32613567 0.046596766 0.07468511
000110 9b 8f 7d be 95 83 72 3e dd 55 7c 3e ae 34 c6 be
       -0.24761812 0.23683007 0.24642129 -0.38712066
000120 1e a3 15 3e db 34 82 3e 62 70 cc 3e 0d cf 84 3e
       0.14613006 0.2543095 0.3992949 0.25939217
000130 12 8f 83 3e 37 8f ae 3e e5 cb 97 3c af 78 91 be
       0.2569509 0.3409364 0.018529842 -0.28412387
000140 92 94 b1 3e 57 a3 f6 3d 10 4e c9 be 78 85 99 3e
       0.34683663 0.12042873 -0.3931737 0.2998464
000150 af d3 57 3d fd ef 3d 3e b9 5b 58 be 54 11 85 3e
       0.05269211 0.1854858 -0.2112874 0.25989783
000160 8a 60 bd be 86 5d bd bd 1b 74 0f be 06 d8 b2 be
       -0.36987716 -0.09246354 -0.14009134 -0.34930438
000170 db 4e d4 3d 73 61 bc 3e b9 7b 31 bd 49 4c df 3d
       0.10366603 0.36793098 -0.04333088 0.10903222
000180 5d 29 bf be cf b4 72 bd 75 41 ca be 0e 7a 7b bd
       -0.37336245 -0.059254464 -0.39503065 -0.061395697
000190 15 2c 05 be c2 63 d4 3d a1 99 a2 3e 9e cd cc bd
       -0.13005097 0.1037059 0.31757835 -0.10000156
0001a0 fe 8a 11 be c9 92 a2 be 84 a5 a8 be 7a c6 be be
       -0.14213178 -0.31752613 -0.32938778 -0.372608
0001b0 bf bf 1d bd ed ba 11 bc f7 0f 3a 3e 21 8c c6 be
       -0.03851294 -0.008894664 0.18170153 -0.38778785
0001c0 11 2b 48 be aa 2c b8 3e 90 44 2d be 5d bb 28 be
       -0.19547679 0.35971576 -0.16920686 -0.16477723
0001d0 8e 9b da 3b c4 1a 3c be 7c e7 9d bc a9 18 c0 3d
       0.0066713756 -0.18369585 -0.01927542 0.093797036
0001e0 c1 32 cb be d8 90 24 be 93 99 cb bd 3d 8a 3e be
       -0.3968716 -0.16070879 -0.09941401 -0.18607421
0001f0 94 21 99 be 3a 8b e2 3c 48 1a 52 3e a9 b4 42 3e
       -0.2990843 0.027654279 0.20517838 0.19014229

net.model.1.weight f4 [128]
000000 46 c9 80 3f 36 18 7f 3f 00 00 80 3f 00 00 80 3f
       1.0061424 0.9964632 1.0 1.0
000010 00 00 80 3f 00 00 80 3f 00 00 80 3f 3e 3c 7e 3f
       1.0 1.0 1.0 0.9931067
000020 d5 f3 80 3f 00 00 80 3f 5e fe 7f 3f 80 4e 7e 3f
       1.0074412 1.0 0.9999751 0.9933853
000030 00 00 80 3f 00 00 80 3f 8b af 7e 3f cf 63 80 3f
       1.0 1.0 0.9948661 1.0030459
000040 00 00 80 3f 6b bf 7d 3f 1b ca 80 3f 11 e4 80 3f
       1.0 0.99120206 1.0061678 1.00696
000050 89 4c 80 3f 00 00 80 3f 00 00 80 3f 96 6c 80 3f
       1.0023357 1.0 1.0 1.0033138
000060 6f f9 80 3f 00 00 80 3f 26 ec 7a 3f 11 8a 7d 3f
       1.0076121 1.0 0.98016584 0.990388
000070 98 48 7c 3f 00 00 80 3f 72 fd 7c 3f 00 00 80 3f
       0.9854827 1.0 0.98824227 1.0
000080 00 00 80 3f 37 6c 80 3f cf b3 7f 3f 55 64 80 3f
       1.0 1.0033025 0.9988374 1.0030619
000090 00 00 80 3f 00 00 80 3f 00 00 80 3f d0 31 7e 3f
       1.0 1.0 1.0 0.9929476
0000a0 00 00 80 3f 03 c2 7e 3f b5 2b 7f 3f 59 c7 7f 3f
       1.0 0.9951479 0.99676067 0.99913555
0000b0 f4 07 81 3f c4 25 81 3f 53 18 81 3f 00 00 80 3f
       1.0080552 1.008965 1.0085548 1.0
0000c0 f3 37 80 3f 8b c6 80 3f 00 00 80 3f 00 00 80 3f
       1.0017074 1.006059 1.0 1.0
0000d0 00 00 80 3f d4 c5 80 3f 1c 5d 7f 3f e8 81 81 3f
       1.0 1.0060372 0.9975145 1.0117769
0000e0 bb 8d 80 3f 44 71 7f 3f 00 00 80 3f f7 f3 7f 3f
       1.0043253 0.99782205 1.0 0.99981636
0000f0 04 91 7d 3f ac 8b 7e 3f 00 00 80 3f 00 00 80 3f
       0.990494 0.9943187 1.0 1.0
000100 00 00 80 3f 29 da 7d 3f 15 d6 80 3f dd b1 7e 3f
       1.0 0.9916101 1.0065333 0.9949015
000110 00 00 80 3f c1 80 7f 3f cf 48 7e 3f 00 00 80 3f
       1.0 0.9980584 0.9932985 1.0
000120 9a bb 7e 3f cb f4 7c 3f e8 0b 80 3f 9b 76 7f 3f
       0.9950501 0.98811024 1.0003633 0.9979035
000130 ac 7f 80 3f b9 0f 80 3f 75 de 7f 3f 00 00 80 3f
       1.0038962 1.0004798 0.9994882 1.0
000140 85 f2 7d 3f fc 11 7f 3f 00 00 80 3f 3d fa 7f 3f
       0.9919818 0.99636817 1.0 0.9999121
000150 cf dd 7e 3f 35 35 81 3f 00 00 80 3f ce 67 7e 3f
       0.99557203 1.0094362 1.0 0.99377143
000160 00 00 80 3f 00 00 80 3f 00 00 80 3f 00 00 80 3f
       1.0 1.0 1.0 1.0
000170 13 28 81 3f 6f 7a 7f 3f 00 00 80 3f 0c 40 7e 3f
       1.0090355 0.99796194 1.0 0.9931648
000180 00 00 80 3f 00 00 80 3f 00 00 80 3f 00 00 80 3f
       1.0 1.0 1.0 1.0
000190 00 00 80 3f d4 e3 80 3f 76 65 81 3f 00 00 80 3f
       1.0 1.0069528 1.0109088 1.0
0001a0 00 00 80 3f 00 00 80 3f 00 00 80 3f 00 00 80 3f
       1.0 1.0 1.0 1.0
0001b0 00 00 80 3f 00 00 80 3f 77 f9 7f 3f 00 00 80 3f
       1.0 1.0 0.9999003 1.0
0001c0 00 00 80 3f 3b 11 80 3f 00 00 80 3f 00 00 80 3f
       1.0 1.0005258 1.0 1.0
0001d0 00 00 80 3f 00 00 80 3f 00 00 80 3f 25 3d 7e 3f
       1.0 1.0 1.0 0.9931205
0001e0 00 00 80 3f 00 00 80 3f 00 00 80 3f 00 00 80 3f
       1.0 1.0 1.0 1.0
0001f0 00 00 80 3f 00 32 7e 3f 3b 8a 80 3f 57 37 80 3f
       1.0 0.99295044 1.0042185 1.0016888

net.model.1.bias f4 [128]
000000 c8 41 ca 3b a6 31 64 bb 00 00 00 00 00 00 00 00
       0.0061723925 -0.0034819632 0.0 0.0
000010 00 00 00 00 00 00 00 00 00 00 00 00 d2 28 dd bb
       0.0 0.0 0.0 -0.006749251
000020 8f 2d f4 3b 00 00 00 00 fe e5 1c 38 0e d8 d4 bb
       0.00745172 0.0 3.7407495e-05 -0.0064954823
000030 00 00 00 00 00 00 00 00 36 a9 9e bb 96 c4 66 3b
       0.0 0.0 -0.004841949 0.003521239
000040 00 00 00 00 0b a8 0f bc f4 13 cc 3b d6 f5 e4 3b
       0.0 -0.008768092 0.0062279645 0.0069873137
000050 5c c5 20 3b 00 00 00 00 00 00 00 00 76 f3 5b 3b
       0.0024531698 0.0 0.0 0.0033561862
000060 10 5e fd 3b 00 00 00 00 3e a4 a9 bc 97 59 1d bc
       0.0077321604 0.0 -0.0207082 -0.009603879
000070 ab fd 71 bc 00 00 00 00 25 30 3e bc 00 00 00 00
       -0.014769952 0.0 -0.011608158 0.0
000080 00 00 00 00 90 bf 5f 3b 56 0c 8f ba 78 7d 5b 3b
       0.0 0.003414128 -0.001091371 0.0033491533
000090 00 00 00 00 00 00 00 00 00 00 00 00 d4 9f e5 bb
       0.0 0.0 0.0 -0.0070075784
0000a0 00 00 00 00 44 3c c6 bb b5 a0 48 bb cf 02 50 ba
       0.0 -0.0060496647 -0.0030613367 -0.0007934989
0000b0 0c 6d 04 3c f5 f1 13 3c c6 08 10 3c 00 00 00 00
       0.008082639 0.009029855 0.008791154 0.0
0000c0 d3 ea f1 3a 52 a5 c7 3b 00 00 00 00 00 00 00 00
       0.0018456824 0.0060927058 0.0 0.0
0000d0 00 00 00 00 4a 13 c7 3b 75 2c a7 ba 65 a1 41 3c
       0.0 0.0060752975 -0.0012754338 0.011818265
0000e0 11 47 90 3b 22 27 03 bb 00 00 00 00 95 a4 03 b9
       0.004403003 -0.0020012339 0.0 -0.00012554445
0000f0 07 4a 1b bc 88 cf b7 bb 00 00 00 00 00 00 00 00
       -0.009478099 -0.0056094564 0.0 0.0
000100 00 00 00 00 ea e4 08 bc 7c c4 e7 3b 25 ce 9e bb
       0.0 -0.008355359 0.0070729833 -0.0048463517
000110 00 00 00 00 9c 92 f4 ba 81 05 d8 bb 00 00 00 00
       0.0 -0.0018659416 -0.006592453 0.0
000120 eb 3e 9f bb 83 f4 42 bc 78 1b d6 39 7a 4d 03 bb
       -0.0048597953 -0.011899116 0.00040837727 -0.0020035193
000130 05 49 82 3b 44 75 0c 3a d7 7c 9b 3b 00 00 00 00
       0.0039759898 0.000535805 0.0047451067 0.0
000140 d7 c3 02 bc a9 80 64 bb 00 00 00 00 6f c0 8e b7
       -0.007981262 -0.0034866726 0.0 -1.7017328e-05
000150 4a e5 80 bb 21 f9 1b 3c 00 00 00 00 e7 c5 ca bb
       -0.0039335834 0.009519846 0.0 -0.0061881426
000160 00 00 00 00 00 00 00 00 00 00 00 00 00 00 00 00
       0.0 0.0 0.0 0.0
000170 ea e2 16 3c ab 34 02 bb 00 00 00 00 44 3b da bb
       0.009209374 -0.0019867818 0.0 -0.006659897
000180 00 00 00 00 00 00 00 00 00 00 00 00 00 00 00 00
       0.0 0.0 0.0 0.0
000190 00 00 00 00 b7 cf e8 3b 9d 91 32 3c 00 00 00 00
       0.0 0.0071048397 0.010898975 0.0
0001a0 00 00 00 00 00 00 00 00 00 00 00 00 00 00 00 00
       0.0 0.0 0.0 0.0
0001b0 00 00 00 00 00 00 00 00 e7 51 f9 b8 00 00 00 00
       0.0 0.0 -0.00011888501 0.0
0001c0 00 00 00 00 6c 2d 13 3a 00 00 00 00 00 00 00 00
       0.0 0.00056143734 0.0 0.0
0001d0 00 00 00 00 00 00 00 00 00 00 00 00 03 ac da bb
       0.0 0.0 0.0 -0.0066733374
0001e0 00 00 00 00 00 00 00 00 00 00 00 00 00 00 00 00
       0.0 0.0 0.0 0.0
0001f0 00 00 00 00 51 a6 a9 bb 9a b9 8e 3b 1e 76 e8 3a
       0.0 -0.005177297 0.0043556215 0.0017735397

net.model.3.weight f4 [128, 128]
000000 e2 fa 9c bc cd 12 ce bd a0 c5 11 3d 00 4b d2 bc
       -0.019162599 -0.1006218 0.03558886 -0.025670528
000010 1a 63 3e 3c 3c ba 24 bd c5 01 4e 3d c3 5e be bd
       0.011620307 -0.04021667 0.050294656 -0.09295418
000020 2a ad 78 bd c4 f7 d8 bc a1 b1 a4 bd c7 c4 c2 3c
       -0.060712017 -0.026485331 -0.080416925 0.023775471
000030 2f b6 75 3c d9 d8 7d 3d c4 15 b7 3c 0e f5 cb 3b
       0.014997049 0.06197438 0.022349246 0.006224281
000040 59 a4 50 bd 2e e1 5b 3d 4f f0 7f 3d 4c 7d 80 3d
       -0.050937984 0.053681545 0.062485036 0.062738985
000050 fb 18 8e bd 50 4f 34 3c 72 e2 95 3d 52 f7 cf bd
       -0.069383584 0.011005238 0.07318582 -0.101545945
000060 e8 c6 f9 bc 14 8d 61 3d 31 d7 be bc 53 0c 29 bd
       -0.030490354 0.055066183 -0.02329597 -0.04127152
000070 61 53 c9 bd c0 0c a4 bb 8a e8 70 bd 4e 7d 04 3d
       -0.098303564 -0.0050064027 -0.058815517 0.032346062
000080 62 af 2f 3d 05 48 b5 bc 94 55 3c 3d 8b 81 be bd
       0.042891867 -0.022129068 0.04598005 -0.09302052
000090 3f f6 e0 3c 5f 5b 89 3d 18 64 90 bb b8 a8 9f bd
       0.02746117 0.06706881 -0.0044064634 -0.077958524
0000a0 46 67 02 3d 2c 08 81 3b c6 49 3e 3b 93 f4 fe bc
       0.03183677 0.0039377417 0.0029035672 -0.031122481
0000b0 a4 3c 59 3d c7 a5 7a bd 6b e0 02 3d 5a a0 b1 bd
       0.053036347 -0.061193254 0.031952303 -0.08673163
0000c0 ea 51 fd bc 2a d8 68 bd 97 4c 50 3d f0 3b 4c 3d
       -0.030922849 -0.056846775 0.05085429 0.04986185
0000d0 08 d4 ea bc 15 05 81 3d 3b 17 a2 bb 12 22 b4 bc
       -0.028665558 0.062997974 -0.004946617 -0.021988902
0000e0 a6 d8 c8 bd 74 d6 02 bd 3a 52 9c bd ec af 87 bd
       -0.098069474 -0.0319428 -0.07632871 -0.06625351
0000f0 cd a6 a1 bd c2 d3 88 3d 0b d6 0d 3d 36 65 f3 3c
       -0.07893143 0.066810146 0.034627955 0.029711347
000100 aa a7 a6 3d 67 87 4d 3b 7f 3a b5 bc a6 cd 24 ba
       0.08137448 0.0031361224 -0.02212262 -0.00062867475
000110 19 76 74 3d d1 c7 ad bd eb 5c 2d bd d5 11 4e bc
       0.05968294 -0.084853776 -0.04232494 -0.012577494
000120 66 b6 ac bc a1 a0 9c bd cf b5 36 3d 0e 72 c3 bd
       -0.021083068 -0.07647825 0.04460698 -0.095432386
000130 00 7b 43 bd 6a 6c b4 3c 9a bd 19 3d ad ed 1a 3d
       -0.047724724 0.022024352 0.037534334 0.03782432
000140 5b ab 7a bd d7 5b 85 bd 2c c9 93 3c fe 11 37 bd
       -0.061198574 -0.06511658 0.018040262 -0.044694893
000150 a0 10 97 bd 26 a3 00 bc 5d 4f 24 bd c5 25 be 3c
       -0.07376218 -0.007851398 -0.04011475 0.02321137
000160 2f ff a5 3d 67 6d c6 3c 32 b9 b5 bc 06 7c a0 bd
       0.08105313 0.024222089 -0.022183035 -0.078361556
000170 4c b9 81 3d 85 08 4a bd 6c 21 3b bc 25 81 83 3d
       0.06334171 -0.04932453 -0.011421543 0.06421117
000180 49 29 03 3d 24 44 1d bc 16 2f f0 bc 83 25 6b bd
       0.032021794 -0.0095987655 -0.029319327 -0.05740882
000190 96 2f 89 bc db cd d0 bd a1 26 6c 3d 39 08 a5 bd
       -0.016746324 -0.10195514 0.057654027 -0.08058209
0001a0 8f b5 72 3c 13 8e 90 3d 93 b2 64 3d b3 1f 3b bc
       0.014813795 0.070583485 0.055834364 -0.011421132
0001b0 11 d2 dd bb b3 17 26 3d 82 66 2d bd 18 aa aa 3b
       -0.0067694266 0.040549945 -0.042334087 0.005208265
0001c0 07 d9 74 3d 7d 41 a4 bd 41 96 47 3c 14 8b 89 3d
       0.059777286 -0.080203034 0.012181819 0.0671598
0001d0 9c 06 f8 bc 75 08 71 bd c8 c8 8e 3c 70 1f e2 bc
       -0.03027659 -0.058845956 0.017429724 -0.027602881
0001e0 21 1f 92 3d ab ed 88 bc 8f 4c a1 3a 97 3f b2 3c
       0.071348436 -0.016714891 0.0012306141 0.021758838
0001f0 89 03 a7 3d 04 c5 e4 bc 82 15 e4 3c 02 d4 59 bd
       0.08154971 -0.027925976 0.027842287 -0.053180702
000200 a6 f7 20 3b 4d e1 9d bb ae ef a9 3d c1 44 91 bc
       0.0024561672 -0.0048181177 0.082976684 -0.01773298
000210 a7 35 02 bd 9b 3b 8c 3d 7c b8 4b bc 7e 7c 78 bc
       -0.031789448 0.06847306 -0.012434121 -0.0151664
000220 f0 c4 c4 bd 33 2e 8a 3d dc 47 34 3d 22 66 67 bd
       -0.09607875 0.06747093 0.044013843 -0.056493886
000230 e3 18 29 bd ea 77 af bd 0b 81 e7 bc fb 68 70 3d
       -0.0412835 -0.08567794 -0.028259775 0.058693867
000240 f7 5c 6f bd 72 63 3b 3d 7f 44 0c bd 07 3f 7b bd
       -0.058438268 0.045749135 -0.03424501 -0.061339404
000250 5c 03 d1 bc 52 ee 8a bc 27 f6 4c bc ad f6 bb bb
       -0.025514297 -0.016959343 -0.012509859 -0.005736193
000260 14 63 bc bd f9 e4 6f bd 3c f0 92 bd 13 58 0e bd
       -0.09198585 -0.058567975 -0.07174727 -0.034751963
000270 69 e9 8b 3d 14 cf 16 bd 5c 2e e4 bc 1c e2 41 3d
       0.06831629 -0.03681858 -0.027854137 0.047334775
000280 d2 44 5d 3c b7 79 c5 39 48 b4 62 bc d3 bc 97 bc
       0.013505178 0.00037665453 -0.013836928 -0.018522656
000290 8c 0b ae 3c 04 1a 4b bd 68 82 0d bd b8 8e a3 bc
       0.02124574 -0.049585357 -0.034548193 -0.019965515
0002a0 a3 e9 17 bb fe 84 69 3d 4c 24 66 bd 04 4d 73 bd
       -0.002318003 0.057011597 -0.05618696 -0.05939962
0002b0 01 4a 34 3d 50 17 ae 3c 25 b5 14 bd 30 4d 97 3a
       0.044015888 0.02125135 -0.036305565 0.0011543389
0002c0 04 0a be bb b3 67 92 3c 43 52 dc bc 12 5e 9f 3d
       -0.005799534 0.017871713 -0.026894694 0.07781614
0002d0 b2 8b 8b bc b9 f2 a4 3c 09 7c 4e bd bc e1 b5 bd
       -0.017034385 0.02013527 -0.050411258 -0.08880946
0002e0 56 ed 34 bd 59 a6 cc bd 01 34 07 3d 55 7e 7c 3d
       -0.044171654 -0.09992666 0.03300858 0.061643917
0002f0 90 b9 80 3b 75 d2 79 bc 9b 3b 42 bd f1 57 d3 bc
       0.003928371 -0.015247931 -0.047420125 -0.02579877
000300 45 5d 66 3d 68 88 a4 bd 3c 8c b4 bd 41 68 64 bd
       0.056241293 -0.0803383 -0.0881581 -0.055763487
000310 bd 58 2d 3c 73 4b 44 3d b9 4f 14 3d 4d 8e 40 3d
       0.010580239 0.047923516 0.036208842 0.04701071
000320 6e 54 30 3d 06 98 b8 bd eb 1c af bd 54 9c 86 bd
       0.04304927 -0.09013371 -0.085504375 -0.06572786
000330 a8 b9 cf bd 44 ec a6 bd 6c 7b 4d bd cd 42 a8 bd
       -0.10142833 -0.08150533 -0.050166532 -0.08215866
000340 ce fe 1c 3d 7d 0f 6c bd 36 7b 57 3d 67 d0 4c ba
       0.03832894 -0.05763196 0.052607737 -0.0007813037
000350 f0 63 b7 bd 87 71 44 bd b3 bc a4 bd 3b 0d ad 3c
       -0.089546084 -0.04795983 -0.08043804 0.021124473
000360 99 be 1a bd e4 d2 ba bc 89 78 8c bb 4f f5 5b bd
       -0.037779424 -0.022805639 -0.00428683 -0.05370074
000370 9a 79 05 3d 7b 58 a9 bd 5b 24 51 bd 00 ad 54 bd
       0.03258667 -0.082688294 -0.051060062 -0.0519228
000380 f4 2d 92 bd 45 fb 7e 3d 4a 5c 2a 3d 9a 6e 5c 3d
       -0.07137671 0.062251348 0.04159192 0.053816415
000390 c6 65 a0 3d 42 09 cd bd f8 26 77 bc 1b 02 4f 3d
       0.07831912 -0.100115314 -0.0150849745 0.050539117
0003a0 80 0d 85 3d 18 00 91 bd 52 b8 ab 3c cb 62 96 bd
       0.064967155 -0.07080096 0.020961914 -0.07343062
0003b0 60 12 41 bd 5d d3 a3 3d 91 1b 44 3d 8f 43 ee bc
       -0.047136664 0.07999299 0.047877852 -0.029084949
0003c0 a3 32 3f bc 30 9d a9 bd 68 8c a8 3d 6c 0c 3f bd
       -0.011669788 -0.08281934 0.08229905 -0.046642706
0003d0 f3 58 9f 3d 7b d7 a2 ba c0 b6 4b bd 51 40 38 3d
       0.077806376 -0.0012423837 -0.04973483 0.044983212
0003e0 59 44 19 bd 0a ff 8c bd bf ff 5a bd 1f 4e 84 bd
       -0.037418697 -0.06884582 -0.053466555 -0.06460213
0003f0 2d 2e 0a bd fa a5 78 3d 5f f6 93 bd 56 f0 93 3c
       -0.033735443 0.060705163 -0.07224726 0.018058937

net.model.3.bias f4 [128]
000000 a8 dc 22 bd 91 2a 01 bd da dc 43 3d c0 27 27 3d
       -0.039761215 -0.031534735 0.047818042 0.040809393
000010 f3 7f 30 3d 95 b4 2a 3d b9 33 36 bd 02 c1 02 bd
       0.043090772 0.041676123 -0.04448292 -0.031922348
000020 40 2b 75 3c 08 9a 99 3d 00 1f 60 bd 25 c7 5f bd
       0.014963925 0.07500082 -0.054717064 -0.05463328
000030 d1 6f 8d bd af ea 32 bd 47 67 1e 3d 52 12 6b 3d
       -0.06906093 -0.043680843 0.03867271 0.05739052
000040 58 79 10 bc 0e 2b f8 bc 99 8f e8 3c d7 04 2f bd
       -0.008817993 -0.030293968 0.028388785 -0.042729225
000050 50 c9 e9 bc 94 0f 24 bd ee bf db 3c 67 27 5a 3d
       -0.028538376 -0.04005392 0.026824918 0.053260233
000060 b2 bf 7f 3d 4e 6e 95 bc 32 81 94 3d de ae 99 bd
       0.062438674 -0.018241074 0.072512046 -0.075040564
000070 54 77 c7 bc a3 6f c5 3c 9e 0a c1 bd 78 33 d7 3c
       -0.024348892 0.024101084 -0.09425853 0.02626966
000080 01 df 7b 3d a0 ec 98 3d 9c 35 64 bd 97 83 a1 3d
       0.06149197 0.07467008 -0.05571519 0.07886427
000090 0a 81 bb bd 82 26 39 3d ef 49 32 bd 20 e0 fc bc
       -0.091554716 0.04520274 -0.04352754 -0.03086859
0000a0 9f f9 58 bd d4 14 4c 3d 39 b8 a2 bd 7b 94 87 bd
       -0.052972432 0.04982455 -0.07945294 -0.06620117
0000b0 cc f0 a8 bd 94 e5 25 3d b2 a1 a1 bd af bc 8f bd
       -0.08249053 0.040502146 -0.07892169 -0.070184104
0000c0 b5 75 63 3d 63 91 7a bd 1c a5 75 3d bc d1 fc 3c
       0.055532176 -0.061173808 0.059971914 0.030861728
0000d0 13 2d 37 3d 69 b9 28 bc bb 04 6f 3d 94 3a 45 3d
       0.04472072 -0.0102981115 0.05835412 0.048151568
0000e0 7f 87 c3 bd f8 15 1e 3c 16 de 1a bd 45 b3 37 3d
       -0.09547328 0.009648792 -0.037809454 0.0448487
0000f0 65 5e 9b bd dd 77 c9 bd 87 34 99 bd a5 ee 72 bd
       -0.07586364 -0.09837315 -0.07480722 -0.05930962
000100 8a 6a 85 bd 85 b1 62 3d 9f 7f 3c bd 15 ca 45 bd
       -0.06514461 0.055345077 -0.046020146 -0.048288424
000110 8a 0e 9c bd 3e 03 c5 bd db e9 19 3d 6f ad 54 bd
       -0.076199606 -0.09619759 0.037576538 -0.05192321
000120 ab eb bc 3d 93 28 d2 bc b4 15 b2 3c ed 0d 85 bd
       0.092246376 -0.025654113 0.021738864 -0.06496797
000130 f6 d9 da bc cd a2 66 bd 2b 64 dd bb 1b 4b 37 3c
       -0.02671526 -0.056307603 -0.0067563257 0.01118734
000140 f9 c3 18 3d 95 a0 8f bd da f5 73 3d d0 5e 9c bb
       0.03729627 -0.070130505 0.059560634 -0.0047720447
000150 c3 51 9c bd 2b 56 b4 bd c0 b9 e5 bc 9f f2 a8 bd
       -0.07632782 -0.08805498 -0.028042674 -0.08249401
000160 36 7d c4 3b 91 c7 39 3d a5 56 07 bd 82 9d 99 3d
       0.0059963716 0.045356337 -0.033041615 0.07500745
000170 f2 57 56 b9 6b 61 89 3d 99 86 1c bc 00 71 ba bd
       -0.00020441393 0.06708034 -0.009553575 -0.09103584
000180 9d ab 43 b9 d5 30 c2 3c 8c d0 e6 bc 73 f6 0e bc
       -0.0001866058 0.023704926 -0.028175615 -0.00872575
000190 6a 3a be 3c da 05 85 3c 30 2a a4 bd e0 d1 26 bd
       0.023221213 0.016238142 -0.08015859 -0.040727496
0001a0 1f 7c 64 bd 54 71 23 bd fb 14 56 3b 12 b2 0e 3d
       -0.055782434 -0.039903 0.0032666314 0.03483779
0001b0 e1 f9 ca 3c 0f 30 21 3d aa 9f 7b 3d 23 22 77 3d
       0.024777355 0.039352473 0.061431564 0.06033529
0001c0 d5 ba 4e bc 5d b0 83 bd 40 09 9a bd d2 ac 49 3d
       -0.012617786 -0.06430123 -0.075212955 0.04923708
0001d0 72 33 43 bd 46 18 97 bd e9 67 9c bc 73 e0 86 bd
       -0.047656484 -0.07377677 -0.019092517 -0.06585779
0001e0 86 d5 6c bc 79 d9 59 3d e8 87 29 bd 0f 7d 85 bd
       -0.014455205 0.053185914 -0.041389376 -0.06517994
0001f0 95 99 21 bb 1f cb a1 bd 2c ff 61 3d 6d 49 4d 3d
       -0.0024658192 -0.079000704 0.05517499 0.050118852

net.model.4.weight f4 [128]
000000 00 00 80 3f 00 00 80 3f fa c3 7e 3f f7 f5 79 3f
       1.0 1.0 0.99517787 0.9764094
000010 7d f5 7e 3f 8f 18 7f 3f 1f ba 7f 3f 77 e5 7f 3f
       0.99593335 0.9964685 0.99893373 0.9995951
000020 00 00 80 3f f9 f7 80 3f 00 00 80 3f 60 49 82 3f
       1.0 1.0075675 1.0 1.0178642
000030 00 00 80 3f 76 67 7c 3f c3 31 7c 3f 00 00 80 3f
       1.0 0.9859537 0.9851343 1.0
000040 fa c1 7d 3f cd 4d 7c 3f 0c 20 7b 3f 60 7e 7f 3f
       0.9912411 0.98556215 0.98095775 0.9980221
000050 d7 80 7e 3f f2 9f 7c 3f da 1c 80 3f 00 00 80 3f
       0.99415344 0.9868156 1.0008805 1.0
000060 00 00 80 3f 00 00 80 3f 00 00 80 3f 00 00 80 3f
       1.0 1.0 1.0 1.0
000070 d3 47 81 3f 00 00 80 3f 00 00 80 3f 00 00 80 3f
       1.0100044 1.0 1.0 1.0
000080 bc a5 82 3f 00 00 80 3f 00 00 80 3f f5 77 7d 3f
       1.0206828 1.0 1.0 0.99011165
000090 58 d6 7f 3f 12 18 80 3f 04 b8 7c 3f 00 00 80 3f
       0.9993644 1.0007346 0.98718286 1.0
0000a0 81 49 81 3f 00 00 80 3f 00 00 80 3f c7 e6 7f 3f
       1.0100557 1.0 1.0 0.99961513
0000b0 00 00 80 3f a8 b6 7f 3f 00 00 80 3f a4 c7 80 3f
       1.0 0.99888086 1.0 1.0060925
0000c0 00 00 80 3f 00 00 80 3f 00 00 80 3f 30 53 80 3f
       1.0 1.0 1.0 1.0025387
0000d0 6d 95 7a 3f 40 89 7d 3f c1 e3 7f 3f 00 00 80 3f
       0.97884256 0.9903755 0.999569 1.0
0000e0 00 00 80 3f 18 61 7c 3f 00 00 80 3f a0 fe 7d 3f
       1.0 0.98585653 1.0 0.9921665
0000f0 c8 92 80 3f db 4d 7e 3f 00 00 80 3f 00 00 80 3f
       1.0044794 0.9933755 1.0 1.0
000100 26 f9 7b 3f ae 40 81 3f 00 00 80 3f 20 53 80 3f
       0.98427045 1.0097864 1.0 1.0025368
000110 00 00 80 3f 00 00 80 3f d5 0e 7f 3f 97 47 7d 3f
       1.0 1.0 0.99632007 0.9893736
000120 fc c5 80 3f 66 9b 80 3f 86 3d 7c 3f 9f bb 7d 3f
       1.006042 1.0047424 0.9853138 0.9911441
000130 d6 cb 7f 3f eb 96 7f 3f b9 d1 7f 3f d3 a5 7e 3f
       0.99920404 0.9983966 0.99929386 0.9947178
000140 00 00 80 3f aa 94 7f 3f 00 00 80 3f 2a ca 7f 3f
       1.0 0.9983622 1.0 0.9991785
000150 00 00 80 3f 00 00 80 3f 89 e9 7e 3f 07 54 7e 3f
       1.0 1.0 0.99575096 0.99346966
000160 61 31 7b 3f b6 bd 83 3f 00 00 80 3f 60 ca 7f 3f
       0.9812222 1.029227 1.0 0.99918175
000170 00 00 80 3f 00 00 80 3f 00 00 80 3f 77 c4 7f 3f
       1.0 1.0 1.0 0.99909157
000180 a1 c9 7f 3f 64 bf 7f 3f 78 df 7e 3f 00 00 80 3f
       0.99917036 0.99901414 0.99559736 1.0
000190 df 17 7e 3f 00 00 80 3f 4e f0 7e 3f 00 00 80 3f
       0.99255174 1.0 0.99585426 1.0
0001a0 00 00 80 3f 35 fa 7f 3f 86 e4 81 3f 9b 15 7d 3f
       1.0 0.9999116 1.0147865 0.9886109
0001b0 00 00 80 3f 00 00 80 3f d2 d9 7f 3f 00 00 80 3f
       1.0 1.0 0.9994174 1.0
0001c0 00 00 80 3f b5 91 81 3f 76 c4 7f 3f af f1 72 3f
       1.0 1.0122591 0.9990915 0.9490003
0001d0 b4 6d 7b 3f 8e af 7f 3f 00 00 80 3f 43 0f 7d 3f
       0.9821427 0.9987725 1.0 0.9885141
0001e0 fe d3 81 3f f0 c4 7e 3f cf 02 81 3f 00 00 80 3f
       1.014282 0.9951925 1.0078982 1.0
0001f0 f9 e3 7f 3f b5 3b 80 3f cb 85 80 3f 00 00 80 3f
       0.99957234 1.0018221 1.004083 1.0

net.model.4.bias f4 [128]
000000 00 00 00 00 00 00 00 00 fd 43 ec 3a 3b 77 21 3b
       0.0 0.0 0.0018025633 0.0024637717
000010 da 5a 90 3b a6 e8 4e bc 3e 5d 8e ba ed 6f 1d 3b
       0.0044053616 -0.01262871 -0.0010861529 0.0024023012
000020 00 00 00 00 94 7f 10 3c 00 00 00 00 29 f6 82 3c
       0.0 0.0088194795 0.0 0.015986519
000030 00 00 00 00 46 51 12 bc 60 fb f8 bb 00 00 00 00
       0.0 -0.00893051 -0.0075983256 0.0
000040 6b 7f 27 bc f3 b2 d8 bb 0e e9 0f bc 3b e5 0e b9
       -0.01022325 -0.0066131293 -0.008783592 -0.0001362757
000050 a0 4e 19 bb b5 d6 0a bc d2 76 21 3b 00 00 00 00
       -0.0023392811 -0.008474042 0.0024637473 0.0
000060 00 00 00 00 00 00 00 00 00 00 00 00 00 00 00 00
       0.0 0.0 0.0 0.0
000070 03 56 25 3c 00 00 00 00 00 00 00 00 00 00 00 00
       0.010091308 0.0 0.0 0.0
000080 1f 73 95 3c 00 00 00 00 00 00 00 00 f4 9f 07 bc
       0.01824337 0.0 0.0 -0.008277882
000090 d3 e7 51 ba 60 52 4b 3b 71 08 04 bc 00 00 00 00
       -0.0008007262 0.003102444 -0.008058653 0.0
0000a0 e5 29 2a 3c 00 00 00 00 00 00 00 00 13 b0 0d 3b
       0.010385965 0.0 0.0 0.002161984
0000b0 00 00 00 00 0f d6 8b 3a 00 00 00 00 64 6a f2 3b
       0.0 0.0010668653 0.0 0.0073979367
0000c0 00 00 00 00 00 00 00 00 00 00 00 00 6c f9 b9 3b
       0.0 0.0 0.0 0.0056754854
0000d0 8e 67 14 bc 0c a5 2c bc 75 47 97 3b 00 00 00 00
       -0.0090578925 -0.010537397 0.0046166726 0.0
0000e0 00 00 00 00 72 6a 2f bc 00 00 00 00 69 f0 60 bc
       0.0 -0.010706531 0.0 -0.013729193
0000f0 dc f9 b0 3b b9 09 3d bc 00 00 00 00 00 00 00 00
       0.0054008793 -0.011537963 0.0 0.0
000100 8d d0 e8 bb 0d 65 43 3c 00 00 00 00 f5 50 8b 3b
       -0.0071049393 0.011925948 0.0 0.004251594
000110 00 00 00 00 00 00 00 00 01 81 f2 bb 05 eb b0 bb
       0.0 0.0 -0.0074006324 -0.0053991103
000120 a3 5f f4 3b 55 75 df 3b af 4b 40 bc 69 dd 6d bc
       0.00745769 0.006819407 -0.011736794 -0.01451812
000130 82 7f 57 ba d0 af 66 bc 17 db 3b ba 40 8d 46 bc
       -0.0008220599 -0.014080003 -0.0007166131 -0.012118638
000140 00 00 00 00 64 b9 c6 bb 00 00 00 00 79 32 4e ba
       0.0 -0.0060645808 0.0 -0.00078657974
000150 00 00 00 00 00 00 00 00 7a 6a 7b 3a 5a 65 ab bb
       0.0 0.0 0.00095907564 -0.005230588
000160 c0 6c 2b bb 40 03 bf 3c 00 00 00 00 87 a0 4d bb
       -0.002615735 0.02331698 0.0 -0.00313762
000170 00 00 00 00 00 00 00 00 00 00 00 00 65 03 71 ba
       0.0 0.0 0.0 -0.0009193926
000180 9c c2 57 3a f6 fa 0b bc 80 72 32 bb 00 00 00 00
       0.0008230598 -0.0085437205 -0.0027228892 0.0
000190 dd d9 e0 bb 00 00 00 00 f1 a3 40 ba 00 00 00 00
       -0.006861909 0.0 -0.0007348648 0.0
0001a0 00 00 00 00 45 4b f4 3a d6 04 5e 3c e1 16 6a b9
       0.0 0.0018638155 0.013550958 -0.00022324502
0001b0 00 00 00 00 00 00 00 00 fe 69 19 ba 00 00 00 00
       0.0 0.0 -0.0005852281 0.0
0001c0 00 00 00 00 40 a0 4a 3c 65 03 71 ba d2 90 34 bb
       0.0 0.012367308 -0.0009193926 -0.002755214
0001d0 15 0d c0 bb 74 8b a9 ba 00 00 00 00 14 41 01 bc
       -0.0058609345 -0.0012935237 0.0 -0.007889051
0001e0 62 71 51 3c 3d 24 5b 39 56 b8 17 3c 00 00 00 00
       0.01278338 0.00020898967 0.009260258 0.0
0001f0 14 51 e2 b9 51 c1 78 3b 9a fb af 3b 00 00 00 00
       -0.00043166487 0.0037957022 0.0053705694 0.0

net.model.6.weight f4 [64, 128]
000000 80 5e 91 3c f1 3c 87 3d 00 75 49 3d 9f f2 b6 bd
       0.017745256 0.066034205 0.049183846 -0.08932995
000010 55 42 8f bd 8b f5 e0 bb 9f 18 03 3d 3f 4f ae bd
       -0.06995074 -0.0068652085 0.032005902 -0.08511209
000020 55 5d 79 3c 0d c2 2d bd d0 0b 95 3c 9e d4 33 bd
       0.015220006 -0.04242139 0.01819411 -0.04390394
000030 ac 9f c2 3c 94 28 14 bd 3b c5 28 bb 73 9e 7a 3c
       0.023757778 -0.03617151 -0.0025752324 0.015296566
000040 72 87 60 bd 9a f0 14 bd 36 da e2 3b ba c9 ed bc
       -0.05481667 -0.036362268 0.0069229854 -0.029026855
000050 13 3e f6 bc 3f 44 b7 bd 66 b5 28 bd 1d db b3 bd
       -0.030058896 -0.08948564 -0.04118862 -0.08782027
000060 41 50 44 bd bb 26 8c 3d fe a6 34 bd 5d 8b 25 3d
       -0.0479281 0.06843325 -0.04410457 0.04041611
000070 28 d2 a8 3b f4 3d 2a bd ee 61 5c ba dc 15 d1 3b
       0.0051520057 -0.04156299 -0.00084069266 0.0063807797
000080 bd 17 97 3c 5a 9b 48 3c f3 6b 49 bd 14 96 85 3d
       0.018443936 0.01224407 -0.049175214 0.06522766
000090 e5 10 4c 3d d8 c4 62 3d db c6 af bc 29 6d a1 3d
       0.0498208 0.055363506 -0.021457126 0.07882149
0000a0 8c 65 8c 3d d8 62 8a bb 17 0b a7 bd 1c dc 2e 3d
       0.06855306 -0.004223209 -0.08156412 0.04269038
0000b0 70 85 b3 3d 6d 6e ba bd 8e d9 01 bd 64 30 1a 3d
       0.087656856 -0.09103093 -0.031701617 0.037643805
0000c0 a9 67 9f 3c e4 04 c4 ba 48 e6 10 bd 21 d5 98 bd
       0.019458609 -0.0014955071 -0.035375863 -0.07462526
0000d0 97 57 81 3d 1e 74 2b 3d 46 de 41 3d 9e d0 e8 b8
       0.063155346 0.041858785 0.047331117 -0.0001110148
0000e0 c8 37 57 bd 3d 34 1b 3c 5f d8 3e bd 32 e2 75 3d
       -0.05254343 0.009472904 -0.046593066 0.06003017
0000f0 23 6c 90 3d 77 04 77 bb de 58 84 bc f3 77 d5 bb
       0.070518754 -0.003769187 -0.016155656 -0.006514543
000100 d1 12 08 bc 1f 33 94 3c 5a 1b 2b 3d 2a a6 26 bd
       -0.008305267 0.018090783 0.04177413 -0.04068581
000110 ad df 84 bd 79 46 a7 3c 7d 42 28 39 02 c8 41 bd
       -0.06487975 0.020419346 0.00016046497 -0.047309883
000120 3c 9e 4b bc 69 25 10 3d 8d 94 a9 3d 38 f5 77 bd
       -0.012427863 0.035191927 0.08280287 -0.060536593
000130 5c 63 0a bd 1a 16 3e 3d f6 e3 a1 bc eb ec f2 3c
       -0.033786163 0.046407796 -0.01976202 0.029653987
000140 b9 f1 7a bd ec bd f2 bc 90 8a 43 bd 55 5d 91 3d
       -0.06126568 -0.029631577 -0.047739565 0.0709788
000150 9a ff 6f 3d c0 49 e1 3b 62 35 91 bb 6e c6 33 bb
       0.05859337 0.0068752468 -0.0044314126 -0.0027431506
000160 d4 19 6d bd ee d1 66 bd a7 36 0c bd f0 ac 20 bd
       -0.05788596 -0.05635255 -0.034231808 -0.039227426
000170 aa ef d7 bc ea c4 68 3d 18 f5 84 bc 4a f9 b3 bd
       -0.026359398 0.056828417 -0.016230151 -0.087877825
000180 06 86 a6 bd 04 9b 9c bd 72 59 36 bb 6d 92 c4 3c
       -0.08131032 -0.076467544 -0.002782431 0.023995603
000190 ab d9 90 3d d9 3b 5d 3c 66 59 5b 3c 1f 78 13 3c
       0.07072767 0.013503038 0.0133880135 0.009000807
0001a0 84 a7 be bc 63 92 8b 3d f9 71 4a bd ad 6a 95 bd
       -0.023273237 0.068150304 -0.0494251 -0.072957374
0001b0 0c 88 64 3d d3 ae 84 bc 12 ed 5b bc 4d bd e0 3c
       0.055793807 -0.016196644 -0.013423221 0.027434016
0001c0 e4 64 e8 bc 60 66 81 3a 6b b7 3f bd 07 20 8a bd
       -0.02836842 0.0009872429 -0.04680578 -0.0674439
0001d0 07 77 0b 3a dd 60 13 3d ea 49 78 3d bb 19 6d 3d
       0.00053201657 0.035981048 0.060617365 0.057885867
0001e0 75 e5 82 bd 0f 2a 2c 3d 87 4b 67 3a a7 26 c1 bb
       -0.06391422 0.042032298 0.0008823205 -0.0058945003
0001f0 38 be 37 bd 11 5e ac bc 63 a9 9b bd 96 06 11 bd
       -0.04485914 -0.021040948 -0.07600667 -0.03540667
000200 31 ec 66 bd 49 52 68 3d b7 dc c9 bc d2 ef 45 3d
       -0.056377593 0.0567191 -0.024641378 0.048324414
000210 b4 e4 77 bd 76 83 f8 3a 5d 17 dc bc b8 bb f4 bc
       -0.060520843 0.0018960077 -0.02686661 -0.029874668
000220 d6 46 1d bd 7c 39 b0 3c 58 ab 9e 3d 11 8c 9f bd
       -0.038397633 0.021511786 0.07747525 -0.077903874
000230 2f ef 36 bd a9 52 a6 3c 2c b4 b6 bc b3 4c f0 bb
       -0.044661697 0.020303087 -0.02230271 -0.007333362
000240 69 35 aa bd 1f 61 64 bd 86 11 42 bd d0 c0 42 3c
       -0.083109684 -0.055756684 -0.047379993 0.01188679
000250 51 18 5d bd 4f f4 03 bd 3f 6d 0f bd f6 48 ad bb
       -0.053978268 -0.032215413 -0.035016295 -0.0052882386
000260 43 e3 8b 3d 27 dd b0 3c 5b 1a 47 bd 07 a1 79 3d
       0.06830456 0.021589829 -0.04860912 0.060944583
000270 4e 5c 4b bd 8b 47 bf 3c d2 ef f8 bb 0d 2a a2 3d
       -0.049648575 0.023349544 -0.007596948 0.07918177
000280 2b 95 13 bb e2 45 7a 3c 61 c6 ac bd fb 92 b8 bc
       -0.002251933 0.01527545 -0.08436275 -0.022531023
000290 a7 e9 a4 bd c2 98 f4 3c c1 19 7d 3d 3e 83 38 bd
       -0.08052378 0.029857997 0.06179214 -0.045047037
0002a0 6a 08 dd 3c 34 7f a6 3d 92 69 91 3d e4 47 8c bd
       0.026981551 0.08129731 0.07100214 -0.068496495
0002b0 e9 e4 bc bc e9 c2 a1 3d c8 da a9 bc de b6 49 bc
       -0.023058372 0.07898504 -0.020734206 -0.012311665
0002c0 7e d4 34 3d 1c 87 bc 3c 0e e2 99 3d bd 61 1c bc
       0.04414796 0.023013644 0.0751382 -0.009544787
0002d0 98 de 98 bd 56 41 49 3d 98 08 84 bd 1a 43 52 bd
       -0.074643314 0.049134575 -0.06446952 -0.051333524
0002e0 10 a7 c8 ba ae 92 84 3c e0 ef d0 3c 42 33 3e 3d
       -0.0015308578 0.016183224 0.025505006 0.046435602
0002f0 d2 b6 96 3d 77 82 4f 3d 59 a0 92 3d 59 44 a6 bd
       0.07359089 0.05066153 0.0715949 -0.08118505
000300 1a 97 be bc f4 29 a7 bd 87 6e 42 3c 03 2d 33 3d
       -0.02326541 -0.08162299 0.011867172 0.0437441
000310 ef 3a 78 3d 6d c0 8b 3d 9b b1 74 3c d8 8a 95 bc
       0.06060308 0.06823812 0.014934923 -0.018254682
000320 c0 2e 4a 3c 6f c2 28 bc c8 ac 5c 3d 75 63 90 bd
       0.012340248 -0.010300263 0.053875715 -0.0705022
000330 85 10 81 bd 12 0f 54 3c f4 55 a6 bc 63 b5 94 3d
       -0.06301979 0.012943046 -0.020304658 0.07261159
000340 12 4f ff 3c 42 17 8e 3c a4 fa c3 b8 d0 e1 86 bd
       0.031165633 0.017345075 -9.34501e-05 -0.06586039
000350 db c7 72 bc f4 91 45 3d 17 f6 ba bc b0 08 81 bd
       -0.014818157 0.048234895 -0.022822423 -0.06300485
000360 b4 23 aa 3c ac e7 74 bd 16 5c 1a bc 28 26 1d bd
       0.020768978 -0.059791252 -0.009421369 -0.038366467
000370 f7 95 99 bd 6e ac 3a bd f9 3a fd bc 38 51 33 bd
       -0.07499307 -0.045574598 -0.03091191 -0.043778628
000380 7e 9b a0 bd 56 74 6e 3d 2d 7a d8 bc b9 81 04 bc
       -0.07842158 0.058216415 -0.026425445 -0.008087569
000390 10 d1 0c bd 67 1a 14 bc 7d 72 b9 bd 82 60 9a 3d
       -0.034379065 -0.009039498 -0.0905504 0.07537939
0003a0 52 83 ae 3d 69 bd 9e 3d 64 72 9e bc 5a 31 4f bc
       0.08521141 0.07750971 -0.019341655 -0.012646044
0003b0 a6 ac 87 bd 7a 37 e9 3c 7a 57 00 bd 54 3a b3 3d
       -0.06624727 0.028468836 -0.031333424 0.087513596
0003c0 fc f1 a4 bd ea 33 9f bc a2 33 ac 3c ea 41 25 bd
       -0.08053967 -0.019433934 0.021020714 -0.040346064
0003d0 27 a1 07 b8 e3 16 9b bd 01 3d 45 3d 84 85 62 bd
       -3.2336593e-05 -0.07572725 0.04815388 -0.05530311
0003e0 66 5b 35 3d 81 98 80 3d 76 d7 34 3d e1 54 0a bc
       0.044276617 0.06279088 0.044150792 -0.008443088
0003f0 78 62 19 3d 32 65 a9 bd 60 e0 1e 3d 7e 54 47 3c
       0.037447423 -0.082712546 0.0387882 0.012166141

net.model.6.bias f4 [64]
000000 0c bc 10 bb 8b 09 0b 3d d3 12 09 bd e7 c0 a1 bc
       -0.002208474 0.033944648 -0.033465218 -0.019745303
000010 51 16 7f 3d 4e 5c ca bd ea b9 ea ba ae a8 8f bd
       0.062277142 -0.09880887 -0.001790819 -0.07014595
000020 54 ba 8c bd 15 cf 0a 3d 90 cd 6d bd 71 35 44 3d
       -0.06871477 0.033888895 -0.058057368 0.04790253
000030 74 79 5b bd 35 5b c8 bd dc c8 e1 3c e5 43 61 bc
       -0.053582624 -0.09783021 0.027561598 -0.0137490975
000040 d7 e1 32 3c c2 50 13 3b 02 77 69 3d 8c fd f9 ba
       0.010918102 0.0022478555 0.05699826 -0.0019072755
000050 86 50 b6 bd c7 f5 b5 bd 90 09 9d bd c1 63 5d bd
       -0.089020774 -0.08884769 -0.076678395 -0.05405021
000060 ed 21 a0 3d 27 00 8b 3d e7 d3 16 bd 79 36 da 3c
       0.07818971 0.067871384 -0.03682318 0.026637303
000070 5f 9d 43 3d 5c b8 21 bd 0d 9c 2b 3d c9 7b 32 3d
       0.047757503 -0.03948246 0.04189687 0.043575082
000080 85 a0 46 bd 13 79 81 3d 4e 13 b8 bd 5b b9 b8 bd
       -0.048492927 0.06321921 -0.08988057 -0.09019729
000090 2b 98 64 bc df 14 97 3d 3a 23 0c bd a0 66 8f 3c
       -0.013952295 0.07377028 -0.034213282 0.01750499
0000a0 d1 d2 90 bd 13 e9 49 3d 86 4f 88 3d 04 fe 9c 3d
       -0.0707146 0.049294543 0.06655793 0.07665637
0000b0 a4 91 80 bd dd f1 5c bc 05 81 9c 3d 59 19 2d bd
       -0.06277779 -0.013485399 0.07641796 -0.0422605
0000c0 1c 98 7f bb 69 15 1a 3d 4a bc 63 3d 89 be 2c bd
       -0.0039000576 0.037618075 0.05559949 -0.042173896
0000d0 2f 93 d8 bc 12 44 85 bb 95 d3 82 bc 93 d8 86 3b
       -0.02643737 -0.0040669525 -0.01597003 0.004115173
0000e0 c9 09 4d 3b 8e c4 97 bd b1 ed 4e 3b 7f 80 41 bd
       0.003128635 -0.07410537 0.003157478 -0.047241684
0000f0 33 8b c7 3c 25 e3 de 3c 40 b3 8e 3b 8f 00 c0 3c
       0.024358368 0.02720792 0.0043548644 0.023437766

net.model.7.weight f4 [64]
000000 cf 7d 7f 3f 00 00 80 3f 00 00 80 3f 00 00 80 3f
       0.99801344 1.0 1.0 1.0
000010 b1 72 7f 3f e5 15 7f 3f af 1b 80 3f 00 00 80 3f
       0.9978438 0.99642783 1.0008448 1.0
000020 30 83 87 3f 00 00 80 3f 00 00 80 3f 00 00 80 3f
       1.058691 1.0 1.0 1.0
000030 bc 32 7f 3f 00 00 80 3f 00 00 80 3f 37 e0 7e 3f
       0.9968679 1.0 1.0 0.99560875
000040 f1 e7 85 3f 71 5b 80 3f c4 63 80 3f b7 52 85 3f
       1.0461408 1.0027906 1.0030446 1.0415868
000050 00 00 80 3f 00 00 80 3f 00 00 80 3f 00 00 80 3f
       1.0 1.0 1.0 1.0
000060 32 52 8a 3f 60 2d 7f 3f 3d 9d 7f 3f 00 00 80 3f
       1.0806334 0.9967861 0.998493 1.0
000070 25 ae 8a 3f 00 00 80 3f 00 00 80 3f 00 00 80 3f
       1.0834395 1.0 1.0 1.0
000080 00 00 80 3f 00 00 80 3f 00 00 80 3f 00 00 80 3f
       1.0 1.0 1.0 1.0
000090 00 00 80 3f 00 00 80 3f ed 42 7f 3f 00 00 80 3f
       1.0 1.0 0.99711496 1.0
0000a0 00 00 80 3f ae 7b 81 3f 90 b2 83 3f 00 00 80 3f
       1.0 1.0115869 1.0288868 1.0
0000b0 00 00 80 3f 37 00 80 3f da 43 7f 3f 61 66 7c 3f
       1.0 1.0000066 0.9971291 0.9859372
0000c0 82 14 80 3f 9b 35 86 3f 04 d8 7f 3f 00 00 80 3f
       1.0006258 1.0485109 0.9993899 1.0
0000d0 e8 f0 7e 3f 00 00 80 3f 00 00 80 3f 4c 06 81 3f
       0.99586344 1.0 1.0 1.0080047
0000e0 c0 01 7f 3f 00 00 80 3f dd 45 85 3f 00 00 80 3f
       0.99612045 1.0 1.0411946 1.0
0000f0 7b 3f 7f 3f 00 00 80 3f 00 00 80 3f 2a 17 87 3f
       0.9970624 1.0 1.0 1.0553944

net.model.7.bias f4 [64]
000000 04 aa 27 bb 00 00 00 00 00 00 00 00 00 00 00 00
       -0.0025583515 0.0 0.0 0.0
000010 3c 05 2d bb 84 70 ab bb 5c 70 f3 3a 00 00 00 00
       -0.0026400825 -0.0052319188 0.0018572914 0.0
000020 6a 19 5c 3d 00 00 00 00 00 00 00 00 00 00 00 00
       0.053735174 0.0 0.0 0.0
000030 23 40 71 bb 00 00 00 00 00 00 00 00 21 28 d7 bb
       -0.003681191 0.0 0.0 -0.006566063
000040 a7 2e 30 3d 35 05 43 3b f6 2b 9b 3c 06 1d 10 3d
       0.04301324 0.0029757742 0.01894186 0.03518393
000050 00 00 00 00 00 00 00 00 00 00 00 00 00 00 00 00
       0.0 0.0 0.0 0.0
000060 a1 ce 9b 3d 52 5b 57 bb 11 24 f8 ba 00 00 00 00
       0.07607771 -0.0032860828 -0.0018931647 0.0
000070 89 ca a0 3d 00 00 00 00 00 00 00 00 00 00 00 00
       0.078511305 0.0 0.0 0.0
000080 00 00 00 00 00 00 00 00 00 00 00 00 00 00 00 00
       0.0 0.0 0.0 0.0
000090 00 00 00 00 00 00 00 00 dd 5e 6f bb 00 00 00 00
       0.0 0.0 -0.0036525049 0.0
0000a0 00 00 00 00 3b 93 d3 3c ef e1 04 3d 00 00 00 00
       0.0 0.02582704 0.03244203 0.0
0000b0 00 00 00 00 0a a1 b7 ba 11 18 85 bb 00 71 1d 3c
       0.0 -0.0014009785 -0.004061707 0.009609461
0000c0 ff 95 bc 3a f9 08 35 3d 33 ad 73 ba 00 00 00 00
       0.0014387964 0.04419801 -0.0009295523 0.0
0000d0 0b ca ab bb 00 00 00 00 00 00 00 00 12 2d bd 3c
       -0.0052425913 0.0 0.0 0.02309278
0000e0 54 8b 8e bb 00 00 00 00 78 85 27 3d 00 00 00 00
       -0.0043501053 0.0 0.04089877 0.0
0000f0 f0 cf 52 bb 00 00 00 00 00 00 00 00 8d 0d 44 3d
       -0.0032167397 0.0 0.0 0.047864486
