DAC/policy_critic.pth (torch, 110945 bytes, 7 tensors)

q_net.model.0.weight f4 [128, 14]
000000 bf 6d 7c be 2b fa e8 3d d8 aa 26 be ff 85 af bd
       -0.2465124 0.11375841 -0.16276109 -0.085704796
000010 98 70 21 3e 42 13 86 3e 2e 8e f5 bd b9 aa 30 be
       0.15765607 0.26186568 -0.11990009 -0.17252626
000020 0a 99 66 be a2 ce fd bd 01 a4 26 3d ba 54 a6 bd
       -0.22519317 -0.12392928 0.04068375 -0.08121629
000030 7a d6 de bd e4 84 59 3e d3 e8 ac bd 38 a7 fa bd
       -0.10880752 0.212421 -0.08442845 -0.12238926
000040 5b d5 57 3d 05 07 0b 3e b9 fc 42 be 87 af e5 bd
       0.052693706 0.13576896 -0.19041719 -0.1121512
000050 15 46 a7 3d c5 72 7a 3c e8 04 d1 3a 60 4f 37 be
       0.08167664 0.015286152 0.0015946897 -0.17901373
000060 a3 0d 80 be 9e 4f e7 bd 4a b8 11 bd 37 08 29 be
       -0.25010404 -0.11294483 -0.035576142 -0.1650704
000070 9f db 81 bc e4 b6 09 3e 8d f3 9b 3d 92 3c 8d bc
       -0.015851794 0.13448673 0.07614813 -0.017240796
000080 66 55 be bd 5d be a6 bd 6e fc 85 3e 62 16 49 be
       -0.09293632 -0.08141778 0.2616915 -0.19637445
000090 cb f3 06 bc 27 dd 47 be a3 d6 27 be 7b d2 6b 3e
       -0.008236836 -0.19517957 -0.16390471 0.2302951
0000a0 c0 eb 0a bd 4d ba fd bd 79 52 14 bd 71 bc a6 bd
       -0.033916235 -0.1238905 -0.036211465 -0.08141411
0000b0 23 4f 70 3e d1 11 19 3e 03 f4 76 3e 53 61 f8 bd
       0.23467688 0.14948203 0.2411652 -0.12127938
0000c0 51 e3 68 3e 98 93 69 3d 87 f5 38 3e a0 b0 69 be
       0.22742964 0.057025522 0.18062411 -0.22821283
0000d0 d8 02 2b be f1 29 60 3e 76 7e 2e be 9b 0e fe bd
       -0.16700304 0.21891 -0.17040429 -0.124051295
0000e0 2f cd 8a 3b b9 4f 1c 3e d6 81 a3 bd e8 78 ce bd
       0.0042358856 0.15264787 -0.079837486 -0.10081655
0000f0 aa 35 e2 bd eb d9 76 3b 47 87 f3 3d de ea 33 3e
       -0.11045392 0.003766651 0.118910365 0.17570063
000100 65 7f e2 bd 10 a2 07 be f1 b8 57 3e a1 04 6e 3e
       -0.11059455 -0.13245416 0.21066643 0.23243953
000110 06 20 e5 bd cd 23 bc 3d ac bb e6 3c 5b aa 53 be
       -0.111877486 0.09186516 0.02816566 -0.20670454
000120 dd b3 a2 3d 57 77 61 be 79 ee 7c 3e 2b 1b 18 be
       0.079444624 -0.22018181 0.24700345 -0.14854114
000130 68 b8 11 be 55 e7 55 3e 36 2f 3d 3c 82 61 24 3e
       -0.14230502 0.20889027 0.0115469005 0.16052821
000140 31 b0 29 3e 89 62 21 be b7 9e 48 3e 4b 37 6b 3e
       0.16571118 -0.15760244 0.19591795 0.22970311
000150 a3 49 2f be a0 ef a1 bc 90 70 62 3e 8f 9d e1 bd
       -0.17117934 -0.019767582 0.22113252 -0.1101638
000160 8b 43 bf 3d 60 ad ab bc bb 05 de bd d2 87 b6 3c
       0.09339055 -0.020956695 -0.10840937 0.022281561
000170 ad d6 20 be a2 8c 42 3d fa ed 43 be db 5c b5 3d
       -0.15706892 0.0474974 -0.1913375 0.088556014
000180 8f 08 db 3d ac e8 9f 3b 94 36 ec 3d df b5 47 3e
       0.10694992 0.0048800316 0.115338475 0.19502972
000190 16 61 19 3d f0 25 8e 3d e0 d8 ff bd 8c ae a1 3d
       0.037446104 0.0694083 -0.124925375 0.0789462
0001a0 d1 0d 3f 3e ab f2 65 be 31 49 51 3e 29 91 19 3e
       0.18657614 -0.22455852 0.20438077 0.1499678
0001b0 b9 bc 24 3e ad 7c 92 bd 47 f0 c4 3d 0b 17 50 bb
       0.16087617 -0.07152686 0.09616142 -0.0031752016
0001c0 0b 37 08 bc f3 e7 81 3d c5 cc 2b be df 91 29 bd
       -0.0083139045 0.06343069 -0.16777332 -0.04139888
0001d0 53 54 bc 3d a0 2e 19 be e6 de 87 be 92 e4 0b 3d
       0.09195771 -0.14959192 -0.26537246 0.03415353
0001e0 54 49 78 be 9e 51 22 be 76 6e 83 be de 80 c0 3d
       -0.24246722 -0.15851447 -0.25670213 0.093995795
0001f0 7d b8 3f 3e df 44 12 3e 7f 3a ea bd b2 93 1b be
       0.1872272 0.14284085 -0.114369385 -0.1519306
000200 93 fe 61 3e 57 59 3e bd 53 f4 7d be 41 6a 2a 3e
       0.22069769 -0.04647192 -0.24800234 0.16642095
000210 61 16 28 3e da 59 56 3e 60 16 3e be 55 a4 58 be
       0.16414787 0.20932713 -0.18563223 -0.21156438
000220 0e 5d 63 3d 4e 9e 4e 3d dc 8c e2 3d fa 6d 83 be
       0.055508666 0.05044394 0.11062023 -0.25669843
000230 2f 62 63 3e 00 9e b5 bd 0b 36 35 3e d8 b8 6a bd
       0.22205423 -0.08868027 0.17696397 -0.057305187
000240 45 80 93 3d b0 53 0a 3e 35 e3 1b be 71 d5 1e 3e
       0.072022 0.13508487 -0.15223391 0.15511109
000250 8b d8 f3 3d 88 c9 35 be ca 31 39 be 72 7e dd 3d
       0.11906537 -0.1775266 -0.180854 0.10815133
000260 fe 0e 04 3e b3 0c bd 3d 71 e8 7e 3d ce 4c 44 3e
       0.12896344 0.09230938 0.062233392 0.19169924
000270 c4 ed 7d be 2a bc 5f be 65 d6 bc bd d3 9f 16 3e
       -0.24797732 -0.21849123 -0.0922058 0.14709406
000280 e4 bc 93 3d b0 7a 06 3d 26 5e c9 bd fd 9b 1b be
       0.072137624 0.032831848 -0.098324105 -0.15196224
000290 6d a3 a8 3d e5 b1 0f 3e 97 82 01 3d 0b 43 67 be
       0.08234296 0.14032705 0.03161868 -0.22584169
0002a0 0b cc ac bd ce 7b 22 3d 95 ba de 39 2b c6 1e be
       -0.084373556 0.03966885 0.00042482154 -0.15505283
0002b0 65 42 cc 3d 03 11 2f 3e 07 cb 56 3d fc c8 51 be
       0.09973601 0.17096333 0.052439716 -0.20486826
0002c0 48 bd c4 bd 46 91 3e 3e 1c f2 57 3e 41 37 40 be
       -0.09606415 0.18610105 0.21088451 -0.18771078
0002d0 eb e9 dd 3c e7 f3 62 3e cb 05 cc 3c 70 65 08 3e
       0.02708908 0.22163354 0.024905106 0.13319945
0002e0 35 5e 34 be 66 66 42 be b9 b1 a2 3d d9 81 82 be
       -0.17614062 -0.18984374 0.07944054 -0.2548969
0002f0 b0 72 4a be fa ea 5f 3e 58 b4 b8 bd c3 a0 39 3e
       -0.19770312 0.2186698 -0.09018773 0.18127732
000300 f7 86 1d 3e ed e7 18 3e e0 a2 fa 3c a5 c8 cc bd
       0.15383516 0.14932223 0.030595243 -0.099992074
000310 6b 41 a6 bd 33 8e aa bb 1e 46 5f be 48 2f 27 be
       -0.08117946 -0.0052049397 -0.21804091 -0.1632663
000320 98 fb 47 3d 43 81 3e 3e 2f 17 2f 3d 34 ff 24 be
       0.048823923 0.18603997 0.04274672 -0.16112977
000330 c0 a1 e7 3d 7a 08 64 be 48 4a 3b 3e 8b 1e 1b 3d
       0.11310148 -0.22268859 0.18290055 0.037870925
000340 ca 5e 04 3e 12 b9 85 3e 5e 39 58 be 8e 4b 54 3e
       0.12926784 0.2611776 -0.21115634 0.20731947
000350 ec d3 2d be ac 0b e2 bb 27 81 58 3e b2 44 38 be
       -0.16975373 -0.006898364 0.21143018 -0.17994955
000360 53 d4 87 3d e8 f7 2e 3e b2 c8 f5 bd 17 ff 69 3e
       0.066322945 0.17086756 -0.1200117 0.22851215
000370 de d0 79 be 78 84 63 be cc 36 21 3e 1b 99 87 be
       -0.24396083 -0.22218502 0.1574356 -0.26483998
000380 d7 6e 9b bd 29 8b 61 3e ed 94 81 be 93 f4 45 be
       -0.075895004 0.22025742 -0.25308934 -0.19331579
000390 79 10 2e 3e 56 82 82 be 89 6d 58 3e ea 22 53 3b
       0.16998471 -0.25490063 0.21135534 0.0032216855
0003a0 3d 09 59 bd b1 46 58 be cd 42 2d 3e 82 78 0f be
       -0.052987326 -0.21120717 0.16920014 -0.14010814
0003b0 f0 e1 b6 bd f5 d8 8f bd 26 fe 52 3e 5e 6a 54 be
       -0.08929813 -0.07023803 0.20604762 -0.20743701
0003c0 5f 8b d0 bc a9 79 46 be ab ce 4d be 04 8d 6b bd
       -0.025457082 -0.19382347 -0.20098369 -0.05750753
0003d0 d3 e7 79 3e 18 b6 49 be 34 b6 5d 3e 21 dc 2f 3e
       0.2440484 -0.1969837 0.21651536 0.17173816
0003e0 de e9 74 be 23 5d 17 bc 21 10 f9 3d 77 0a 75 3e
       -0.23917338 -0.009238514 0.121612795 0.23929773
0003f0 41 ff b1 bd f8 af 04 3d 9c dc 59 bc 0f b4 72 be
       -0.08691264 0.03239438 -0.013297226 -0.237015

q_net.model.0.bias f4 [128]
000000 6f e4 cf bd 2c 54 5f 3e 1d 5f 87 bd e4 b0 60 3e
       -0.10150992 0.21809453 -0.06609938 0.21942478
000010 19 1b c3 bd 46 46 92 bd 03 0e 1a 3e d0 06 82 3e
       -0.09526653 -0.0714231 0.15044408 0.25395823
000020 c3 71 ed bd e4 1b 2e be 3f c2 4b be 5f 7e 8e 3d
       -0.11593964 -0.17002827 -0.19898318 0.06957697
000030 01 2e 70 3e 05 1e 3f 3e 12 46 37 3e 7a a4 6d bd
       0.23455049 0.18663795 0.17897823 -0.058018185
000040 a2 b6 5e be 78 78 0f 3e c7 0a 0a 3e 54 72 81 3e
       -0.21749356 0.14010799 0.13480674 0.25282538
000050 6a 39 84 be dc 24 33 3d 83 e4 53 be 92 57 5e be
       -0.25825053 0.043736324 -0.20692639 -0.21713093
000060 22 93 88 be 0e e7 e1 38 43 77 ee bd 11 33 f1 3d
       -0.26674753 0.00010771873 -0.11643841 0.11777318
000070 4a 5e d7 3d 77 b7 6f be 9d cd 4e bd b8 9d 73 3e
       0.10516031 -0.2340983 -0.050489057 0.23790634
000080 b8 81 51 3e 0a 88 d3 3d 3e e8 30 3e 19 14 25 be
       0.2045964 0.10328682 0.17276093 -0.16120948
000090 96 c0 1e be 65 85 37 3e d4 28 6b bd ad 4f 0c 3d
       -0.15503153 0.1792198 -0.057411984 0.034255672
0000a0 c3 d7 ba 3d 03 74 bd 3d e8 3d fc 3d 84 9c 30 bd
       0.091231845 0.09250643 0.12316495 -0.043118015
0000b0 74 70 48 be 1c f4 00 38 55 56 8f bd c0 7a f9 bd
       -0.19574147 3.0744923e-05 -0.069988884 -0.12181616
0000c0 75 40 4b bd 62 5a 37 be f9 5f d6 3d 1c c2 5c be
       -0.049622018 -0.17905572 0.10467524 -0.21558422
0000d0 d2 8b bf 3c c0 1d 7e 3e e0 c8 e8 3d eb 48 2e be
       0.023382101 0.24816036 0.11366439 -0.17020003
0000e0 7a d3 46 3e 74 26 4a be 6a bf e0 3d 5c d1 e7 3d
       0.1941661 -0.19741231 0.10974009 0.11319229
0000f0 a1 ca 30 3e 9d 43 63 be a3 36 35 bd 5a a7 7d be
       0.17264797 -0.22193761 -0.04424156 -0.24770871
000100 e0 5a 32 3d f1 2c 06 3e b4 94 94 3d 69 d9 95 3d
       0.043543696 0.13103081 0.07254925 0.07316858
000110 75 8d b3 3c c2 8b a2 3d 01 4d 69 3d ba 0b 44 3e
       0.021918038 0.07936813 0.056958202 0.19145098
000120 0c e3 58 be 45 50 75 3e 8d e5 a6 3d 54 3d 61 3e
       -0.21180362 0.23956402 0.08149252 0.21996051
000130 c9 57 5a bd bb 77 f5 3d 9b e5 5a 3e 0d 49 22 3e
       -0.053306375 0.119857274 0.2137665 0.15848179
000140 5e ab d9 bd c1 70 d3 bc 06 97 74 3e 34 10 9e bd
       -0.10628389 -0.025810601 0.23885736 -0.07717934
000150 53 3b 44 3d c0 bb 88 be 48 d6 0e 3e 43 2d cb 3d
       0.04790814 -0.26705742 0.1394893 0.09920742
000160 34 31 73 3d a9 1f 5a 3e 23 b0 05 bd bc 2c 81 bd
       0.059373096 0.2130114 -0.03263868 -0.063073605
000170 58 c7 4a 3e f8 54 74 be 8e 26 6b bd 1e 6c 90 3d
       0.19802606 -0.23860538 -0.057409815 0.07051872
000180 51 77 b5 3d 71 93 71 be be c4 65 3e 31 cd ea 3d
       0.088606484 -0.235914 0.22438332 0.114649184
000190 d3 a1 80 3d 2a 13 ce 3c c7 83 44 3e f2 eb 3a be
       0.062808655 0.025155623 0.19190894 -0.18254068
0001a0 b7 00 0e 3e dc 43 56 be d8 e6 51 bd bb 44 ae bd
       0.1386746 -0.20924324 -0.05124554 -0.08509203
0001b0 e7 42 10 3e 31 05 57 bd a0 79 b7 bc 92 55 29 3e
       0.14088021 -0.052495185 -0.022396863 0.16536549
0001c0 46 84 43 be 39 05 05 bc f8 34 12 3d 3f c1 38 be
       -0.19093427 -0.008118921 0.035695046 -0.18042468
0001d0 d9 a2 82 bd 0b 89 b1 3c cb 6e 3d be 67 4c 6a 3d
       -0.06378717 0.021671792 -0.18499295 0.05720177
0001e0 41 56 fa bd 4e b0 2e 3e ef 2c a4 bd ef 0d 53 3d
       -0.12223483 0.17059442 -0.08016383 0.05152696
0001f0 db 34 da bd ad 44 83 3d 6b 9c 8e bb da 79 1d be
       -0.10654613 0.06409583 -0.0043521426 -0.15378514

q_net.model.2.weight f4 [128, 128]
000000 30 df b8 bb 75 1b 19 bb 74 17 51 bd b4 2c 9f bd
       -0.0056418404 -0.0023362313 -0.051047757 -0.07772198
000010 4a 58 52 3d a0 a5 c4 bc b7 81 cd 3c 4d ff 95 3d
       0.05135373 -0.024004757 0.025086267 0.073240854
000020 b3 62 a6 ba e8 b8 16 3d bb 6c 83 bd 0c 8f 8d bc
       -0.001269421 0.036797434 -0.06417223 -0.017280124
000030 bf b8 0c 3d 62 6b 3b bd 91 a0 9b 3d 88 e5 18 3d
       0.034355875 -0.045756705 0.07598985 0.037328273
000040 9d 33 49 3d de e4 51 3c 67 02 1f 3d be dd 9d bd
       0.049121488 0.012810914 0.03882065 -0.077083096
000050 17 79 94 3d 6b 6c 72 bc e0 06 47 bd 79 47 90 bd
       0.072496586 -0.014796357 -0.04859054 -0.07044882
000060 fd 98 e1 3c 1e f4 13 3d 3c 8f 98 bd 16 5a 77 bd
       0.02753877 0.03612148 -0.07449195 -0.060388647
000070 bf dc 07 bd 49 6b 9b bd cb 17 30 3d 04 4d 05 3d
       -0.033169504 -0.075888224 0.04299144 0.03254415
000080 f8 b3 70 3d 0d e8 96 bd 97 48 d2 bc bc 7a 03 3d
       0.05876538 -0.07368479 -0.02566938 0.03209947
000090 4c 38 30 bd 03 c0 9e bd db 86 89 bd bd 5c 66 3d
       -0.04302244 -0.07751467 -0.06715175 0.056240786
0000a0 90 22 78 bd 15 65 cc bc fd 22 81 bd 10 aa 98 bd
       -0.060579836 -0.024950543 -0.063055016 -0.07454312
0000b0 f9 51 96 3d ee e0 c9 bb 48 33 88 3d c4 6d b3 bc
       0.07339854 -0.006160847 0.06650406 -0.021902926
0000c0 70 d7 1b 3d 73 13 9e bd fa a7 47 bc f4 2c 2b bd
       0.038047254 -0.077185534 -0.012186045 -0.041790918
0000d0 33 f3 4a 3d 5c 2f a5 3d 67 14 01 bd 58 80 2c bd
       0.04954834 0.08065674 -0.031513598 -0.042114586
0000e0 88 b3 fa bc 0d b3 09 3d cf 4c db bc de d5 65 bd
       -0.030603185 0.03361802 -0.026770024 -0.056112163
0000f0 8e 92 75 bd ee aa 1a bd 7f 51 ab bd b9 dc 8f 3d
       -0.05995422 -0.037760668 -0.083651535 0.070245214
000100 75 ec 92 bd 89 c1 83 3d f9 3f 90 3d eb 6e b7 bc
       -0.07174007 0.06433398 0.07043452 -0.022391757
000110 31 51 62 bd 1c 21 14 3d cc a0 75 bc d5 5a a4 3d
       -0.05525321 0.036164388 -0.01499195 0.08025137
000120 21 da ac 3d 57 99 29 3d cd ee 7d 3c f9 08 9a 3d
       0.08440042 0.041406002 0.015498829 0.07521243
000130 6b 4a b4 bd 26 61 88 3d 88 70 d0 3c 72 72 6b 3c
       -0.088032566 0.066591546 0.025444284 0.014370548
000140 4f 22 ae 3d 2e 71 74 bb d2 d3 5b bd e2 49 3b bd
       0.085026376 -0.0037298906 -0.053668804 -0.045724757
000150 72 71 df 3c da 37 90 bd 76 04 44 bd 61 f6 3a bc
       0.027275775 -0.07041903 -0.047855817 -0.01141128
000160 dc 79 9e bd ba b3 72 bd 78 e6 d7 3b f9 31 91 3c
       -0.077380866 -0.05925343 0.0065887533 0.017724024
000170 fa f0 fb bb 1c 4f a8 3c da f0 85 3d bc 6f bb bc
       -0.0076886388 0.020545535 0.065400794 -0.022880428
000180 bd c7 9c 3d b0 9c b3 3d 2a 06 a0 bc 22 de 69 3d
       0.076552846 0.0877012 -0.01953419 0.057096608
000190 d0 55 2d 3d 5e 13 4c 3d b2 bb da bb 7c 1f f5 39
       0.042318165 0.049823157 -0.006675207 0.000467535
0001a0 02 bd b7 bc bb 0b e8 3c e3 30 ea 3c 0d da 9d bd
       -0.022428993 0.028325906 0.028587764 -0.077076055
0001b0 38 77 f3 38 41 8f 1c bd aa 7d 81 3d 78 90 a9 3d
       0.00011609349 -0.038222555 0.06322797 0.08279508
0001c0 b9 f6 44 bd 76 5d 0f bd 15 43 3c bd 34 52 67 bd
       -0.048086856 -0.03500124 -0.045962412 -0.05647488
0001d0 0d c0 a1 bd d0 e7 88 bc 16 aa b4 3d a3 09 b9 bc
       -0.07897959 -0.0167121 0.08821504 -0.022587603
0001e0 b8 6e 3f 3d e1 3e 00 bc d3 cc d1 3c f1 26 53 bd
       0.04673645 -0.0078274915 0.025610363 -0.05155081
0001f0 7e 47 93 bd 1b d9 69 3d 49 b6 27 3d fe 50 95 3d
       -0.071913704 0.057091814 0.040945325 0.07290839
000200 5b fe 1a 3d 29 00 a0 3d 86 2c 03 bd a2 20 4d bd
       0.03784023 0.078125305 -0.032024883 -0.05007995
000210 70 ff a7 3d ee 1b 18 3d 3f 51 a1 3c 1d de c3 bc
       0.08203018 0.03713601 0.019692061 -0.023909623
000220 a5 3e 5d bd 3a 2d 21 3d 98 f1 a7 bd 01 11 8e bd
       -0.05401482 0.039349772 -0.08200377 -0.06936837
000230 07 2c 8b bd eb ab 8a 3d d9 18 3b 3c 5f 28 b2 bd
       -0.06795507 0.06771072 0.011419498 -0.086991064
000240 46 91 ff 3c 85 f6 30 3d 47 af 9f bc 90 fc 99 bd
       0.031197201 0.04320385 -0.019492758 -0.075188756
000250 ff ff a4 3b b6 b4 b5 3c a8 67 c6 3b b9 d9 bd bc
       0.0050354 0.022180896 0.0060548373 -0.023175107
000260 f9 8d 0b 3d 5e 10 d8 3a f6 96 9a 3d 52 5a 8f bd
       0.034070943 0.001648437 0.07548325 -0.06999649
000270 d0 b6 1f 3c 12 1c 97 bd 93 0f 90 3d c9 65 b2 bd
       0.009748176 -0.07378401 0.070342205 -0.0871082
000280 90 e7 4f bd 67 9f 88 3c b6 45 60 3b 64 b9 ab 3d
       -0.050757945 0.016677571 0.0034221238 0.0838497
000290 dc 9d 70 3d 28 a2 85 bd 6f 19 8f 3b e1 d9 3d bc
       0.058744296 -0.065250695 0.0043670456 -0.011587591
0002a0 17 b2 ea 3c b9 51 92 3d 16 8d f5 3a ab 7a 12 bd
       0.028649373 0.071444936 0.0018734063 -0.035761517
0002b0 a8 2b ed 3c de 76 7f 3d 85 41 f8 bb e6 bf 8e bc
       0.028951481 0.06236922 -0.00757617 -0.017425489
0002c0 32 64 42 bd ec f5 5a 3d 8a ba 82 3d fd c4 4b bc
       -0.047458835 0.053457186 0.06383236 -0.012437102
0002d0 c0 34 86 bd 2f 44 08 bc a3 20 07 3c 9b fc e9 3c
       -0.0655303 -0.0083170375 0.008247527 0.028562834
0002e0 b6 9f a5 bb 15 4b 4d bd fb 8b 94 bd 56 31 34 bd
       -0.0050544394 -0.050120432 -0.07253262 -0.043992363
0002f0 78 b3 81 3d d1 f2 04 bb a3 96 4e 3a 70 f8 48 3d
       0.06333059 -0.0020286331 0.0007880723 0.049065053
000300 7f 1b 16 3d f7 be 9c bd ce 63 e9 3c e8 af 26 3c
       0.036647316 -0.07653611 0.028489973 0.010173775
000310 81 29 a1 3d 8a d1 7a 3d 1e 6b 58 bd e0 af 56 ba
       0.07869244 0.06123499 -0.05283653 -0.00081896596
000320 56 85 63 3d 6d d5 22 bd 16 dc 1c bd 2a b9 15 3c
       0.05554708 -0.03975432 -0.038295828 0.009138385
000330 5a cd 49 3c 0a 0e 1a bd ef d3 78 3d ef 96 09 bb
       0.012317026 -0.037611045 0.06074899 -0.0020994504
000340 47 14 71 bb 00 82 06 bd ca c1 94 3c 98 5a 10 bc
       -0.0036785768 -0.03283882 0.018158812 -0.008810662
000350 57 d6 c6 bc c7 12 e0 3c f6 a6 38 3d 7e b3 53 39
       -0.024272127 0.027352704 0.0450811 0.00020189394
000360 0a c7 8f bd b8 5d a7 bd 9a 57 a9 bd 0e 7f c2 bc
       -0.070203856 -0.08172172 -0.08268662 -0.023742225
000370 0d 8a 44 bc ae c1 c6 bc 9d 00 08 bc 08 c1 63 bd
       -0.0119958045 -0.024262276 -0.0083009275 -0.05560401
000380 57 49 9e 3d 61 c0 82 3c 06 b1 81 3d ef df 78 bd
       0.07728832 0.015960874 0.06332593 -0.060760435
000390 d8 67 88 3d 8d 50 80 3d d3 8f 5c bd 47 87 86 bd
       0.066604316 0.06265364 -0.0538481 -0.06568771
0003a0 79 ac 90 bd d2 53 53 3d 37 ab ff 3a f6 19 55 bd
       -0.070641465 0.05159361 0.0019505982 -0.05202671
0003b0 33 d1 6f 3d 1e 10 2f 3d 44 08 ca 3c 1e f2 ca bc
       0.058549117 0.04273998 0.024662144 -0.024773654
0003c0 a1 ca 85 bd a4 9c 77 bd c3 a9 7c 3d 04 00 21 3c
       -0.06532789 -0.06045212 0.061685335 0.009826664
0003d0 59 92 9e 3d d0 39 a7 bd 82 61 8b 3d ed ca 9d bd
       0.07742757 -0.08165324 0.068057075 -0.07704721
0003e0 53 f7 2e 3b b4 5d 09 bc 82 f3 83 3d a9 6b ac 3d
       0.002669771 -0.008384157 0.0644293 0.08418972
0003f0 ef 18 a7 bc 05 52 9e 3d e3 f6 98 bd 4f c3 3d 3d
       -0.020397631 0.07730488 -0.07468965 0.04632884

q_net.model.2.bias f4 [128]
000000 90 35 72 3d d9 2c 02 bd 62 55 8b 3b 5b f0 bc 3c
       0.059133112 -0.03178105 0.004252122 0.02306383
000010 f0 a4 8a 3c cd c1 c4 bc 2a ef 2f 3a cb 3a a9 3d
       0.016924351 -0.024018193 0.00067113584 0.08263167
000020 78 dd 02 bd cb 54 ac 3d 43 40 ad bd 12 20 d5 bc
       -0.03194949 0.084146105 -0.084595226 -0.026016269
000030 d9 cd 94 bd bf c9 8b 3d cd 32 b5 bc 56 af 36 3a
       -0.07265825 0.068255894 -0.02211895 0.0006968876
000040 32 f0 20 bd 53 81 cc 3c b0 65 ec bc c2 8e 5d 3c
       -0.039291568 0.02496401 -0.028857082 0.013522806
000050 2c 88 9c 3d 77 51 06 3d 88 c7 f5 3c 54 ac 30 bd
       0.0764316 0.032792535 0.03000237 -0.043133095
000060 30 c2 3e bd e8 d3 18 3c d2 d0 88 3d 00 a6 ff 3c
       -0.04657191 0.009327866 0.06680454 0.031207085
000070 e5 cf 0e 3b e2 5d 9b 3d 71 c2 2f 3b 15 73 f0 bc
       0.0021791395 0.07586266 0.0026818777 -0.02935175
000080 42 87 9b bc b1 86 c8 3c d4 b2 2b 3d 76 2a 39 3d
       -0.018985394 0.024478288 0.04191859 0.04520651
000090 42 79 81 3d 85 bc 87 bd 7c 37 98 bc e1 5f 86 bd
       0.06321956 -0.06627754 -0.018581145 -0.06561256
0000a0 76 fe 95 bd fc ae 27 bd 91 a4 2d 3d 6f fc e8 bc
       -0.07323925 -0.040938362 0.04239327 -0.028440682
0000b0 8c b6 93 3c 17 47 19 bd da c7 9d 3d eb d2 eb 3b
       0.018031381 -0.037421312 0.07704134 0.0071967742
0000c0 e8 8c 0a bd dd 05 42 bd 8e a0 9c bd 19 34 e0 bc
       -0.033825785 -0.047368873 -0.07647811 -0.027368592
0000d0 f5 fa db bb 2d a3 8e bd 51 35 25 bd c4 59 51 bd
       -0.006713266 -0.06964717 -0.04033405 -0.051110998
0000e0 53 2c ec 3c 8d be 7d 3d 20 37 c3 bb 9e 4d a4 3d
       0.02882973 0.0619493 -0.005957499 0.08022617
0000f0 c7 e0 b8 3c 7e a1 c9 bc 82 3f 35 3c 04 5a 97 3d
       0.02256812 -0.024613138 0.011062505 0.07390216
000100 a1 78 0f bd 55 5c 4e bd 23 18 3a bd 17 4d 0c bd
       -0.03502715 -0.050381023 -0.045433175 -0.034253206
000110 52 9b df bc 1a ab fc 3c 6e db a3 bd c3 b6 a8 bd
       -0.027295742 0.030843306 -0.08000837 -0.08237984
000120 b1 b1 7d bd 4c cd 34 3d 6c 2c 55 3c 3c ab 7c 3d
       -0.061937038 0.0441411 0.013011079 0.06168674
000130 3e e3 64 3c 7f 60 66 bd 7d a9 17 3d 0d 4e 98 bd
       0.013970194 -0.05624437 0.03702687 -0.07436762
000140 e8 be af bd fd 68 1d 3d 0b 9d ae bd bd 40 f5 3c
       -0.08581334 0.038430203 -0.08526047 0.029938096
000150 01 7b 50 bc 2c 21 5e bb a0 3f 1a bc 16 cd af 3d
       -0.012724639 -0.0033894284 -0.009414583 0.08584039
000160 55 00 4a bd d3 eb 30 3d fb d2 18 bb ce fa 2c 3d
       -0.049316723 0.04319365 -0.0023319114 0.042231373
000170 09 39 0a 3d e6 db b3 3d 72 6a 87 3d ce 2f 66 3b
       0.0337458 0.08782177 0.066121 0.0035123709
000180 ee 97 f6 bb 66 40 53 bd cd b0 7a 3d 2a 4c a1 bc
       -0.0075254356 -0.051575087 0.061203767 -0.019689638
000190 24 56 0a bd 00 7e 2c 3d c8 d4 8b 3d 7c fe 32 3d
       -0.033773556 0.04211235 0.06827694 0.043699726
0001a0 fd e0 91 3d ed fc af bd 7e 37 73 bd da 2d f0 3b
       0.07122991 -0.08593164 -0.059379093 0.0073296847
0001b0 cd e5 7e 3c a5 a4 91 bd f0 8f 6c bc ee e6 32 bd
       0.015557718 -0.071114816 -0.014438614 -0.043677263
0001c0 1a 19 3b bd 2a 52 40 bc b0 85 35 bc ac 54 e4 3c
       -0.045678236 -0.011738339 -0.011079237 0.027872406
0001d0 0f 87 7c 3c 05 2b b1 bc 22 2e 4b bd a4 89 59 bd
       0.01541306 -0.021626959 -0.049604543 -0.05310978
0001e0 da 22 85 3d c9 43 ad bd 96 50 07 bd 4b f4 0d 3c
       0.06500788 -0.084601946 -0.033035837 0.008664201
0001f0 84 24 c8 bc 03 25 a4 3c f1 aa 0f 3d e2 64 8d 3d
       -0.024431475 0.02003718 0.03507513 0.069040075

q_net.model.4.weight f4 [64, 128]
000000 2a d8 8c 3d bb ae 84 bd 0b d8 50 bd 26 99 45 3d
       0.068771675 -0.0647864 -0.050987285 0.048241757
000010 29 4f 42 bd 6b ee cc 3c 6e 43 b3 3d 17 cc 99 bd
       -0.047438774 0.02501603 0.087530956 -0.0750963
000020 9b 5a 81 bc ac 22 8d 3d 2b 0b b0 bd 45 30 55 3c
       -0.015790274 0.06891379 -0.0859588 0.013011997
000030 1b a1 62 bd 43 1a 48 bc 04 77 7a 3d 40 aa 19 bc
       -0.055329423 -0.0122132925 0.06114866 -0.00937897
000040 e3 02 81 bd ba 31 7f bd d1 ae 25 3d b1 18 d1 3c
       -0.06299379 -0.062303282 0.04044992 0.02552447
000050 f4 59 57 3d 8c 84 70 bd 00 dd 7d 3d 49 2e ae 3d
       0.05257602 -0.058720157 0.06197834 0.08504922
000060 6b 75 a5 bd 7e 19 b4 bd a6 01 65 3c 8d 1b 29 bc
       -0.08079036 -0.08793925 0.013977444 -0.01032151
000070 46 27 4f 3d e8 f2 8d 3d bd 12 13 3d c8 fd 75 3d
       0.050574563 0.06931096 0.035906542 0.060056478
000080 0b be 81 3b 4d 40 a0 bc ae af 16 bd 4e ab 9d bd
       0.0039594225 -0.019561911 -0.036788635 -0.076986894
000090 71 c0 70 3c fb a2 88 3d ed 55 11 bd 8c cf bb bc
       0.014694319 0.06671711 -0.035482336 -0.022926114
0000a0 ba 02 51 bd d7 08 56 3d 69 93 f4 3c b1 72 80 bd
       -0.05102799 0.052254524 0.029855447 -0.06271876
0000b0 8a 14 48 bd 06 01 38 bd 14 55 47 bd d2 75 8f 3d
       -0.048847713 -0.04492285 -0.04866512 0.07004894
0000c0 81 b7 7f 3d 1b b8 9b bd 8f 9c 8b 3c fc 46 d1 3c
       0.062430862 -0.07603475 0.017042426 0.025546543
0000d0 4a e2 aa 3c ff 88 6f bd 9b d7 38 bd 53 c7 9a bc
       0.020859856 -0.05848026 -0.045127492 -0.018893873
0000e0 2d f6 32 bd 62 d6 6e bd 55 3f b0 bd 0d 93 01 bd
       -0.043691803 -0.05830992 -0.086058296 -0.03163438
0000f0 b8 f4 88 bd b9 43 9f 3d c8 8d ab bc 36 50 f4 bb
       -0.066873014 0.07776589 -0.02094163 -0.007455851
000100 21 22 28 3d 96 98 0c 3d 03 d2 7c 3b 43 d0 f5 3c
       0.041048173 0.034325205 0.0038577325 0.030006533
000110 26 43 73 bd c1 9e a7 3d 77 25 2f bd c4 3c 8c 3d
       -0.05939021 0.08184577 -0.04276034 0.068475276
000120 85 85 ad bd b1 64 4b bd b3 74 a3 3d cb 5e be 3c
       -0.084727325 -0.049656574 0.07981243 0.02323856
000130 21 3d 96 3b 54 e7 60 3d 21 35 9c 3d b1 71 30 3d
       0.004584924 0.05490811 0.07627321 0.043077175
000140 94 e0 9f 3d 26 94 b3 3c 2e 7a 5e 3c 50 69 0b 3c
       0.07806507 0.021921229 0.013578935 0.008508995
000150 6e 26 86 bc c5 06 55 3c 35 56 0a 3c e3 ee 80 3d
       -0.016375747 0.013002102 0.008443405 0.06295564
000160 c6 90 9d bd f3 06 22 bd 62 d6 7b 3d e9 09 8d bc
       -0.07693629 -0.03955741 0.06148375 -0.01721664
000170 83 70 90 bc 34 11 92 bd 88 58 8f 3d 54 f9 05 bb
       -0.017631775 -0.071321875 0.06999308 -0.00204428
000180 4c 36 7e bd a5 cc eb bb ff 23 39 3d b5 95 20 bd
       -0.0620635 -0.0071960264 0.045200344 -0.03920527
000190 d7 50 51 bd 34 21 a6 bb b7 d9 99 bc bb 2f f0 bc
       -0.051102486 -0.005069876 -0.018780572 -0.029319635
0001a0 e9 b3 4f bc 16 de 48 bd 35 30 b2 bd 55 79 a5 3d
       -0.012677171 -0.049039923 -0.08700601 0.08079783
0001b0 83 68 0c 3d fc db aa 3d 50 8a 94 3d c5 2a 22 3d
       0.034279358 0.0834274 0.072529435 0.03959157
0001c0 19 cf 89 bd 7f fa e7 bc e7 2b 21 3c ea fb 23 3d
       -0.06728954 -0.028317688 0.009837127 0.040035166
0001d0 1a 88 b1 bd e2 60 81 3b 67 3b 9b bc 9f 44 b0 bd
       -0.086685374 0.003948317 -0.018949224 -0.086068384
0001e0 85 1e 5e bb 2c 84 a3 3d 87 2b 0e bd 98 de b7 bb
       -0.0033892703 0.07984194 -0.03470948 -0.005611252
0001f0 15 28 03 bd d8 ff d6 3c 3a 6a 3c 3b 6b 12 d0 3c
       -0.032020647 0.026245043 0.002874984 0.025399407
000200 1f 7b a6 3d 8a 1a e7 3c c5 49 8f bd d8 6f 39 3d
       0.08128952 0.028210897 -0.06996492 0.045272678
000210 78 51 46 3c 8e 54 5f 3d 3d 01 97 bd 19 76 9b bd
       0.012104385 0.054523997 -0.07373283 -0.07590885
000220 0d ef 9f 3c bc 1b a8 3d d8 52 7e bd ca 55 96 bc
       0.019523168 0.08208415 -0.062090725 -0.018351454
000230 fa 59 79 bc a7 c8 c4 bc a0 0b 8f 3c a0 37 2b bd
       -0.015219206 -0.02402146 0.017461598 -0.041801095
000240 2c 3b 40 3d 1a 54 5d bd e0 55 93 3d 59 a3 0e 3b
       0.04693143 -0.054035284 0.07194114 0.0021764843
000250 92 44 52 3d 6a a1 0e bd 6f 53 4f 3c ea 00 2f 3d
       0.051334925 -0.034821905 0.012654169 0.04272548
000260 b7 f5 40 3d 3b 60 68 bd 5f 96 46 3c 7d bf 49 bd
       0.047109332 -0.056732398 0.012120812 -0.049254883
000270 53 20 98 bd 6c 38 03 3d 54 1f 75 bd 98 6e a0 bd
       -0.0742804 0.03203623 -0.05984433 -0.07833594
000280 37 5c 6b 3d 6b b1 37 3d 8a 36 5a bd 39 31 02 bd
       0.05746099 0.044846933 -0.05327467 -0.031785224
000290 fc d9 83 bd 8c 49 85 bc 82 b6 d9 3b d5 04 9d bc
       -0.064380616 -0.016270421 0.006644071 -0.019167343
0002a0 7f 1d 3a bd 22 63 08 3d ad c6 41 bc 06 44 44 bd
       -0.045438286 0.033297665 -0.011827153 -0.047916435
0002b0 6b 56 b0 3d 3a 5d 87 3c 08 ba 93 bd bc 78 85 bd
       0.08610233 0.016523946 -0.07213217 -0.06517169
0002c0 b3 98 6a bc 2b 66 84 3d 1e 96 33 3d cc 34 03 bd
       -0.014318633 0.064647995 0.043844335 -0.032032773
0002d0 47 05 75 bc 23 0a 89 bd f1 2a 92 bd 68 f3 81 bc
       -0.0149548715 -0.066913866 -0.07137097 -0.015863135
0002e0 18 5b 2b 3c 82 47 c1 3c 94 9e 40 3d 04 a1 a5 3d
       0.01045873 0.023593668 0.047026232 0.08087352
0002f0 3f 55 2b 3d a6 30 96 3d ad e0 3f 3c b5 92 25 3d
       0.041829344 0.07333498 0.011711282 0.040423114
000300 9a 04 9b 3a 0f ba 67 3d 79 51 3f 3d 26 86 70 bd
       0.0011826933 0.056573924 0.046708558 -0.058721684
000310 95 1e 9c bc 46 97 10 3c 31 e5 c6 3c d3 1c 9e 3b
       -0.019057551 0.008825129 0.024279209 0.0048252135
000320 b4 5b 8e bd 60 86 ad 3d 81 68 84 bd 1d e7 24 3c
       -0.06951085 0.084728956 -0.06465245 0.010064867
000330 18 4c 1b 3d a6 70 16 3d 35 f7 12 3b 44 26 b6 bc
       0.037914366 0.036728524 0.002242518 -0.022235043
000340 00 04 80 bd 3c 67 82 3d 7f eb b8 3c 44 6b e6 bc
       -0.06250763 0.06367347 0.02257323 -0.02812732
000350 ff e2 56 3d ff 65 62 bd f1 8d 72 bd c9 e5 9c bc
       0.052462574 -0.055273052 -0.059217397 -0.019152539
000360 18 87 32 bc 72 09 55 bd b6 05 b3 3c 5f b6 08 bd
       -0.010896467 -0.05201096 0.02185331 -0.033377048
000370 ec c1 9c bc fd 42 8c 3d 8f 76 99 3d 90 43 37 bd
       -0.019135438 0.068487145 0.074933164 -0.044742167
000380 a9 80 a8 3d 62 e8 6a 3d 51 53 5f 3d e0 93 f8 3c
       0.08227665 0.057350524 0.054522816 0.03034395
000390 1c 33 4e 3b e7 81 47 bd ad dd 44 3d d2 e8 de bc
       0.003146357 -0.04870787 0.04806297 -0.027210627
0003a0 cc bf 8e bd cb e7 b2 3c 52 e2 41 3d c3 d7 8e 3c
       -0.06970176 0.021839043 0.047334976 0.017436868
0003b0 9c 37 a8 3d 09 01 a6 3d 03 e9 b4 3d db 36 48 bd
       0.08213732 0.08105666 0.08833506 -0.04888044
0003c0 6b 03 0c 3d 43 6b b0 ba 83 64 56 bd 59 cd 1e 3d
       0.034182947 -0.0013459701 -0.05234195 0.038770054
0003d0 c6 b7 45 bd 9b 28 7e 3b 1a d2 45 3d 44 77 a7 bb
       -0.048270963 0.0038781527 0.04829607 -0.005110653
0003e0 dc a8 0e bd 6c 0e 08 3d e4 eb c9 bb 88 e7 20 3c
       -0.034829006 0.03321688 -0.0061621536 0.009820826
0003f0 88 bf ad bd 2c 74 2b bd 31 a3 b8 3c 98 07 94 bd
       -0.08483797 -0.041858837 0.022538753 -0.07228011

q_net.model.4.bias f4 [64]
000000 39 87 8e 3d c1 d9 ad bd 89 48 06 3d 41 14 7c 3d
       0.069593854 -0.08488799 0.03278402 0.061542753
000010 e3 59 ac bd 79 05 8b 3d 9d 50 1b 3c 0e 89 d9 3c
       -0.08415582 0.06788153 0.009479669 0.02655461
000020 b8 95 9d bd a7 45 30 bd 13 61 7a bd 55 f4 b3 bd
       -0.07694572 -0.043035176 -0.061127733 -0.08786837
000030 50 e3 6e 3d 67 c3 88 3d 88 55 0a 3d c6 bd b4 3c
       0.05832225 0.06677895 0.033772975 0.022063147
000040 b7 7d 8b 3d 49 a1 8a 3d b0 18 a4 bd 42 22 7b 3d
       0.068110876 0.06769044 -0.08012521 0.061311968
000050 aa 3a a8 bd f4 79 1c 3d d1 a2 23 bc 3b 97 c6 3c
       -0.08214314 0.03820224 -0.009987549 0.024242034
000060 1a 46 dd 3c 25 3f 1b 3d 2b 58 24 bd 04 82 79 bd
       0.027010966 0.037902016 -0.040123146 -0.06091501
000070 6d 98 81 bd 27 40 69 3d 14 52 9b bd 29 05 46 bd
       -0.06327901 0.056945946 -0.075840145 -0.048344765
000080 88 fb b1 bd d5 b8 93 bd b1 d0 68 bd 8d 14 74 bc
       -0.08690554 -0.07212988 -0.05683965 -0.014897478
000090 26 1d 28 bd 4d 5a ac 3d 52 38 77 3d 2e 2a 0e bd
       -0.041043423 0.08415661 0.060356446 -0.034708194
0000a0 63 a3 28 3c 68 8e ae 3d 7a 45 8a 3c a5 cf 70 3c
       0.010292861 0.085232556 0.016878832 0.014697944
0000b0 a1 5f 0e 3d 4b 7f 9c bd 21 f1 27 bd 21 10 b0 3d
       0.034759168 -0.07641467 -0.041001443 0.08596826
0000c0 ef fd a7 bd 4d f8 01 3d 7a dd 68 3c 3d fb b3 bd
       -0.08202731 0.03173094 0.01421296 -0.08788154
0000d0 e6 53 12 bd a0 cc 8e 3c d4 3e 34 3c df 0a 0b bd
       -0.035724543 0.017431557 0.0110013075 -0.033945914
0000e0 61 92 12 bd e8 5a 4a bc 7c 33 66 3d c1 b2 8a 3d
       -0.03578413 -0.012350775 0.056201443 0.06772376
0000f0 58 49 56 bd b0 a8 86 bd 3f ac d7 bc ab e6 97 3d
       -0.05231604 -0.06575143 -0.02632725 0.07417043

q_net.model.6.weight f4 [1, 64]
000000 f4 d3 0c 3d da 87 d3 3d 24 8a 59 bd 92 50 dd bd
       0.03438182 0.10328646 -0.053110257 -0.10806383
000010 f4 7b 96 bd 34 2f bb bd 40 4a 2d bb 3a 21 df 3d
       -0.07347861 -0.09139863 -0.0026441962 0.10895009
000020 18 a7 06 3d 7a c4 e5 3d b0 2f 5b bd de a0 cb bd
       0.032874197 0.112191156 -0.053512275 -0.09942792
000030 f8 cc 53 bd d4 5c 04 bd 30 1a e6 bc ee 8c a5 3d
       -0.051709145 -0.03231509 -0.028088659 0.08083521
000040 b8 e8 90 bc 3a 3c e6 bd 76 dd 9d 3d 70 f9 8c bc
       -0.017689094 -0.11241956 0.07708256 -0.017208785
000050 90 fe c2 bd b6 ef fe 3d ac b9 a6 bd 00 9a bc ba
       -0.0952121 0.12448065 -0.08140883 -0.0014389157
000060 38 e5 99 3c ea d0 bc 3d ac 0c 3c bd 6a 53 89 3d
       0.018786058 0.09219535 -0.045910522 0.06705363
000070 62 da 9f 3d 50 bd ff 3c 98 2f dc 3c 30 7b d0 bd
       0.07805325 0.0312182 0.026878163 -0.10179746
000080 06 60 f0 3d 5a 85 ef bd 08 e1 86 3d 60 5e 77 3d
       0.11737065 -0.11695357 0.0658589 0.060392737
000090 58 47 d3 3c a4 78 c1 3d 20 c6 be 3d c4 15 89 3d
       0.025790855 0.094468385 0.09315133 0.066936046
0000a0 30 99 34 bc f0 9b bd 3c a0 4a 95 3c 52 cc f6 bd
       -0.011022851 0.023145646 0.01822406 -0.1205069
0000b0 84 2d eb 3d 00 24 cc 3d b6 2c a2 3d 18 af fb bc
       0.11483291 0.09967804 0.07918684 -0.03072314
0000c0 6a 5d a2 bd da c8 e3 bd 20 b4 3d bd 3c ef 0b bd
       -0.079279736 -0.11122294 -0.04631436 -0.0341637
0000d0 40 3c 95 3b 48 ad 67 3d ec 7a db bd 6c a6 58 3d
       0.0045543015 0.05656174 -0.10716805 0.052893087
0000e0 a0 5d 52 3c 6e 44 ce 3d 44 c3 b0 3d d0 c2 17 3d
       0.012839705 0.10071646 0.08630994 0.037051022
0000f0 28 e2 fd bd 48 35 a7 3c 8c 4c 44 3d cc 93 84 3d
       -0.123966515 0.020411149 0.047924563 0.064735025
