DAC/policy_critic.pth (torch, 115249 bytes, 13 tensors)

q_net.model.0.weight f4 [128, 14]
000000 5c 73 87 be 42 e4 b5 3c cb d0 14 be ef a9 60 be
       -0.264552 0.022203568 -0.14532773 -0.21939825
000010 c4 9f 83 be 8b 6f 0b be b0 96 80 3e 87 97 88 be
       -0.2570783 -0.13616769 0.25114965 -0.26678106
000020 6c 5d 86 bd 78 cc 1d 3d e2 74 87 3e 3f 40 4e 3e
       -0.065607876 0.038525075 0.26456362 0.20141695
000030 49 7a 00 3e 84 ad 5a be 0c 32 82 bd b9 8d 9b 3d
       0.12546648 -0.21355253 -0.06357202 0.07595391
000040 15 e2 4b 3d b4 bd 83 be 8a 02 52 3c 3e f7 30 be
       0.049776156 -0.2573067 0.012817988 -0.17281815
000050 27 a7 7b be 73 16 9e bd 84 de df bd a6 1d 4a be
       -0.24575482 -0.077191256 -0.10931113 -0.19737872
000060 35 ee 04 be cc 33 26 be ab 41 4f bd 62 80 3a be
       -0.12981494 -0.16230696 -0.050599735 -0.18213037
000070 dd 71 96 3d b5 9c 04 be af ea c5 3d 1e 7a 31 3e
       0.073459364 -0.12950404 0.09663903 0.1733174
000080 3a e5 1e 3e b1 8c 25 3e 46 b7 2f 3b 41 9f 6d 3e
       0.1551713 0.16166951 0.002681212 0.23205282
000090 d7 8a 43 3e 04 51 f1 3d a5 73 1f bd 7e a4 3b be
       0.19095932 0.11783031 -0.038928647 -0.18324468
0000a0 2f 6b 16 be ae cb 56 be dd 73 ab bd 33 c7 77 3e
       -0.14689325 -0.20976135 -0.083717085 0.24197082
0000b0 61 4a 9d 3d 78 52 73 be ee 1d 5d ba 09 8e a5 bd
       0.07680202 -0.23761928 -0.0008434941 -0.08083732
0000c0 18 15 05 3e e7 33 fd 3d 8f 89 d9 bd c9 48 7d 3c
       0.12996328 0.12363415 -0.1062194 0.015459248
0000d0 10 95 46 bd 28 94 5c 3c 54 b0 93 bd cd 13 69 3e
       -0.048482 0.013463058 -0.07211366 0.2276146
0000e0 9a 70 32 3e 56 fe 57 3e 2a 95 18 bc 77 c8 71 be
       0.17425767 0.21093115 -0.009312907 -0.23611628
0000f0 bd d1 05 be 86 14 0a be 19 0a 3e 3e 75 14 79 3d
       -0.1306829 -0.13484392 0.1855854 0.060810525
000100 87 8f 21 be a9 b7 41 3d c8 54 50 bc b9 f2 9e bd
       -0.15777408 0.047294293 -0.012715526 -0.077611394
000110 56 6b 0e 3e fa b5 b1 3d 0a 27 56 3e 1b a1 57 3e
       0.13908133 0.086772874 0.2091333 0.2105755
000120 b6 06 c6 3d 59 2d 11 3b b2 d0 43 3e f5 fd 0c be
       0.09669249 0.0022152273 0.1912258 -0.13768752
000130 ed db 87 3e a2 86 f0 bd 59 b4 77 be 61 a6 be bd
       0.26534978 -0.11744429 -0.24189891 -0.09309078
000140 4a 50 62 bd 38 75 2f 3e dc b2 22 bd 00 0c 55 bd
       -0.05525235 0.17134559 -0.039721355 -0.052013397
000150 09 8b 3e 3e c6 34 78 be 66 1a 12 3e 01 fa a3 3d
       0.18607725 -0.24238881 0.14267883 0.08006669
000160 37 9b f6 bd 64 96 78 be de 67 22 3e 4b 6b c2 3d
       -0.12041324 -0.2427612 0.15859935 0.09493121
000170 c0 1a 87 be ab f5 4e 3d d4 a0 d4 3d 25 fe 25 3e
       -0.26387596 0.050527256 0.10382238 0.1621023
000180 81 30 20 be f3 bb 91 bd de e8 9d ba 95 1b 37 3d
       -0.15643503 -0.071159266 -0.0012047549 0.04470404
000190 a3 85 f7 3d ea 58 cc 3d af 3d a8 b8 1c cf 83 3e
       0.12086036 0.099778965 -8.022354e-05 0.2574395
0001a0 08 63 d0 3d 86 ac 31 bd 09 6b 1a be 84 bd c4 bc
       0.10175139 -0.04337742 -0.15079893 -0.02401615
0001b0 b0 d2 7c 3d a5 22 de 3c c0 08 49 be 5e 12 b8 3d
       0.061724365 0.02711613 -0.19632244 0.08987878
0001c0 e3 48 67 bd e1 53 f9 3d 5f 11 a9 bd f3 57 3d be
       -0.056465995 0.12174202 -0.082552664 -0.18490581
0001d0 d7 aa f3 bd 30 c6 4c 3e c4 3f 81 3e 16 a4 b7 3d
       -0.118978195 0.19997478 0.25243962 0.08966844
0001e0 41 89 85 be 7d 82 7d 3e 87 88 b7 bb 4f 8c dd 3c
       -0.2608128 0.24756809 -0.005600992 0.027044443
0001f0 ba 81 48 be 08 5a 0b bc 23 c5 38 3e fb 38 5c 3e
       -0.19580737 -0.008505352 0.18043952 0.21506111
000200 05 92 39 3d f9 0c 4b be 5c e7 10 be 6b f9 14 3e
       0.04530527 -0.19829167 -0.14150757 0.1454827
000210 9b 20 20 3e 07 f2 60 3e 01 44 f1 bc 23 b7 ba bc
       0.15637438 0.21967326 -0.029451372 -0.022792405
000220 0b 9d 39 3d 98 f5 43 3e b6 6b 63 3e a9 30 22 3e
       0.045315783 0.19136655 0.22209057 0.15838875
000230 29 7d 38 be 76 1b 4c be 76 df 9d bd 18 80 0d 3e
       -0.18016495 -0.1993235 -0.077086374 0.13818395
000240 78 26 64 3e c9 cc 1f 3e f6 79 7a be dc 8b ef 3d
       0.222803 0.15605463 -0.24460587 0.11696598
000250 06 ba 9b bb f1 c2 7b be d5 b5 76 3e 06 84 14 3e
       -0.0047524003 -0.24586083 0.24092801 0.14503488
000260 29 df 75 be 56 39 f9 bc e8 89 de bd 81 5b f0 3d
       -0.2401091 -0.030422848 -0.10866147 0.11736203
000270 29 a4 77 3e 74 2c 25 3e 52 92 85 3e 08 27 ee bd
       0.24183716 0.16130239 0.26088196 -0.11628538
000280 c6 64 cc bd 7b 78 e3 bc 2d 10 14 be fb 23 1b 3e
       -0.099801585 -0.02776741 -0.14459296 0.15150444
000290 65 2c 8b 3d 3c 09 06 3d 69 28 11 3e 92 3c ea 3d
       0.06795577 0.03272365 0.14175572 0.11437334
0002a0 97 6c 06 be d4 0e 36 3e 7b 4f 8d 3d 53 9f 04 be
       -0.13127361 0.17779094 0.06899925 -0.12951402
0002b0 39 9e e6 bd c8 a0 e7 3c 5e 29 a6 bd c6 20 d3 ba
       -0.11260647 0.028274909 -0.08113359 -0.001610779
0002c0 2e e4 20 3e 08 a0 ad bd af e6 25 be c4 2f 50 bc
       0.15712044 -0.08477789 -0.1620128 -0.012706701
0002d0 3b b4 0e 3e f7 ee e4 bd f5 01 f0 3c 7b 6a 44 be
       0.1393594 -0.111783914 0.029297808 -0.19181244
0002e0 80 3c 18 3e c7 3a a9 3c 56 e5 18 be 30 40 fa bd
       0.14866829 0.02065791 -0.14931235 -0.12219274
0002f0 f0 7a 0b be b5 39 1c 3e 2f 9d b0 3c 5f 1f aa bd
       -0.13621116 0.15256388 0.021559326 -0.08306765
000300 57 49 6e bd b8 95 07 bd 8f a6 43 3e 80 a8 a7 bd
       -0.05817541 -0.033101767 0.19106506 -0.08186436
000310 05 09 35 3e 46 1f 48 bd f8 d8 71 bd 60 81 82 bd
       0.17679222 -0.04885795 -0.05904481 -0.063723326
000320 94 3b 31 be 8f 93 74 bc 53 62 60 be d0 60 57 3e
       -0.17307884 -0.014927759 -0.21912508 0.21033025
000330 ce 29 3f 3c 51 33 85 be 2b 70 bc 3d 26 7c 7e 3e
       0.011667682 -0.26015714 0.09201082 0.24852046
000340 68 14 51 3e df d7 44 bd bc 49 e0 3c 09 9c 1f 3e
       0.2041794 -0.048057433 0.02737891 0.15586866
000350 d6 f6 7a be 52 c6 48 3e f3 eb 6a be d1 01 9c 3d
       -0.24508223 0.19606903 -0.2294157 0.07617534
000360 2a 90 ca bc 25 a3 37 3e 9a 8b b2 3d 9d ae 2c bc
       -0.024726946 0.17933328 0.08718033 -0.010539678
000370 39 36 0a be ba f1 c9 bd de 2d a3 3c 70 c9 1a 3e
       -0.13497247 -0.09860559 0.019919332 0.15115905
000380 c1 0d bd bd 83 b6 23 3e 6c 05 59 be 28 dd 72 3e
       -0.09231139 0.15987591 -0.21193475 0.23717177
000390 d8 47 d3 bd e1 ef 0a be 64 2a 6b be 02 68 27 3d
       -0.103164375 -0.13568069 -0.2296539 0.040870674
0003a0 8f e5 a9 bd 27 4f 33 3d b6 80 44 bc 78 9d 30 3e
       -0.08295738 0.043776657 -0.011993578 0.1724757
0003b0 74 ef 1c 3e ba 3c 55 3e d0 d5 0d 3d 75 b5 88 3d
       0.15325719 0.20823947 0.034627736 0.06675235
0003c0 87 4b 38 be ca 81 a9 bd 8b 46 77 3e 9e 30 32 bd
       -0.17997561 -0.082767084 0.24148004 -0.043503396
0003d0 34 e8 65 bd 8d 66 23 3e d5 65 b1 3d 19 da 02 be
       -0.05612965 0.15957089 0.08662001 -0.1277851
0003e0 9f 34 51 3e 98 0c a3 3c d0 b8 c7 3d a6 a0 38 be
       0.2043023 0.019903466 0.09752047 -0.18030033
0003f0 6e 68 88 3e 90 0c 93 3d f4 d8 19 3e ff 6e 4d 3c
       0.26642174 0.071801305 0.15024167 0.012538671

q_net.model.0.bias f4 [128]
000000 53 54 b6 3d 3d ae 7e be 98 f7 42 3e 51 e9 ef bd
       0.08902802 -0.24871154 0.19039762 -0.117144234
000010 95 e7 72 3e e6 3e 32 be f0 98 25 3e b7 51 4c 3e
       0.23721154 -0.17406806 0.16171622 0.19953047
000020 24 c7 08 be f5 5c 50 3e 6f bc 63 be 45 f5 1b be
       -0.13357216 0.2034796 -0.2223985 -0.15230282
000030 70 7a bb 3c ca 08 5f 3e 0e 8b 81 3e bb c4 4d 3e
       0.022885531 0.21780697 0.25301403 0.20094578
000040 59 35 86 3e 9c c6 f6 3c 38 02 cb 3c 17 d3 22 3e
       0.26212576 0.030124001 0.024781331 0.15900837
000050 36 bd 63 be cf 80 06 be 95 21 5e be b3 6b db 3c
       -0.22240147 -0.13135074 -0.21692498 0.026784753
000060 6a 31 b6 bd 5b 57 8a 3d 44 bf 6f be 02 be 62 3e
       -0.08896144 0.06754943 -0.23412806 0.22142795
000070 68 1f fd 3d 5a d2 64 3d 00 c6 15 3d 3d e2 39 be
       0.12359506 0.05586467 0.03656578 -0.1815271
000080 a0 77 81 be 76 dc 51 be 4d 9e 80 bd 3c 34 6a 3e
       -0.2528658 -0.20494255 -0.062801935 0.22871488
000090 c1 ea 0f be d5 2e 51 be 95 7b 23 3e d0 c3 84 3e
       -0.14054395 -0.20428021 0.15965112 0.25930643
0000a0 e8 d9 da bc c1 cc 66 be b4 9d 65 be 60 8e 26 be
       -0.026715234 -0.22539045 -0.2242344 -0.16265249
0000b0 f1 b7 e4 3d 73 cf 1f 3e 02 8b 26 be 24 92 6d be
       0.111678965 0.1560648 -0.16263965 -0.2320028
0000c0 90 02 7b 3e 29 ae 78 3c 57 1b b9 bd 60 5b bd 3c
       0.24512696 0.015178242 -0.09038418 0.02311486
0000d0 37 22 f7 bc 15 da 51 3d b2 b7 68 be cb 8f 1a 3d
       -0.030167682 0.05123337 -0.22726324 0.037734788
0000e0 3a 3a 84 be e0 cb 7a 3e 0c c2 38 3e e5 03 70 bb
       -0.25825673 0.24491835 0.18042773 -0.0036623415
0000f0 18 93 87 be cc 37 5b be 46 2c 1b 3d 09 e5 50 3e
       -0.2647941 -0.21408004 0.03788402 0.2039987
000100 c2 7d 2d 3e fe 21 98 3d ae 6e 5b be bf 83 51 3e
       0.16942504 0.074283585 -0.2142894 0.20460413
000110 09 17 82 3e 95 7d 79 be 35 bd 7a 3e 38 0d 6f 3e
       0.254082 -0.24364312 0.24486239 0.23344886
000120 6c a9 d7 bd d0 85 7e be 8a a5 e0 3c 28 fa 53 bd
       -0.105303615 -0.24855733 0.027422685 -0.05175224
000130 6a 84 fd 3d 17 c7 60 3e c9 17 9e bd b1 85 44 be
       0.123787716 0.21950947 -0.077193804 -0.19191624
000140 51 ef 2d be d2 21 3f bd 6a 28 38 be 8f 79 da 3d
       -0.16985823 -0.046663113 -0.17984167 0.10667717
000150 d4 51 87 be 25 a9 7c be ac 13 f9 3d 2b 8e 61 3e
       -0.26429617 -0.24673899 0.12161955 0.22026889
000160 12 bb 62 3e 03 c4 0c be 06 c7 77 be 64 be 15 be
       0.22141674 -0.13746648 -0.24197015 -0.1462341
000170 ea f6 81 be 7f 24 4f be 2a 53 14 be 89 97 91 3d
       -0.25383693 -0.20228766 -0.1448485 0.07108981
000180 0b 24 34 be 3d d2 36 3e 93 cd 75 3e 86 84 82 3e
       -0.17591874 0.17853637 0.24004202 0.25491732
000190 00 45 4b 3d 41 ba d5 3c 7d b6 b5 3c fe 9a 63 3e
       0.04962635 0.02608979 0.022181744 0.22227094
0001a0 0a 2f de 3d c2 92 ba bd 8d 6b 5c be 99 a6 4e 3e
       0.10848816 -0.09110023 -0.21525402 0.2018074
0001b0 2c 81 2d be 3d 6e 27 3e 5f af 7b bd 72 68 4b 3d
       -0.16943806 0.16350646 -0.061446544 0.049660154
0001c0 1e f1 d7 bd 84 a1 78 be 06 4e 38 be 20 f2 4b be
       -0.10544036 -0.24280363 -0.17998514 -0.19916582
0001d0 18 61 28 3c 84 98 33 be b3 b6 d0 bd 93 82 2d be
       0.010277055 -0.17538649 -0.10191097 -0.16944341
0001e0 2d 67 e9 bd ed 57 82 3e 69 75 17 3e ed cc 4b 3e
       -0.11396632 0.25457707 0.14790882 0.19902392
0001f0 4d b5 23 3e e4 b9 68 be aa a1 6b bd 90 5b 5b be
       0.1598713 -0.22727162 -0.05752722 -0.21421647

q_net.model.1.weight f4 [128]
000000 00 00 80 3f 00 00 80 3f 00 00 80 3f 00 00 80 3f
       1.0 1.0 1.0 1.0
000010 00 00 80 3f 00 00 80 3f 00 00 80 3f 00 00 80 3f
       1.0 1.0 1.0 1.0
000020 00 00 80 3f 00 00 80 3f 00 00 80 3f 00 00 80 3f
       1.0 1.0 1.0 1.0
000030 00 00 80 3f 00 00 80 3f 00 00 80 3f 00 00 80 3f
       1.0 1.0 1.0 1.0
000040 00 00 80 3f 00 00 80 3f 00 00 80 3f 00 00 80 3f
       1.0 1.0 1.0 1.0
000050 00 00 80 3f 00 00 80 3f 00 00 80 3f 00 00 80 3f
       1.0 1.0 1.0 1.0
000060 00 00 80 3f 00 00 80 3f 00 00 80 3f 00 00 80 3f
       1.0 1.0 1.0 1.0
000070 00 00 80 3f 00 00 80 3f 00 00 80 3f 00 00 80 3f
       1.0 1.0 1.0 1.0
000080 00 00 80 3f 00 00 80 3f 00 00 80 3f 00 00 80 3f
       1.0 1.0 1.0 1.0
000090 00 00 80 3f 00 00 80 3f 00 00 80 3f 00 00 80 3f
       1.0 1.0 1.0 1.0
0000a0 00 00 80 3f 00 00 80 3f 00 00 80 3f 00 00 80 3f
       1.0 1.0 1.0 1.0
0000b0 00 00 80 3f 00 00 80 3f 00 00 80 3f 00 00 80 3f
       1.0 1.0 1.0 1.0
0000c0 00 00 80 3f 00 00 80 3f 00 00 80 3f 00 00 80 3f
       1.0 1.0 1.0 1.0
0000d0 00 00 80 3f 00 00 80 3f 00 00 80 3f 00 00 80 3f
       1.0 1.0 1.0 1.0
0000e0 00 00 80 3f 00 00 80 3f 00 00 80 3f 00 00 80 3f
       1.0 1.0 1.0 1.0
0000f0 00 00 80 3f 00 00 80 3f 00 00 80 3f 00 00 80 3f
       1.0 1.0 1.0 1.0
000100 00 00 80 3f 00 00 80 3f 00 00 80 3f 00 00 80 3f
       1.0 1.0 1.0 1.0
000110 00 00 80 3f 00 00 80 3f 00 00 80 3f 00 00 80 3f
       1.0 1.0 1.0 1.0
000120 00 00 80 3f 00 00 80 3f 00 00 80 3f 00 00 80 3f
       1.0 1.0 1.0 1.0
000130 00 00 80 3f 00 00 80 3f 00 00 80 3f 00 00 80 3f
       1.0 1.0 1.0 1.0
000140 00 00 80 3f 00 00 80 3f 00 00 80 3f 00 00 80 3f
       1.0 1.0 1.0 1.0
000150 00 00 80 3f 00 00 80 3f 00 00 80 3f 00 00 80 3f
       1.0 1.0 1.0 1.0
000160 00 00 80 3f 00 00 80 3f 00 00 80 3f 00 00 80 3f
       1.0 1.0 1.0 1.0
000170 00 00 80 3f 00 00 80 3f 00 00 80 3f 00 00 80 3f
       1.0 1.0 1.0 1.0
000180 00 00 80 3f 00 00 80 3f 00 00 80 3f 00 00 80 3f
       1.0 1.0 1.0 1.0
000190 00 00 80 3f 00 00 80 3f 00 00 80 3f 00 00 80 3f
       1.0 1.0 1.0 1.0
0001a0 00 00 80 3f 00 00 80 3f 00 00 80 3f 00 00 80 3f
       1.0 1.0 1.0 1.0
0001b0 00 00 80 3f 00 00 80 3f 00 00 80 3f 00 00 80 3f
       1.0 1.0 1.0 1.0
0001c0 00 00 80 3f 00 00 80 3f 00 00 80 3f 00 00 80 3f
       1.0 1.0 1.0 1.0
0001d0 00 00 80 3f 00 00 80 3f 00 00 80 3f 00 00 80 3f
       1.0 1.0 1.0 1.0
0001e0 00 00 80 3f 00 00 80 3f 00 00 80 3f 00 00 80 3f
       1.0 1.0 1.0 1.0
0001f0 00 00 80 3f 00 00 80 3f 00 00 80 3f 00 00 80 3f
       1.0 1.0 1.0 1.0

q_net.model.1.bias f4 [128]
000000 00 00 00 00 00 00 00 00 00 00 00 00 00 00 00 00
       0.0 0.0 0.0 0.0
000010 00 00 00 00 00 00 00 00 00 00 00 00 00 00 00 00
       0.0 0.0 0.0 0.0
000020 00 00 00 00 00 00 00 00 00 00 00 00 00 00 00 00
       0.0 0.0 0.0 0.0
000030 00 00 00 00 00 00 00 00 00 00 00 00 00 00 00 00
       0.0 0.0 0.0 0.0
000040 00 00 00 00 00 00 00 00 00 00 00 00 00 00 00 00
       0.0 0.0 0.0 0.0
000050 00 00 00 00 00 00 00 00 00 00 00 00 00 00 00 00
       0.0 0.0 0.0 0.0
000060 00 00 00 00 00 00 00 00 00 00 00 00 00 00 00 00
       0.0 0.0 0.0 0.0
000070 00 00 00 00 00 00 00 00 00 00 00 00 00 00 00 00
       0.0 0.0 0.0 0.0
000080 00 00 00 00 00 00 00 00 00 00 00 00 00 00 00 00
       0.0 0.0 0.0 0.0
000090 00 00 00 00 00 00 00 00 00 00 00 00 00 00 00 00
       0.0 0.0 0.0 0.0
0000a0 00 00 00 00 00 00 00 00 00 00 00 00 00 00 00 00
       0.0 0.0 0.0 0.0
0000b0 00 00 00 00 00 00 00 00 00 00 00 00 00 00 00 00
       0.0 0.0 0.0 0.0
0000c0 00 00 00 00 00 00 00 00 00 00 00 00 00 00 00 00
       0.0 0.0 0.0 0.0
0000d0 00 00 00 00 00 00 00 00 00 00 00 00 00 00 00 00
       0.0 0.0 0.0 0.0
0000e0 00 00 00 00 00 00 00 00 00 00 00 00 00 00 00 00
       0.0 0.0 0.0 0.0
0000f0 00 00 00 00 00 00 00 00 00 00 00 00 00 00 00 00
       0.0 0.0 0.0 0.0
000100 00 00 00 00 00 00 00 00 00 00 00 00 00 00 00 00
       0.0 0.0 0.0 0.0
000110 00 00 00 00 00 00 00 00 00 00 00 00 00 00 00 00
       0.0 0.0 0.0 0.0
000120 00 00 00 00 00 00 00 00 00 00 00 00 00 00 00 00
       0.0 0.0 0.0 0.0
000130 00 00 00 00 00 00 00 00 00 00 00 00 00 00 00 00
       0.0 0.0 0.0 0.0
000140 00 00 00 00 00 00 00 00 00 00 00 00 00 00 00 00
       0.0 0.0 0.0 0.0
000150 00 00 00 00 00 00 00 00 00 00 00 00 00 00 00 00
       0.0 0.0 0.0 0.0
000160 00 00 00 00 00 00 00 00 00 00 00 00 00 00 00 00
       0.0 0.0 0.0 0.0
000170 00 00 00 00 00 00 00 00 00 00 00 00 00 00 00 00
       0.0 0.0 0.0 0.0
000180 00 00 00 00 00 00 00 00 00 00 00 00 00 00 00 00
       0.0 0.0 0.0 0.0
000190 00 00 00 00 00 00 00 00 00 00 00 00 00 00 00 00
       0.0 0.0 0.0 0.0
0001a0 00 00 00 00 00 00 00 00 00 00 00 00 00 00 00 00
       0.0 0.0 0.0 0.0
0001b0 00 00 00 00 00 00 00 00 00 00 00 00 00 00 00 00
       0.0 0.0 0.0 0.0
0001c0 00 00 00 00 00 00 00 00 00 00 00 00 00 00 00 00
       0.0 0.0 0.0 0.0
0001d0 00 00 00 00 00 00 00 00 00 00 00 00 00 00 00 00
       0.0 0.0 0.0 0.0
0001e0 00 00 00 00 00 00 00 00 00 00 00 00 00 00 00 00
       0.0 0.0 0.0 0.0
0001f0 00 00 00 00 00 00 00 00 00 00 00 00 00 00 00 00
       0.0 0.0 0.0 0.0

q_net.model.3.weight f4 [128, 128]
000000 12 c7 ad bd 47 cf 77 bd 48 b6 c1 bc a4 5f 06 bc
       -0.08485235 -0.06050041 -0.023646489 -0.008201513
000010 41 02 91 3d 20 f2 10 3d 78 09 50 bc 02 77 ae bd
       0.07080508 0.03538716 -0.01269757 -0.08518793
000020 bb cd aa bd 84 08 e6 bc 5a 12 11 3c 71 8a de bc
       -0.08340021 -0.028080232 0.008854473 -0.027165623
000030 0a e0 80 3d f7 27 e9 3c a8 b8 3f 3d 7a 52 bb bb
       0.06292732 0.02846144 0.04680696 -0.005716619
000040 88 13 80 bd 4c ec 74 bd 96 85 5b bd b4 d9 af bd
       -0.06253725 -0.059795663 -0.053594194 -0.085864455
000050 bd 4d e7 bb ec ec 2d bd dc 8e 6b bc 5c 69 0d 3d
       -0.0070588277 -0.042462274 -0.014377322 0.034524307
000060 db 0e 40 3d 65 a5 40 3d c1 43 97 3c b7 40 54 bd
       0.046889167 0.047032733 0.018464925 -0.05181953
000070 5a 40 2e 3d 67 c9 88 bd e2 aa 8a 3d 6c f2 90 bc
       0.04254184 -0.066790394 0.067708746 -0.01769372
000080 4e c6 9f 3c f1 91 f6 3c e7 cc ac bd 08 b5 04 bc
       0.019503739 0.030098887 -0.084375195 -0.008099802
000090 cb 8e 4a 3c 09 9f 32 bd 5c 98 b5 3c 4e 82 5f 3d
       0.012363146 -0.0436087 0.022167377 0.054567628
0000a0 7d 95 af 3d 51 dd 19 3d b2 24 89 bd 57 af 8e bd
       0.085734345 0.03756458 -0.06696452 -0.06967037
0000b0 e3 ee ac 3d 9d 37 25 bd 27 eb be bc 9f c3 4b bb
       0.084440015 -0.04033624 -0.023305489 -0.003109194
0000c0 ec 39 a1 bd 91 dc 85 3d 4f d4 39 bd 6d 8f 6d 3b
       -0.07872376 0.0653621 -0.04536849 0.0036248819
0000d0 d5 4b 53 3d e1 55 33 3c 55 93 b3 3c 58 83 35 3b
       0.05158599 0.010945768 0.02192084 0.0027696695
0000e0 78 2b a3 bc f4 cb 62 3d 51 4a 41 3d 58 1f d5 bc
       -0.019918188 0.055370286 0.047190014 -0.026015922
0000f0 f7 69 9e bd c0 48 94 3d 88 95 bd 3c 0a 79 9b bd
       -0.07735055 0.072404385 0.023142591 -0.07591446
000100 bf 37 0c bc 10 bd 31 3d e4 03 41 bd 74 ef 53 bd
       -0.008558213 0.043393195 -0.04712285 -0.051742032
000110 40 65 83 3d dd 5f 8b 3d 01 83 2e bd d7 b2 1e bd
       0.06415796 0.06805394 -0.042605404 -0.038744774
000120 e0 7f ad 3d 2f 81 54 3d 78 81 67 3d ab 38 37 3d
       0.08471656 0.05188101 0.056519955 0.044731777
000130 59 0d 67 bd 12 38 8a bd a6 ba 0a 3d 44 a6 18 3d
       -0.056409214 -0.06748976 0.033869408 0.03726794
000140 5f a3 ac 3d 74 14 32 bd 3b c1 19 bc e1 ed 0a bc
       0.08429598 -0.043476537 -0.009384449 -0.008479566
000150 4c db 45 3d 82 6b 38 3d 35 94 88 3d cd a7 ad bc
       0.04830484 0.045024402 0.06668893 -0.021198178
000160 10 ce 79 3d c5 d9 b2 3d df 5f ae bc ff e7 8f 3c
       0.060987532 0.087329425 -0.02128595 0.017566679
000170 03 ba 33 bd 81 e3 5c 3b 4e 30 8f bc ab 30 6e 3d
       -0.043878566 0.0033704939 -0.017479088 0.058151882
000180 9a de 8b bd de 43 91 3d 1c 85 f9 3c a6 53 f6 3c
       -0.06829567 0.07093023 0.03045898 0.030069184
000190 2d e1 79 bd 8e 52 74 3d 11 be 22 bc ef 17 41 bc
       -0.06100576 0.059649043 -0.009933011 -0.011785491
0001a0 3f fb 97 3c b4 22 6e 3d 97 07 31 bd 89 0b 11 3d
       0.01855242 0.058138564 -0.04322013 0.03541139
0001b0 82 ab aa bb 48 b6 6b bc 53 c6 2c 3d 20 a7 b1 bd
       -0.0052084336 -0.014386721 0.042181324 -0.08674455
0001c0 3c 41 9d 3d 70 81 d4 3b 39 32 23 bd 5e b8 59 bc
       0.07678458 0.0064851567 -0.039842818 -0.0132885855
0001d0 6d 3d 73 3d fb 2a 87 3d 13 be 6f 3d f2 37 81 bd
       0.059384752 0.06599995 0.05853088 -0.06309499
0001e0 4b e6 27 bd fa 5a 6f 3d 89 c2 56 3d fe c3 4c 3c
       -0.04099111 0.05843637 0.052431617 0.0124979
0001f0 d3 76 b3 bc ea 07 fc 3c 52 9f 65 bd 01 2c 0b bd
       -0.021907246 0.030765492 -0.056060143 -0.033977512
000200 64 f1 ac 3c 9e 4b 82 bc 7b 15 06 3d e2 21 18 bd
       0.021111198 -0.015905198 0.03273533 -0.03714169
000210 8a b2 9f 3d db 50 78 bd c9 44 5b 3d 8e 09 42 bd
       0.077977255 -0.060623985 0.053532396 -0.047372393
000220 d1 5d c3 3c ef f4 18 3d b9 28 29 3d eb 65 16 bc
       0.023848446 0.037342962 0.0412986 -0.009179573
000230 4e 8a ec bc 22 c8 0f 3c 52 06 8f 3c 52 61 06 bc
       -0.028874543 0.008775743 0.017459068 -0.008201914
000240 29 0a 64 bd d7 e1 68 bd ea 4c 75 bb df bf fc 3c
       -0.055673752 -0.056856003 -0.0037429878 0.03085321
000250 b2 85 7d 3d b8 df 7d 3d 62 88 8f 3d eb d3 f7 bc
       0.06189508 0.061980933 0.07008435 -0.030252418
000260 f7 c1 9c 3c 26 26 ea 3a 03 77 d7 3b fd 6b db 3c
       0.019135458 0.0017864152 0.0065754666 0.026784891
000270 72 74 ad 3d 00 69 b2 bd f4 0a 8d bd 5f 06 ea 3c
       0.08469476 -0.087114334 -0.06886855 0.028567491
000280 91 3f 9d 3d 99 d8 9b bc 60 65 56 3d c6 95 42 3d
       0.0767814 -0.01902418 0.052342772 0.047506116
000290 c3 55 bd bc 92 28 35 bd 3d 98 3d bd 31 d6 b4 3b
       -0.023112183 -0.044228144 -0.046287764 0.0055186977
0002a0 3b c7 56 bd bd e4 22 bc bb 9f 15 bd a3 e9 17 bd
       -0.052436095 -0.009942231 -0.036529284 -0.037088048
0002b0 05 1e 93 bd 4e bf 85 3c ce fd 66 bd 13 6d b0 bc
       -0.0718346 0.016326573 -0.05639439 -0.021536386
0002c0 c0 40 8e bd f3 b9 86 bd a0 5d f8 ba 9e a2 89 bd
       -0.06945944 -0.06578436 -0.0018948801 -0.0672047
0002d0 e2 d5 64 bd 1c ab a5 3d 6a fc 74 3d 07 0d 7e bd
       -0.055868037 0.08089277 0.059811033 -0.062024143
0002e0 0e 4b 7a 3c 84 d3 f8 bc 30 75 7f 3d ca 84 80 3d
       0.0152766835 -0.030374296 0.062367618 0.062753275
0002f0 e3 d8 9f bb 0a 22 8c 3d 4a 9d 92 bd 29 1c a8 3d
       -0.00487815 0.0684243 -0.07158907 0.08208496
000300 ea f9 55 bd b2 27 5d 3d 25 2b a6 3c 23 e3 02 3b
       -0.05224029 0.053992935 0.020284245 0.001997181
000310 e4 55 1e bd 26 50 41 3c 35 37 80 3d 52 92 8b 3d
       -0.03865613 0.011798894 0.0626053 0.06815018
000320 94 c7 9e bd fa 20 88 bd 72 36 b1 bc 53 66 19 bc
       -0.0775291 -0.06646915 -0.021632407 -0.009362775
000330 ea 52 62 bb ff df 0b bd e2 59 9f bd e6 23 3b ba
       -0.0034534284 -0.034149166 -0.07780816 -0.0007138833
000340 5e 68 3d bd f6 c2 ae 3d 0e 09 12 bd 59 ee fb bc
       -0.04624211 0.085332796 -0.035653166 -0.030753301
000350 ff 4c 11 3d 4f 20 af bd e2 08 c6 3c 1f 28 6b bd
       0.03547382 -0.08551084 0.024174158 -0.05741131
000360 e9 8e 05 3c 8e 42 88 3d 33 fb b0 3d c2 4f 2d bd
       0.008151748 0.06653319 0.086416624 -0.04231239
000370 62 b8 8b 3d 69 2d 93 3d 2d 53 94 3d c3 e7 a7 3d
       0.068222776 0.07186396 0.07242427 0.08198502
000380 8d 23 75 bc 26 47 8f 3d d4 b1 76 3b 2b ea 8a bd
       -0.014962089 0.06995992 0.0037642615 -0.06782945
000390 80 4f be bc 35 eb aa 3d 97 93 f3 3b 3e 83 d9 39
       -0.023231268 0.083456434 0.0074333656 0.00041487248
0003a0 c0 a1 31 bd 83 86 7b bd 3f b4 09 3d d5 5c 91 3d
       -0.043367147 -0.061407577 0.03361916 0.070977844
0003b0 75 b1 fd bc 2c ba 34 3b d7 42 ab bd 5b 32 4f 3d
       -0.030968407 0.0027576787 -0.08362358 0.050585132
0003c0 a1 34 ae 3d 93 ec 9e 3d 8c 9c c8 bc ed 72 ce bb
       0.08506132 0.07759967 -0.02448871 -0.0063003213
0003d0 ef 92 a5 bd 07 a0 1e 3d 92 f6 15 bd 11 de 58 bd
       -0.08084666 0.038726833 -0.0366121 -0.052946154
0003e0 61 05 4c 3d 96 ed 01 bd fd 64 85 3d f4 a8 86 3d
       0.049809817 -0.03172072 0.065134026 0.06575194
0003f0 4e 5c a7 ba b7 d4 09 3c 5d 35 76 3d 2c 2c 5b bc
       -0.0012768598 0.008412532 0.060109485 -0.013377231

q_net.model.3.bias f4 [128]
000000 8a 03 c5 3c 0d 5d 59 bd 10 05 b0 3d 82 91 7d 3d
       0.02404954 -0.053067256 0.085947156 0.061906345
000010 60 42 79 3d e4 88 59 3d 2d 67 62 3d c2 6e 36 bd
       0.060854316 0.053109065 0.055274177 -0.04453922
000020 8b 73 8a bd fc b3 a1 bd 95 11 3f bb b9 12 53 3d
       -0.06760319 -0.078956574 -0.0029154767 0.051531527
000030 99 89 39 3b e6 00 47 bd 53 99 58 3d fa 8e 89 bb
       0.0028310774 -0.04858484 0.052880596 -0.0041979523
000040 b6 e3 4e bc 2c 48 45 bc 99 cd 98 bd 74 85 2f bd
       -0.012627533 -0.012041133 -0.0746109 -0.04285188
000050 73 0a 3c 3d b5 7d 84 bd 69 bb a7 bc 36 32 5e bd
       0.045908403 -0.06469289 -0.020475106 -0.054247104
000060 f4 1e 97 3d 91 d1 20 bd 1d 60 76 bd 60 1b 64 3d
       0.07378951 -0.039262358 -0.060150255 0.05569017
000070 08 3d 92 3d 2a 8c 7e 3d 10 86 ae bd 4a b0 74 3b
       0.07140547 0.06214539 -0.08521664 0.0037336522
000080 98 64 07 bd 3f 27 aa bd c0 33 61 bd fc 36 9a bc
       -0.033054918 -0.08308267 -0.054980993 -0.018825047
000090 e2 f1 8a 3d 33 c8 88 bd 43 6f 9f 3d 2e c1 38 3c
       0.06784417 -0.0667881 0.07784893 0.011276526
0000a0 72 b4 ab 3d f5 54 0c 3c bc 98 9c 3d 91 38 97 bd
       0.083840266 0.008565177 0.07646319 -0.07383836
0000b0 88 14 41 3c 61 fc 1c 3d b5 81 51 bd 83 8f 08 3d
       0.01178468 0.038326625 -0.05114909 0.03333999
0000c0 b7 67 61 bd eb 6e a5 bd b3 4d 3e 3d f4 89 a8 3d
       -0.05503055 -0.080777965 0.04646082 0.082294375
0000d0 39 27 4a bd 14 c1 f1 3b 64 48 a4 bc da ea 23 bd
       -0.049353812 0.007377753 -0.02005405 -0.040018894
0000e0 2f 51 07 3d c3 33 a5 bd 5d 4a 98 bd f0 2e c5 b9
       0.033036407 -0.080665134 -0.07436059 -0.0003760974
0000f0 1f 17 93 bd 48 7a 3a 3d 2a 55 67 bc 4b bd 4a 3d
       -0.071821444 0.045526773 -0.014119426 0.04949693
000100 c8 c5 95 3d 8b 87 ca 3b b7 5c b6 bc e8 08 d6 3b
       0.073131144 0.0061807088 -0.022261007 0.0065318234
000110 ef 15 98 3d 7f 2f 86 bd e5 c5 90 3c 8f 39 cb 3c
       0.074260585 -0.06552028 0.017672488 0.02480772
000120 98 81 f5 3c 70 a8 52 bd 0a 4c c9 bc 49 fc 43 bd
       0.029969022 -0.051430166 -0.024572391 -0.04784802
000130 e3 c9 84 3d b3 c0 00 bd 7d 85 9d 3d 81 1d b4 bd
       0.06483819 -0.031433772 0.076914765 -0.0879469
000140 f0 d9 10 3d dc 8b 91 3d c2 69 50 bd b4 8c a5 3d
       0.03536409 0.07106754 -0.05088211 0.080834776
000150 9b ae c7 bc 58 16 19 bd 49 be 23 bd df 82 65 3c
       -0.02437525 -0.037374824 -0.039976392 0.014008253
000160 0f e6 f3 bb fa 6c 45 bd ba 24 13 bc a0 4f 9f 3d
       -0.0074431966 -0.04819963 -0.008980924 0.07778859
000170 96 37 e9 bb c3 2f e1 bb 8a 59 99 3d bf 9d b2 bd
       -0.007117222 -0.0068721487 0.07487781 -0.08721494
000180 b8 89 85 3d 32 62 a7 3d b6 7b 09 3b cd 27 9e bd
       0.065204084 0.08173026 0.0020978278 -0.07722435
000190 b1 d7 85 bd 5f 51 9e bd c8 07 94 bd 3c 58 63 3d
       -0.065352805 -0.07730364 -0.07228047 0.05550407
0001a0 48 69 6e 3d a8 d2 34 bd 76 3c b2 bd 25 c5 8c bd
       0.058205873 -0.04414621 -0.08702938 -0.0687354
0001b0 f1 69 91 bd 4a 75 9b 3d 27 5b 94 bd 4a da 8b 3d
       -0.07100285 0.075907305 -0.072439484 0.06828745
0001c0 fa d2 f5 3c 9d 16 9a 3d 61 50 78 bd b9 6f 2f 3d
       0.030007828 0.075238444 -0.06062353 0.042831156
0001d0 4b 05 8d 3c 4c fb 5b bd e1 8c c4 bc 09 0f 9d bd
       0.017214438 -0.053706452 -0.023992958 -0.07668883
0001e0 e5 86 3b 3b 35 1d 5e 3d b8 53 f5 bc 2a ab f4 bb
       0.002861434 0.054227073 -0.029947147 -0.0074666934
0001f0 96 43 fa bb ac da df bb 88 28 23 3c b7 d7 82 bc
       -0.0076374514 -0.0068314876 0.009958394 -0.015972001

q_net.model.4.weight f4 [128]
000000 00 00 80 3f 00 00 80 3f 00 00 80 3f 00 00 80 3f
       1.0 1.0 1.0 1.0
000010 00 00 80 3f 00 00 80 3f 00 00 80 3f 00 00 80 3f
       1.0 1.0 1.0 1.0
000020 00 00 80 3f 00 00 80 3f 00 00 80 3f 00 00 80 3f
       1.0 1.0 1.0 1.0
000030 00 00 80 3f 00 00 80 3f 00 00 80 3f 00 00 80 3f
       1.0 1.0 1.0 1.0
000040 00 00 80 3f 00 00 80 3f 00 00 80 3f 00 00 80 3f
       1.0 1.0 1.0 1.0
000050 00 00 80 3f 00 00 80 3f 00 00 80 3f 00 00 80 3f
       1.0 1.0 1.0 1.0
000060 00 00 80 3f 00 00 80 3f 00 00 80 3f 00 00 80 3f
       1.0 1.0 1.0 1.0
000070 00 00 80 3f 00 00 80 3f 00 00 80 3f 00 00 80 3f
       1.0 1.0 1.0 1.0
000080 00 00 80 3f 00 00 80 3f 00 00 80 3f 00 00 80 3f
       1.0 1.0 1.0 1.0
000090 00 00 80 3f 00 00 80 3f 00 00 80 3f 00 00 80 3f
       1.0 1.0 1.0 1.0
0000a0 00 00 80 3f 00 00 80 3f 00 00 80 3f 00 00 80 3f
       1.0 1.0 1.0 1.0
0000b0 00 00 80 3f 00 00 80 3f 00 00 80 3f 00 00 80 3f
       1.0 1.0 1.0 1.0
0000c0 00 00 80 3f 00 00 80 3f 00 00 80 3f 00 00 80 3f
       1.0 1.0 1.0 1.0
0000d0 00 00 80 3f 00 00 80 3f 00 00 80 3f 00 00 80 3f
       1.0 1.0 1.0 1.0
0000e0 00 00 80 3f 00 00 80 3f 00 00 80 3f 00 00 80 3f
       1.0 1.0 1.0 1.0
0000f0 00 00 80 3f 00 00 80 3f 00 00 80 3f 00 00 80 3f
       1.0 1.0 1.0 1.0
000100 00 00 80 3f 00 00 80 3f 00 00 80 3f 00 00 80 3f
       1.0 1.0 1.0 1.0
000110 00 00 80 3f 00 00 80 3f 00 00 80 3f 00 00 80 3f
       1.0 1.0 1.0 1.0
000120 00 00 80 3f 00 00 80 3f 00 00 80 3f 00 00 80 3f
       1.0 1.0 1.0 1.0
000130 00 00 80 3f 00 00 80 3f 00 00 80 3f 00 00 80 3f
       1.0 1.0 1.0 1.0
000140 00 00 80 3f 00 00 80 3f 00 00 80 3f 00 00 80 3f
       1.0 1.0 1.0 1.0
000150 00 00 80 3f 00 00 80 3f 00 00 80 3f 00 00 80 3f
       1.0 1.0 1.0 1.0
000160 00 00 80 3f 00 00 80 3f 00 00 80 3f 00 00 80 3f
       1.0 1.0 1.0 1.0
000170 00 00 80 3f 00 00 80 3f 00 00 80 3f 00 00 80 3f
       1.0 1.0 1.0 1.0
000180 00 00 80 3f 00 00 80 3f 00 00 80 3f 00 00 80 3f
       1.0 1.0 1.0 1.0
000190 00 00 80 3f 00 00 80 3f 00 00 80 3f 00 00 80 3f
       1.0 1.0 1.0 1.0
0001a0 00 00 80 3f 00 00 80 3f 00 00 80 3f 00 00 80 3f
       1.0 1.0 1.0 1.0
0001b0 00 00 80 3f 00 00 80 3f 00 00 80 3f 00 00 80 3f
       1.0 1.0 1.0 1.0
0001c0 00 00 80 3f 00 00 80 3f 00 00 80 3f 00 00 80 3f
       1.0 1.0 1.0 1.0
0001d0 00 00 80 3f 00 00 80 3f 00 00 80 3f 00 00 80 3f
       1.0 1.0 1.0 1.0
0001e0 00 00 80 3f 00 00 80 3f 00 00 80 3f 00 00 80 3f
       1.0 1.0 1.0 1.0
0001f0 00 00 80 3f 00 00 80 3f 00 00 80 3f 00 00 80 3f
       1.0 1.0 1.0 1.0

q_net.model.4.bias f4 [128]
000000 00 00 00 00 00 00 00 00 00 00 00 00 00 00 00 00
       0.0 0.0 0.0 0.0
000010 00 00 00 00 00 00 00 00 00 00 00 00 00 00 00 00
       0.0 0.0 0.0 0.0
000020 00 00 00 00 00 00 00 00 00 00 00 00 00 00 00 00
       0.0 0.0 0.0 0.0
000030 00 00 00 00 00 00 00 00 00 00 00 00 00 00 00 00
       0.0 0.0 0.0 0.0
000040 00 00 00 00 00 00 00 00 00 00 00 00 00 00 00 00
       0.0 0.0 0.0 0.0
000050 00 00 00 00 00 00 00 00 00 00 00 00 00 00 00 00
       0.0 0.0 0.0 0.0
000060 00 00 00 00 00 00 00 00 00 00 00 00 00 00 00 00
       0.0 0.0 0.0 0.0
000070 00 00 00 00 00 00 00 00 00 00 00 00 00 00 00 00
       0.0 0.0 0.0 0.0
000080 00 00 00 00 00 00 00 00 00 00 00 00 00 00 00 00
       0.0 0.0 0.0 0.0
000090 00 00 00 00 00 00 00 00 00 00 00 00 00 00 00 00
       0.0 0.0 0.0 0.0
0000a0 00 00 00 00 00 00 00 00 00 00 00 00 00 00 00 00
       0.0 0.0 0.0 0.0
0000b0 00 00 00 00 00 00 00 00 00 00 00 00 00 00 00 00
       0.0 0.0 0.0 0.0
0000c0 00 00 00 00 00 00 00 00 00 00 00 00 00 00 00 00
       0.0 0.0 0.0 0.0
0000d0 00 00 00 00 00 00 00 00 00 00 00 00 00 00 00 00
       0.0 0.0 0.0 0.0
0000e0 00 00 00 00 00 00 00 00 00 00 00 00 00 00 00 00
       0.0 0.0 0.0 0.0
0000f0 00 00 00 00 00 00 00 00 00 00 00 00 00 00 00 00
       0.0 0.0 0.0 0.0
000100 00 00 00 00 00 00 00 00 00 00 00 00 00 00 00 00
       0.0 0.0 0.0 0.0
000110 00 00 00 00 00 00 00 00 00 00 00 00 00 00 00 00
       0.0 0.0 0.0 0.0
000120 00 00 00 00 00 00 00 00 00 00 00 00 00 00 00 00
       0.0 0.0 0.0 0.0
000130 00 00 00 00 00 00 00 00 00 00 00 00 00 00 00 00
       0.0 0.0 0.0 0.0
000140 00 00 00 00 00 00 00 00 00 00 00 00 00 00 00 00
       0.0 0.0 0.0 0.0
000150 00 00 00 00 00 00 00 00 00 00 00 00 00 00 00 00
       0.0 0.0 0.0 0.0
000160 00 00 00 00 00 00 00 00 00 00 00 00 00 00 00 00
       0.0 0.0 0.0 0.0
000170 00 00 00 00 00 00 00 00 00 00 00 00 00 00 00 00
       0.0 0.0 0.0 0.0
000180 00 00 00 00 00 00 00 00 00 00 00 00 00 00 00 00
       0.0 0.0 0.0 0.0
000190 00 00 00 00 00 00 00 00 00 00 00 00 00 00 00 00
       0.0 0.0 0.0 0.0
0001a0 00 00 00 00 00 00 00 00 00 00 00 00 00 00 00 00
       0.0 0.0 0.0 0.0
0001b0 00 00 00 00 00 00 00 00 00 00 00 00 00 00 00 00
       0.0 0.0 0.0 0.0
0001c0 00 00 00 00 00 00 00 00 00 00 00 00 00 00 00 00
       0.0 0.0 0.0 0.0
0001d0 00 00 00 00 00 00 00 00 00 00 00 00 00 00 00 00
       0.0 0.0 0.0 0.0
0001e0 00 00 00 00 00 00 00 00 00 00 00 00 00 00 00 00
       0.0 0.0 0.0 0.0
0001f0 00 00 00 00 00 00 00 00 00 00 00 00 00 00 00 00
       0.0 0.0 0.0 0.0

q_net.model.6.weight f4 [64, 128]
000000 fe d2 55 bc e0 cb 2d 3d 13 43 87 3d fa 64 49 bd
       -0.013050793 0.04243076 0.0660459 -0.049168564
000010 ad ac 6a bb e0 dc 9d bd 30 4e a5 bd fd ce c9 ba
       -0.003580849 -0.07708144 -0.08071554 -0.001539677
000020 23 a4 88 3d 7d 68 ae bb f7 c1 7d bd a7 17 53 3d
       0.066719316 -0.0053225146 -0.061952557 0.05153623
000030 7d c0 4a bd 5e de ac bd 97 cf af bc d5 b7 49 bb
       -0.049499977 -0.08440851 -0.021461291 -0.0030779738
000040 e3 53 a1 3d 67 e9 2a 3d d1 61 19 3c 40 95 97 bd
       0.07877328 0.041726496 0.0093617 -0.07401514
000050 45 33 89 bd a3 ad 6e 3d 57 15 1d 3b a5 b5 12 bd
       -0.06699232 0.05827106 0.0023969018 -0.03581776
000060 3a 2c 92 3d 0e 1e 28 bb b8 97 33 3d 53 2c 86 3d
       0.07137342 -0.002565268 0.043845862 0.06551423
000070 e9 05 b3 bd c5 11 d6 3c 19 82 e9 3b 40 3e 17 bd
       -0.08741362 0.02613152 0.0071261046 -0.0369246
000080 b8 3f 6b 3d ec 62 8c bc 40 7f 8b bd 3f f3 8f bc
       0.057433814 -0.017137013 -0.068113804 -0.017572043
000090 f8 fc 13 bc b2 fe 90 3d bc ca 73 bd 80 3a ee 3c
       -0.00903248 0.07079829 -0.059519514 0.02908063
0000a0 c3 93 7d bd 8c cf 33 3c 52 c3 58 3d cc 3f a8 bd
       -0.061908495 0.010974776 0.052920647 -0.08215293
0000b0 5d 52 d1 bc d9 07 85 bd 4d 64 63 bd 5c 5f b7 bc
       -0.02555197 -0.064956374 -0.055515576 -0.022384338
0000c0 44 e2 32 bc a1 31 ca 3b 25 f0 8b 3d 97 ea 23 bc
       -0.010918204 0.006170467 0.06832913 -0.010004661
0000d0 79 7e a9 bd bf 28 ad bd b1 bc 23 bd fd d3 cc bc
       -0.08276076 -0.08455037 -0.039974872 -0.025003428
0000e0 cf f6 51 3c 11 af 86 bd d4 ea 78 bd d3 56 8a 3b
       0.012815191 -0.0657636 -0.060770825 0.004221776
0000f0 a2 01 b2 bd ca 86 a5 3d 47 76 63 bd 1a 4d e2 3c
       -0.08691718 0.080823496 -0.05553272 0.027624656
000100 f9 6d 7d 3d 05 51 4a 3d 39 6e 98 bd b2 39 a1 3d
       0.061872456 0.049393672 -0.07442898 0.07872333
000110 8e 38 c0 3c 9b 37 98 3d f0 c2 03 bd 5d 93 a9 3d
       0.023464467 0.07432481 -0.03216833 0.082800604
000120 cb 04 ae bd 38 03 85 bd c2 7d c5 3c a4 ea 92 bd
       -0.08497008 -0.064947546 0.024107818 -0.071736604
000130 67 e6 3e bd ed a0 8e 3d 9a c5 8a bd 3f 11 48 bc
       -0.046606448 0.06964288 -0.06775971 -0.012211143
000140 35 de 55 3d 06 04 a7 bd 7f ca 57 bc f3 a4 94 bd
       0.052213866 -0.08155064 -0.013170837 -0.07258024
000150 15 63 20 3d 21 e0 d7 bc aa 6a 65 bd a1 84 52 bc
       0.039156992 -0.02635199 -0.056009926 -0.012849004
000160 7a 2b a4 bd a7 dd a6 3d 77 7c 84 3c 7b 5e 04 bd
       -0.08016105 0.081477456 0.01617263 -0.032316666
000170 85 62 ee bc 1c 96 ac bc aa 72 54 3d 9d 2c 9a 3d
       -0.029099712 -0.021067671 0.051867165 0.075280406
000180 31 7c a4 bd ea d9 21 3d 0a 63 63 3d 15 35 6b bd
       -0.080315 0.03951446 0.055514373 -0.05742367
000190 d7 1e 8c bd a7 be 2f 3d 03 c1 45 bd e7 43 05 3d
       -0.0684182 0.04290643 -0.048279773 0.03253546
0001a0 85 c3 04 3d 23 2a 5d 3d 56 99 98 3d 36 69 8e bc
       0.032413024 0.053995263 0.074511215 -0.017384153
0001b0 46 74 55 bd cb ba 97 bd 2b f1 2a 3d 84 f5 aa 3d
       -0.05211284 -0.07408675 0.041733902 0.0834761
0001c0 a1 80 f4 3c 54 bb 95 3d 0b 6c a6 bd b8 89 8d bc
       0.029846491 0.07311121 -0.08126076 -0.017277583
0001d0 a0 73 2a bd 44 a0 3e 3b 02 78 74 bd e6 cc 5e 3d
       -0.041614175 0.0029087225 -0.05968476 0.054394625
0001e0 6b 31 0d bd 0e 5f 8b 3d d6 e0 1c b9 dc aa de 3c
       -0.034470957 0.068052396 -0.00014961077 0.027181081
0001f0 3e 40 b8 3c 00 65 e4 bc 31 a0 88 bd 8a 3a 58 bd
       0.02249157 -0.027880192 -0.06671179 -0.052790202
000200 c2 d0 3a bd 84 67 aa bd 92 06 c4 3b 6f 8b b4 3d
       -0.045609243 -0.08320525 0.0059822286 0.08815657
000210 63 a2 29 bc 8a 49 8c bd 75 78 91 3d f3 26 c7 3c
       -0.010353657 -0.06849964 0.071030535 0.024310565
000220 c1 50 cc 3c af a9 28 3d 08 3b 8c 3d 70 6e 9a 3d
       0.02494085 0.041177448 0.06847197 0.075405955
000230 b5 d1 14 3d 76 89 3c 3d f4 a2 09 bb 0c a6 44 bd
       0.036332805 0.04602953 -0.0021001669 -0.048009917
000240 43 6e 84 3d 9f 87 5d bd f0 30 3d bd 56 70 92 bd
       0.06466343 -0.054084416 -0.04618925 -0.07150333
000250 14 88 a5 bd 0b 2d 09 ba 00 72 37 bd 54 27 a5 ba
       -0.080825955 -0.0005232847 -0.044786453 -0.0012600222
000260 c4 5b 14 bb eb b8 b2 bd 9d 0d 5f bd 88 78 2a 3d
       -0.0022637704 -0.087266766 -0.054456342 0.041618854
000270 b1 c6 5c bb dc 37 5f 3c c9 47 80 3c 37 da 3e 3d
       -0.0033687765 0.013624158 0.01565923 0.046594825
000280 60 35 2f bb 76 a3 82 bd 60 d4 0f 3d 89 21 1d 3d
       -0.0026734695 -0.06378834 0.035114646 0.03836206
000290 a6 1b 73 3d c0 aa 0a bc 5b 41 dc bc fb 12 59 3d
       0.05935254 -0.008463562 -0.026886633 0.052996617
0002a0 04 4d 7d 3d d1 4b a3 3d ca f8 b4 3d 8e 6d 85 3d
       0.061841026 0.07973445 0.08836515 0.065150365
0002b0 6f 29 d6 3c b6 bd e6 3c 4f f3 20 3d c6 32 36 bd
       0.026142804 0.028166633 0.039294537 -0.044482015
0002c0 4e 2d ef bc a5 06 9d bc c7 cf 68 3d 9e 08 22 bd
       -0.029196408 -0.019168207 0.056838777 -0.039559
0002d0 55 e7 88 3d e1 f0 22 3d 24 22 3b 3d c4 98 1a bb
       0.06684748 0.0397805 0.045686856 -0.002358959
0002e0 f7 f7 4e 3d fc e8 36 3d f0 37 42 3d 12 5e 8c bd
       0.050529446 0.044655785 0.047416627 -0.0685388
0002f0 f6 69 75 bd dd c8 91 bd d4 40 cf 3c 71 bd 83 3d
       -0.059915505 -0.0711839 0.025299467 0.064326175
000300 64 fb 43 3d a5 db 9c 3d 65 ec 20 bc 2e b5 a0 3d
       0.047847167 0.07659081 -0.009821986 0.07847057
000310 df b2 36 bb 10 c5 20 3c 45 ab a9 bc 42 eb 15 bd
       -0.0027877612 0.009812608 -0.02071155 -0.036601312
000320 32 87 5a 3c 91 bc 39 bd 35 5d df 3c 5f 45 7d bd
       0.013337897 -0.045345847 0.027266124 -0.061833736
000330 51 13 52 3c dc 8c ae 3c c3 a2 9e bd d4 cf 5e bc
       0.012821988 0.021307401 -0.07745888 -0.013599355
000340 01 71 a4 3c fb cd a6 bc 37 dd a6 bd fb 69 3d 3d
       0.020073416 -0.020361891 -0.08147662 0.04624365
000350 fb 28 e5 bc f6 a6 93 3d db 38 9e 3d 3a ff 8e bc
       -0.027973643 0.0720958 0.07725688 -0.017455686
000360 9e 23 ab 3d 1e 3a 90 3d ac 32 9c 3d 9e bf 9c 3d
       0.08356403 0.07042335 0.076268524 0.076537356
000370 64 d3 03 3d 94 d3 b0 bd 67 0f 1e 3d 03 e0 6d 3d
       0.03218402 -0.08634105 0.038588908 0.058074962
000380 4e c8 62 bd 57 a4 9e 3d 24 49 4a 3d 2e 14 10 3d
       -0.055366807 0.07746189 0.04938616 0.035175495
000390 3f 7a 1b 3d 5a 97 66 bc b6 d9 31 3d 08 e7 8e bc
       0.03795838 -0.014074171 0.043420516 -0.017444149
0003a0 0f e4 e4 3c 1d cc 08 3d 99 80 f1 bc 91 99 6f bd
       0.027940778 0.033397783 -0.029480265 -0.05849606
0003b0 7e cf 0b 3c 3e ca 48 3b 7e fc 24 bd 39 88 cf bc
       0.008533357 0.0030638124 -0.040279858 -0.02533351
0003c0 34 e2 9f 3d 76 23 53 bc 32 db 7e 3d 09 e0 2e 3c
       0.07806817 -0.0128868725 0.06222076 0.010673531
0003d0 52 c2 5d 3d b8 45 bd 3c 7a 12 41 bd 46 76 2d bd
       0.054140396 0.023104534 -0.04713676 -0.042349122
0003e0 fe 9a 9f bc e5 4a 1c 3d 4f 5f fc 3c d2 7a 92 3c
       -0.019483086 0.038157362 0.030807165 0.01788083
0003f0 8a 82 96 3d 8e 03 07 3d 13 3b 05 3d 8f 88 87 3c
       0.07349117 0.032962374 0.03252704 0.016544608

q_net.model.6.bias f4 [64]
000000 8c cd f8 bc 87 80 c8 3b 75 9e b3 bd 1b c8 9d bc
       -0.03037145 0.0061188373 -0.08770458 -0.019260457
000010 3d 5c bc 3c 0f df f2 bc d0 0c 2d 3d f4 2a 79 3c
       0.022993201 -0.029647378 0.042248547 0.015207995
000020 87 cf 08 bd 8e ea 58 bd 94 81 b3 bd 78 0f bd bc
       -0.03340104 -0.052958064 -0.087649494 -0.023078665
000030 49 f8 9b bc 6f 0c 8f 3d 03 90 b4 bc a0 d3 2a bd
       -0.01903929 0.069847934 -0.022041326 -0.041705728
000040 3e ad 13 bc 49 f3 cb bc d3 12 aa bd 8b 9e 60 3c
       -0.009013472 -0.02489628 -0.08304372 0.013709675
000050 4e 4f 7d 3c 5c cf 28 bb 05 2d 46 3d 68 13 27 3d
       0.015460802 -0.0025758361 0.048382778 0.04078999
000060 a5 30 68 bd c4 c0 00 bd d9 2b 9b bd b2 b8 84 bd
       -0.056687016 -0.031433836 -0.07576723 -0.0648054
000070 06 93 22 bc 3d 40 ab 3d 95 6b 04 bd 32 57 20 bb
       -0.009922748 0.08361862 -0.03232916 -0.0024466035
000080 0c 5e eb bc 96 58 85 bd 7c 8d 29 bd 3e a7 26 3d
       -0.028731368 -0.06511037 -0.041394696 0.04068684
000090 07 b5 80 3d c1 2a 83 bd 13 7b 34 3d db 48 86 bc
       0.06284528 -0.06404639 0.044062685 -0.016392162
0000a0 3b 04 9a 3d d2 c6 15 bc 76 0e ac bd 72 3b ac 3d
       0.07520338 -0.009141641 -0.08401196 0.08409776
0000b0 81 3f 42 bd 36 97 24 3c 72 05 a2 bc 9c 09 fd bc
       -0.047423843 0.010045817 -0.019777987 -0.030888371
0000c0 51 e6 8b 3d 04 65 70 3d dc a9 b5 3c bf 8b ad bd
       0.06831039 0.058690086 0.022175722 -0.0847392
0000d0 45 a5 a7 3c e5 28 6d bd 2e 2e 3e bd 29 ad 18 bd
       0.020464549 -0.05790033 -0.04643076 -0.037274513
0000e0 33 89 2b 3d 57 cd e5 3b 99 5d a7 bd 11 3e 23 bd
       0.04187889 0.007013004 -0.08172149 -0.039854113
0000f0 57 d6 d7 bc 73 72 9e 3d d8 35 9d bc 07 6e 96 bd
       -0.026347322 0.07736673 -0.019190714 -0.07345205

q_net.model.7.weight f4 [64]
000000 00 00 80 3f 00 00 80 3f 00 00 80 3f 00 00 80 3f
       1.0 1.0 1.0 1.0
000010 00 00 80 3f 00 00 80 3f 00 00 80 3f 00 00 80 3f
       1.0 1.0 1.0 1.0
000020 00 00 80 3f 00 00 80 3f 00 00 80 3f 00 00 80 3f
       1.0 1.0 1.0 1.0
000030 00 00 80 3f 00 00 80 3f 00 00 80 3f 00 00 80 3f
       1.0 1.0 1.0 1.0
000040 00 00 80 3f 00 00 80 3f 00 00 80 3f 00 00 80 3f
       1.0 1.0 1.0 1.0
000050 00 00 80 3f 00 00 80 3f 00 00 80 3f 00 00 80 3f
       1.0 1.0 1.0 1.0
000060 00 00 80 3f 00 00 80 3f 00 00 80 3f 00 00 80 3f
       1.0 1.0 1.0 1.0
000070 00 00 80 3f 00 00 80 3f 00 00 80 3f 00 00 80 3f
       1.0 1.0 1.0 1.0
000080 00 00 80 3f 00 00 80 3f 00 00 80 3f 00 00 80 3f
       1.0 1.0 1.0 1.0
000090 00 00 80 3f 00 00 80 3f 00 00 80 3f 00 00 80 3f
       1.0 1.0 1.0 1.0
0000a0 00 00 80 3f 00 00 80 3f 00 00 80 3f 00 00 80 3f
       1.0 1.0 1.0 1.0
0000b0 00 00 80 3f 00 00 80 3f 00 00 80 3f 00 00 80 3f
       1.0 1.0 1.0 1.0
0000c0 00 00 80 3f 00 00 80 3f 00 00 80 3f 00 00 80 3f
       1.0 1.0 1.0 1.0
0000d0 00 00 80 3f 00 00 80 3f 00 00 80 3f 00 00 80 3f
       1.0 1.0 1.0 1.0
0000e0 00 00 80 3f 00 00 80 3f 00 00 80 3f 00 00 80 3f
       1.0 1.0 1.0 1.0
0000f0 00 00 80 3f 00 00 80 3f 00 00 80 3f 00 00 80 3f
       1.0 1.0 1.0 1.0

q_net.model.7.bias f4 [64]
000000 00 00 00 00 00 00 00 00 00 00 00 00 00 00 00 00
       0.0 0.0 0.0 0.0
000010 00 00 00 00 00 00 00 00 00 00 00 00 00 00 00 00
       0.0 0.0 0.0 0.0
000020 00 00 00 00 00 00 00 00 00 00 00 00 00 00 00 00
       0.0 0.0 0.0 0.0
000030 00 00 00 00 00 00 00 00 00 00 00 00 00 00 00 00
       0.0 0.0 0.0 0.0
000040 00 00 00 00 00 00 00 00 00 00 00 00 00 00 00 00
       0.0 0.0 0.0 0.0
000050 00 00 00 00 00 00 00 00 00 00 00 00 00 00 00 00
       0.0 0.0 0.0 0.0
000060 00 00 00 00 00 00 00 00 00 00 00 00 00 00 00 00
       0.0 0.0 0.0 0.0
000070 00 00 00 00 00 00 00 00 00 00 00 00 00 00 00 00
       0.0 0.0 0.0 0.0
000080 00 00 00 00 00 00 00 00 00 00 00 00 00 00 00 00
       0.0 0.0 0.0 0.0
000090 00 00 00 00 00 00 00 00 00 00 00 00 00 00 00 00
       0.0 0.0 0.0 0.0
0000a0 00 00 00 00 00 00 00 00 00 00 00 00 00 00 00 00
       0.0 0.0 0.0 0.0
0000b0 00 00 00 00 00 00 00 00 00 00 00 00 00 00 00 00
       0.0 0.0 0.0 0.0
0000c0 00 00 00 00 00 00 00 00 00 00 00 00 00 00 00 00
       0.0 0.0 0.0 0.0
0000d0 00 00 00 00 00 00 00 00 00 00 00 00 00 00 00 00
       0.0 0.0 0.0 0.0
0000e0 00 00 00 00 00 00 00 00 00 00 00 00 00 00 00 00
       0.0 0.0 0.0 0.0
0000f0 00 00 00 00 00 00 00 00 00 00 00 00 00 00 00 00
       0.0 0.0 0.0 0.0

q_net.model.9.weight f4 [1, 64]
000000 90 f4 11 bd ac 91 30 bd 90 e9 47 3c dc d9 4d 3d
       -0.035633624 -0.043107674 0.012201682 0.050256595
000010 3a 15 b0 bd 80 fc 9c 3a e0 42 4b bc d8 b8 13 bd
       -0.08597799 0.0011977106 -0.012406081 -0.036064953
000020 68 6d a2 3d cc 35 47 bd 9a 4c e1 bd 00 94 0b bc
       0.07931024 -0.04863529 -0.11000939 -0.008519173
000030 4c 22 85 bd f0 31 6d bd a4 bb 72 3d ee 81 d2 3d
       -0.06500682 -0.057908952 0.05926098 0.10278688
000040 40 2a b3 bb a0 a4 96 3d e4 fb 1a bd 8e 73 91 3d
       -0.005467683 0.073556185 -0.037837878 0.071021184
000050 78 c8 d5 bc 84 c6 01 bd c0 47 8d bb da 72 da bd
       -0.026096568 -0.03168346 -0.004311532 -0.106664374
000060 20 a7 9f bd a4 29 9c bd ae ae d0 3d 9c 81 4f bd
       -0.077955484 -0.0762513 0.101895675 -0.050660715
000070 f8 31 49 bd f0 81 ae 3d 30 59 4f bd e0 81 8c bc
       -0.04911992 0.08520877 -0.050622165 -0.017151773
000080 60 12 b8 bd a0 ae 8b 3d 38 a9 8f 3d 56 db cb bd
       -0.0898788 0.068204165 0.07014698 -0.099539444
000090 04 d2 30 3d 40 8a 05 3b dc 4d 0c bd 0e 82 98 3d
       0.043169037 0.0020376593 -0.03425394 0.07446681
0000a0 aa e9 db 3d 22 cb 9a 3d 10 f3 9f bd 00 3b 96 bc
       0.10737927 0.07558276 -0.07810032 -0.01833868
0000b0 2c d0 ac bd ac 6e 78 3d 40 4c 05 3c 40 7e b3 3d
       -0.08438143 0.06065242 0.008135855 0.08764315
0000c0 68 22 49 3d 50 16 a6 bd e4 43 05 bd d0 3d 2f bd
       0.049105078 -0.081097245 -0.03253545 -0.04278356
0000d0 d0 13 4c 3d 7c ac 1d bd 00 ee 31 bd ec 1e 72 bd
       0.049823582 -0.038494572 -0.043439865 -0.05911152
0000e0 56 ee e3 bd c0 b8 fe 3c e6 9e b1 3d c0 79 b6 bd
       -0.11129443 0.031093955 0.086728856 -0.08909941
0000f0 fc 9e 79 3d d8 7d f4 3d 72 b4 f5 bd 40 cd 56 bd
       0.060942635 0.11938065 -0.11997308 -0.052441835
