SAC/sac_actor.pth (torch, 291053 bytes, 6 tensors)

net.model.0.weight f4 [256, 7]
000000 4f f9 5c bb 8e 11 4f 3e 23 8d 9f be 76 5e 8e be
       -0.0033717935 0.2022154 -0.31162366 -0.27806443
000010 f9 e7 14 be b7 5b cf 3d 74 9a 03 bc 67 28 99 3e
       -0.14541616 0.10124915 -0.00803243 0.29913637
000020 34 d0 0b bd ff a0 cb 3d 4e 1f eb bd 98 57 98 bd
       -0.034134105 0.09942817 -0.1148058 -0.07438582
000030 dc 9a b8 be 00 76 80 be 86 da 1f be 4d 67 6d 3c
       -0.36055648 -0.25090027 -0.15610704 0.014489961
000040 be 91 19 3e 48 d8 68 3e b1 15 83 be 64 1c 28 be
       0.14997002 0.22738755 -0.25602487 -0.1641708
000050 e3 1e 0d 3e 85 69 a0 3e 50 88 a0 bd 88 81 90 3e
       0.13781314 0.31330505 -0.078384995 0.28223825
000060 09 f6 7b bd 9f 2e 23 3d df 81 af 3e ef d2 b3 be
       -0.061513934 0.039839383 0.3427877 -0.35121867
000070 54 44 74 be 44 18 c5 bd be 74 17 be 3c e5 a6 3e
       -0.2385419 -0.09623769 -0.14790627 0.32596767
000080 31 9c 7a be e6 8f 31 be b6 81 87 be 85 07 b5 be
       -0.24473645 -0.17340049 -0.2646615 -0.353573
000090 91 06 62 be 98 9e a6 3e 95 4d 2d 3e 35 00 3b 3e
       -0.22072817 0.32542872 0.16924126 0.18261798
0000a0 0f 82 9f 3c ce d0 45 be 04 f6 82 3d c2 af b4 be
       0.019471196 -0.19317934 0.0639458 -0.35290343
0000b0 56 d4 8b be 4a 87 47 be 09 32 74 3e 5d ed 62 3e
       -0.27310437 -0.19485202 0.23847212 0.2216086
0000c0 fc a5 2b be 8b 3f 5d bc 51 f3 76 3e ca 16 c0 3e
       -0.16762537 -0.013503919 0.24116255 0.37517387
0000d0 5e ff 18 3e da d9 4e 3d 3a ed 81 3e 9b 7b 64 be
       0.14941165 0.05050073 0.25376302 -0.22312777
0000e0 59 3e 90 3d 11 09 96 be e0 1f 86 be ad ef 47 be
       0.07043142 -0.29303792 -0.26196194 -0.19525023
0000f0 89 1f 2f 3e 81 a6 1b 3e f3 42 65 be fe a6 e8 3d
       0.17101873 0.15200235 -0.2238882 0.11359976
000100 2b 15 55 3e cf f7 40 bd 7e f2 74 3c 7d 8b b4 3d
       0.20808856 -0.04711133 0.014950393 0.08815668
000110 31 b7 70 3e 89 1e ba 3e d8 66 95 be 91 4b 0d be
       0.23507382 0.3635142 -0.29180026 -0.13798358
000120 d5 a9 18 3e 13 9c a0 3e a8 77 a8 3e fd 08 ab 3e
       0.14908536 0.31369075 0.3290379 0.33405295
000130 4d 28 9b 3d 9c 47 a8 be e1 6a 0e 3d ad 21 72 be
       0.07576046 -0.32867134 0.034769896 -0.23645659
000140 87 59 b4 be 6a f0 ab 3e a6 24 93 3e 18 0a c1 be
       -0.35224554 0.3358186 0.28738898 -0.37703013
000150 6f e2 90 3d 6a 66 82 bd 9c c3 7e bd 10 2b 31 be
       0.07074439 -0.0636719 -0.062198266 -0.17301583
000160 41 d6 14 3e 18 3e 65 be 47 e2 0d 3e 02 56 44 3e
       0.14534856 -0.22386968 0.13855849 0.19173434
000170 5b d7 8a 3e b8 54 11 3e 5a 39 bf be cf 9d 7b be
       0.27117428 0.14192474 -0.37348443 -0.24571918
000180 52 a3 40 3e 35 3e a3 3d ff 2f 97 be 0b 7a 5f be
       0.18812302 0.079708494 -0.29528806 -0.218239
000190 c3 be b5 3e 13 18 82 3e b8 f3 28 be ba bf c1 bd
       0.35497102 0.25408992 -0.16499221 -0.09460397
0001a0 e1 a5 b8 be ba 9c de bb f6 ba 91 be 71 45 95 be
       -0.36064056 -0.0067935856 -0.28462952 -0.29154542
0001b0 a5 9a aa bc 29 72 68 3d b8 80 1e be 84 a8 65 3e
       -0.020825693 0.056749497 -0.1547879 0.22427565
0001c0 eb ea 6a be 55 e1 af 3e 12 ea 84 3e 7c e8 a2 be
       -0.22941177 0.34351602 0.2595983 -0.31817997
0001d0 57 ea c0 bd af 9e 8c 3c 48 40 64 3d 17 60 b6 3d
       -0.09419697 0.01716551 0.055725366 0.089050464
0001e0 f6 45 17 3e c0 a2 b4 3c a8 73 3d be 54 c8 36 3e
       0.14772782 0.022050261 -0.1850115 0.17849857
0001f0 b9 57 b9 be 65 03 66 be ec c5 c1 bd bc 87 3c be
       -0.3619974 -0.22462232 -0.09461579 -0.18411154
000200 e2 65 07 be 84 9c 9e be 1c a8 a4 bd 74 76 a5 3d
       -0.13222459 -0.30978787 -0.08039877 0.08079234
000210 f5 23 7c be d7 4d 9d bc 43 bb 8a 3e a4 6d 1d bd
       -0.24623092 -0.019202156 0.27095994 -0.03843464
000220 f5 31 31 3c 53 1b 03 bd f8 57 9c 3d 9f 84 76 3e
       0.010815133 -0.03200848 0.07633966 0.24074028
000230 b3 9b b7 3e b0 86 75 3e fa a3 b7 3e dd 32 db bc
       0.35860977 0.2397716 0.35867292 -0.026757652
000240 d8 fb ad be e5 0f 38 be 30 0d 84 3e 32 e1 f5 ba
       -0.33981204 -0.17974813 0.2579131 -0.001875913
000250 9a c9 3f be 3d 00 94 be e0 28 b5 be c0 13 a3 be
       -0.18729249 -0.28906432 -0.35382748 -0.31851006
000260 47 3a 9e bd cd d6 54 3e d6 c0 50 3e dd ef ba be
       -0.07725959 0.20785065 0.20386061 -0.36511126
000270 93 d1 70 3e f1 bb 97 be 9d d5 a4 bd 97 66 1c be
       0.23517446 -0.29635575 -0.08048556 -0.1527351
000280 d0 53 96 bd 7c 35 99 bd 9d f5 ad be b5 65 a7 be
       -0.07340205 -0.074809045 -0.3397645 -0.32694784
000290 8c 55 74 bd bd 08 a4 3b e7 6d 30 be d2 2e 11 3e
       -0.059651896 0.0050059245 -0.17229424 0.14178017
0002a0 e2 56 ae be dd 51 d0 bc 1e e9 a9 3e c2 7b 1e be
       -0.3405066 -0.02542966 0.33185667 -0.15476897
0002b0 23 08 af 3e e6 98 0c 3e 79 62 ae be 50 7d 74 3e
       0.34185895 0.13730201 -0.34059504 0.23875928
0002c0 ba 31 34 bd 87 29 2d be b8 a9 9a 3e 9a 88 9c be
       -0.043992735 -0.16910373 0.3020761 -0.3057297
0002d0 12 81 26 3d 0f dd a2 bd 4f e4 89 3e 05 7a d7 3d
       0.040650435 -0.0795232 0.26931998 0.1052132
0002e0 4c 78 39 3e 2e 14 08 3e 79 43 bb bd 68 a0 a1 bd
       0.18112296 0.13288948 -0.09143729 -0.07891923
0002f0 b5 c7 9f be 92 28 52 3e a0 f4 99 3e 5f b7 84 3e
       -0.31207052 0.20523289 0.30069447 0.2592115
000300 e6 33 88 be 24 f2 88 3c 49 b0 88 be 0a 72 54 be
       -0.26602095 0.016717024 -0.26696995 -0.20746627
000310 1d 87 61 be 7a 44 04 3e be a3 66 be c6 1a 07 bc
       -0.22024198 0.12916747 -0.225234 -0.008246129
000320 41 41 82 3c f9 7d 79 3e b4 48 92 be 2f 1e 85 be
       0.015900256 0.24364461 -0.28571093 -0.2599959
000330 c9 59 61 be 6e 24 87 3e 3d bd 0b be 5f 89 a3 3e
       -0.22006907 0.2639498 -0.13646407 0.31940743
000340 51 90 0c 3e 7f 93 41 3d 51 aa 32 bb d7 3d 9a bd
       0.13726927 0.047259804 -0.002726216 -0.07531326
000350 8b cb 3f 3d 5b f2 b1 bd a9 15 0d bb 52 98 44 3d
       0.046824973 -0.08688804 -0.0021527803 0.047996826
000360 4c ab 97 be 87 db 4a be a4 43 9c 3e 7a 0c 9d be
       -0.29622877 -0.19810306 0.30520356 -0.3067358
000370 1a 55 de bc 71 6f bf 3e c5 cf 0b 3e 9a 54 2f 3c
       -0.027140189 0.3738971 0.13653477 0.010701323
000380 57 b4 a7 be 98 ba 3f 3e c9 d6 89 be 2d bb db bd
       -0.32754776 0.18723524 -0.2692168 -0.1072906
000390 55 db 01 be a7 42 65 bd e3 78 87 3b d9 4e 9f 3e
       -0.12681325 -0.055971768 0.004134284 0.31114843
0003a0 92 d6 3e 3d c8 06 ad 3e 00 26 6c 3e 8a 4d 75 be
       0.04659135 0.33794236 0.23061371 -0.2395536
0003b0 a3 1c 2e 3e 31 1a 89 be 46 6c 23 be 89 e4 e4 3d
       0.17003112 -0.26777795 -0.15959272 0.11176402
0003c0 f3 66 00 3e 72 7c 91 3e cc 63 f9 bd ff 99 fa 39
       0.12539272 0.28415257 -0.12177238 0.00047798452
0003d0 66 de 47 3e df d7 ba be 41 37 8c 3e c3 b7 9f be
       0.19518432 -0.36492822 0.27385905 -0.31194887
0003e0 67 13 be 3b 47 61 82 bd 24 71 4c be 26 12 4f 3d
       0.005800653 -0.063662104 -0.19965035 0.050554417
0003f0 04 06 a0 3e b1 46 e2 bd e0 c7 65 be 0b 24 0f be
       0.3125459 -0.110486396 -0.22439528 -0.13978593

net.model.0.bias f4 [256]
000000 1c 17 9a 3e 6c 80 4a 3e 74 62 1b 3e a8 1a ca bd
       0.30095756 0.19775552 0.15174276 -0.098683655
000010 b4 f3 4c 3e ac b8 3a 3e 9a d1 05 3e c5 36 3c bc
       0.2001484 0.18234509 0.13068238 -0.011487667
000020 dc cb 64 3d e7 38 15 3b dc 29 8c be c0 79 b2 3d
       0.055858478 0.0022769512 -0.27375686 0.08714628
000030 83 43 8e be 9d 67 3c 3e 17 36 67 be cb d9 fc bd
       -0.27785882 0.183989 -0.22579227 -0.12346228
000040 44 f6 36 be 45 70 98 3e 62 47 88 be 3f 0a 46 3e
       -0.1786738 0.29773155 -0.2661696 0.19339846
000050 cd 07 42 3e 5a 23 89 3e 96 b7 c0 3d cd 78 52 3e
       0.18948288 0.26784784 0.09410016 0.20553894
000060 d3 af 98 3e 36 73 97 3d 67 fc 02 3e 03 03 97 be
       0.29821643 0.073950216 0.12791596 -0.29494485
000070 06 a1 cf bd 6d ea 09 3d 88 33 39 3d 79 bd 08 be
       -0.10138135 0.03367083 0.04521516 -0.13353528
000080 6d d7 bf be ff 86 ca bd e5 c8 14 3e ee ec a6 3e
       -0.37469044 -0.0988903 0.1452976 0.32602638
000090 92 c0 ae be c1 65 39 3e 57 60 b7 be ba 0f b9 be
       -0.34131294 0.18105222 -0.3581569 -0.3614481
0000a0 02 61 72 be d8 7b 4c bd 3a fb d6 3d 26 2c 93 be
       -0.23669818 -0.049922794 0.104971364 -0.2874462
0000b0 68 c9 94 3e e9 4d af 3e c0 67 c3 3c 62 ce 9d 3e
       0.2905991 0.34239128 0.023853183 0.3082152
0000c0 bf 9c 2f be 0a 3c 19 be b2 c7 47 bd 29 2c 2b 3d
       -0.17149638 -0.1496431 -0.04877443 0.04179016
0000d0 8d 4c 87 be fc f4 9a be 8e 47 18 3e 53 00 de 3d
       -0.2642559 -0.30265033 0.14871046 0.108399056
0000e0 5f 9c bd 3e a7 cc 1d be fa 0b 09 3e 0b 2f 1c be
       0.37033364 -0.154101 0.13383475 -0.1525232
0000f0 0e 7e 3e 3e cf 3c b0 bc 55 27 8f 3e 64 9f 57 3e
       0.18602774 -0.02151337 0.27959695 0.21056896
000100 23 61 a1 3e f3 80 47 3e de 44 71 3c d2 7b a6 3e
       0.31519422 0.19482784 0.014725892 0.32516342
000110 73 56 63 be 29 39 b6 3e 26 cd bc 3e 5d 92 b8 3e
       -0.22200947 0.35590485 0.36875266 0.36049166
000120 b2 2d 34 be f2 12 4d be 99 cf c8 3c 9e d0 ef 3d
       -0.17595556 -0.20026758 0.024513053 0.117097124
000130 c2 8a 41 3e ef 02 1e 3e 99 78 a4 3e 98 ef c1 bd
       0.18900588 0.15430807 0.3212326 -0.09469527
000140 c7 f3 fd bd 3d 22 01 3e 44 38 d8 3d c1 c4 61 be
       -0.124000125 0.12610717 0.10557607 -0.22047712
000150 bb a9 13 3d b9 a2 92 be b1 16 e3 bd ac e6 17 be
       0.03605054 -0.28639773 -0.110883124 -0.14834088
000160 11 54 a9 3e 1b 33 ae be 08 e8 63 be e0 61 bd be
       0.3307195 -0.34023365 -0.22256482 -0.36988735
000170 be 6c c4 3d d2 f2 94 be 7f a3 fb 3d ce 1c 86 be
       0.095910534 -0.29091507 0.12287044 -0.2619385
000180 1d 50 77 be 20 ba 45 be 58 9f 6a 3d f8 1f b2 3e
       -0.24151655 -0.19309282 0.05728087 0.34790015
000190 36 fb b4 3e a9 0c e5 bc d2 8c bd be dd bb ff bd
       0.3534791 -0.027960138 -0.370215 -0.12487004
0001a0 e8 80 13 be 42 a4 a4 bd da 46 13 3e 6d 62 43 3e
       -0.14404643 -0.08039142 0.14382496 0.19080515
0001b0 cd b2 2b 3e 99 db dc 3d c9 4a 1d be 4d 62 83 bb
       0.16767426 0.107840724 -0.1536056 -0.004009521
0001c0 96 92 42 3d 75 46 46 be 2a ea 0c bd c3 40 41 bd
       0.047503076 -0.19362815 -0.034403004 -0.047180902
0001d0 8d d6 b6 be 71 e7 82 3e 75 12 1a bd d2 49 a7 be
       -0.35710564 0.255672 -0.03761526 -0.32673508
0001e0 d1 df 98 3e fa 40 50 be b0 9f 09 3e 89 9b bf 3e
       0.29858258 -0.20337287 0.13439822 0.3742335
0001f0 ed 35 94 3c 2d e0 df 3d c1 2c 19 3e b6 8f 92 3e
       0.01809212 0.1093143 0.14958479 0.28625268
000200 49 4b ec bd d3 ca 59 be 2e 64 ed bc fa a3 97 3e
       -0.11537797 -0.21268778 -0.028978433 0.29617292
000210 61 b9 02 3d b0 4c 86 3e 78 6f 5f bb 0f 7a ec 3d
       0.031915072 0.26230383 -0.003409354 0.11546718
000220 a3 29 61 3c 0e 05 31 3c c3 27 b8 be 0d 2e a9 be
       0.013742837 0.010804428 -0.35967836 -0.33042946
000230 07 02 fe 3c 71 2a 40 3e e1 32 82 3e 1c 3d 8b 3c
       0.031006826 0.1876619 0.25429443 0.016996913
000240 d3 87 22 3e a4 76 22 3e 00 0e a7 be da 16 aa be
       0.15872125 0.1586557 -0.3262787 -0.3322056
000250 13 0b 96 be 9f dd ce 3b 7e 1d 74 be 80 b6 f7 bd
       -0.29305324 0.0063130404 -0.23839375 -0.12095356
000260 ba 9f 67 bd 97 69 16 3e bf 3f b2 3d 97 37 b3 3e
       -0.05654881 0.14688717 0.08703565 0.3500335
000270 fc 3e ae 3e 77 e9 76 be b7 bf 1a ba 49 48 7d 3d
       0.34032428 -0.24112497 -0.00059032015 0.061836515
000280 ff d4 a8 3e a5 e6 ef bd 18 1b 18 be 8d 2b 75 be
       0.32975003 -0.11713914 -0.14854085 -0.23942395
000290 a7 4b 8e 3e 73 3f da bd 67 54 11 be ae fd 82 3e
       0.27792093 -0.10656633 -0.14192353 0.25584167
0002a0 f6 c5 b1 3e 45 7b 82 bc b9 1e 88 be 93 fb 9d 3e
       0.34721345 -0.01592792 -0.2658594 0.30855998
0002b0 37 5e 04 be 0a 5b 32 be d8 5a 88 be 7a fa 39 be
       -0.12926565 -0.17417541 -0.26631808 -0.18161955
0002c0 df 81 97 be 3e 30 5f be 61 94 b0 be 0e 17 9d bd
       -0.2959127 -0.21795747 -0.34488204 -0.07670413
0002d0 70 3b 1c 3e 43 d0 92 be 4d 1f 4f ba e2 52 0f be
       0.15257049 -0.28674516 -0.00079010875 -0.13996461
0002e0 ad c5 3a 3e c7 ea a7 3e 5e 31 4b bd 7f cb 42 be
       0.1823947 0.32796308 -0.049607627 -0.1902294
0002f0 e8 68 94 be 6c dc 63 be c9 4f de 3d 2b d5 b2 3d
       -0.28986287 -0.22252053 0.108550616 0.08732065
000300 e8 18 50 3e 7a 95 63 bd 8a 7c 47 3e d1 68 ac be
       0.20322001 -0.055562474 0.19481102 -0.3367372
000310 50 e2 ce 3d 22 8f bb 3e 36 86 bf be bb eb 48 be
       0.101017594 0.3663264 -0.37407082 -0.19621174
000320 70 2b 77 3e d1 0c 72 bd b1 af 4e be 9b a1 6c 3e
       0.24137664 -0.059094254 -0.20184208 0.23108523
000330 63 ab ca 3c d1 6f 7a 3c a5 1c eb bd 85 7f 91 3e
       0.024739927 0.015285448 -0.11480073 0.28417602
000340 40 45 57 3e 1e 72 89 3d 8f a2 6e 3d 78 85 47 3e
       0.2102251 0.06711219 0.058260497 0.19484508
000350 42 83 70 3e 37 c3 1e be 92 02 2c bd b3 86 2a 3e
       0.23487571 -0.15504156 -0.04199464 0.16652946
000360 97 8c 3b be 4a a8 b4 3e 3f 8f 84 be c2 fd 31 3e
       -0.1831535 0.35284644 -0.25890538 0.17381957
000370 e8 46 8b be 1c 51 f7 3d 17 e2 86 3e 52 e8 39 3d
       -0.27202535 0.12076017 0.26344368 0.045387574
000380 ca 2a 1b bd c1 92 75 3e 3b a6 8a be a8 40 82 be
       -0.037882604 0.23981763 -0.2707995 -0.25439954
000390 2e a5 a4 be 4b 3d 6e be 5c f4 29 3c ea 7f 2f be
       -0.32157272 -0.23265569 0.010373201 -0.17138639
0003a0 f0 ad ad 3d 3a 2f 47 3c 47 5a a1 3e 65 36 27 be
       0.084804416 0.012157256 0.3151419 -0.16329344
0003b0 af 97 d2 bd 14 49 80 3e a2 ed c4 bd 3e fa b8 3e
       -0.102828376 0.25055754 -0.09615637 0.3612842
0003c0 0c b9 19 be de 50 9b bb 35 30 b6 bd d8 2e 35 3e
       -0.15011996 -0.0047398647 -0.088959135 0.1769365
0003d0 33 b0 13 3e 01 ae 4e be 93 a5 7f 3e 91 83 c9 bc
       0.14422683 -0.20183565 0.24965505 -0.024598869
0003e0 a1 9f c2 bd 20 d4 f9 bb e9 63 86 3e 2e 88 bd 3e
       -0.09503103 -0.007624164 0.262481 0.3701796
0003f0 7b 13 3c 3e 14 a6 88 3d da 34 7d 3e 89 d8 21 be
       0.18366806 0.06672302 0.24727193 -0.15805258

net.model.2.weight f4 [256, 256]
000000 c8 37 08 bd 61 c1 98 bc fc 23 28 bd ed 62 d7 3c
       -0.033256322 -0.018646898 -0.041049942 0.026292289
000010 6b 19 af 3b a5 13 b4 bc 5e 31 e3 bb 47 7c ee ba
       0.005343606 -0.021982023 -0.0069333753 -0.0018194997
000020 ae 17 59 3d 2e 17 62 3d c2 14 45 bd cc d3 b6 3c
       0.0530011 0.055197887 -0.0481155 0.02231779
000030 24 b5 c5 3c aa de be 3c 80 9a 0b bc 8c 0b 80 3c
       0.024134226 0.023299534 -0.008520722 0.015630506
000040 80 d6 80 3c 58 b8 76 3d 86 5b 75 bd 5c 2e c7 bc
       0.015727282 0.060234398 -0.059901737 -0.024314098
000050 d1 b1 2e bd bb 37 fd bc 61 39 3f 3c 7c b5 19 3d
       -0.042650048 -0.030910363 0.011671395 0.037526593
000060 37 0a 44 bd ee 15 24 3d 2c 62 53 3d 50 5e fc bc
       -0.047861304 0.040059976 0.051607296 -0.03080669
000070 40 ba 32 3c 23 e2 05 bd ed 90 51 3c f8 5f ed bc
       0.010908663 -0.032686364 0.012790901 -0.028976426
000080 bc 73 c7 bc 12 be 2d bd 01 ee 57 bd 49 dc 49 3d
       -0.024347179 -0.042417593 -0.052717213 0.049282346
000090 80 50 01 bc 51 d3 18 bb 8c ce fe bc ca 6e 32 3d
       -0.007892728 -0.0023319314 -0.031104349 0.043562688
0000a0 10 87 12 bd a8 15 cf bc c3 4a 4a bd f2 43 57 bd
       -0.035773337 -0.025278881 -0.049387705 -0.052555032
0000b0 51 d7 60 3d 91 20 48 bd f7 2d 17 bc bd 10 99 bc
       0.05489284 -0.048859183 -0.0092272675 -0.01868474
0000c0 41 ce b6 3c 5f 38 84 3c 4e 3f 44 bd e1 72 63 3d
       0.022315146 0.016140161 -0.047911935 0.05552948
0000d0 88 02 7f bd 30 8f ca 3b a1 c2 be bb 14 22 77 bc
       -0.062258273 0.00618162 -0.0058215414 -0.015083808
0000e0 04 06 2c 3d 24 25 58 3d 94 37 f7 3b 80 d6 b4 bc
       0.041997924 0.052769795 0.007544467 -0.022074938
0000f0 ec e0 3b 3d 87 6d 1e 3d 40 26 2e 3c 48 f0 90 bc
       0.0458688 0.038678672 0.010629237 -0.0176927
000100 ea 7c 05 3b 46 b8 61 3d 31 6c ca 3b 21 99 53 bc
       0.0020368644 0.055107377 0.006177448 -0.012914927
000110 66 be 58 bd f7 a2 0b bd 15 72 36 3d 18 74 37 bb
       -0.052915953 -0.034090962 0.04454239 -0.0027992781
000120 f0 61 88 bb 48 5a c7 3c 71 e3 2a bd 0b dd 9d bb
       -0.0041620657 0.024335042 -0.04172081 -0.00481761
000130 2c d4 94 bc 99 7e 03 3d e2 e5 4d 3d 8e be 20 3d
       -0.018167578 0.032103155 0.05026806 0.039244227
000140 bc dc 3e 3d bc 3d 67 bd 93 9e ba bc 10 84 f2 3b
       0.046597227 -0.05645536 -0.022780692 0.007400997
000150 85 e2 5b bd 40 e4 8a 3c a6 cd 27 bd fc 65 db 3c
       -0.053682823 0.016954541 -0.040967606 0.026782028
000160 07 be 4c 3d b6 fe 5a bd 64 83 56 3d 60 e6 ee 3c
       0.04998591 -0.053465568 0.052371398 0.029162586
000170 cd 5a 2b bd 98 09 75 3d 15 27 60 bd 20 58 2c bd
       -0.04183464 0.059823602 -0.05472477 -0.04207623
000180 34 b1 fe bc 40 6a 4f bb 8f 0b 2e 3c b9 20 9b bc
       -0.031090356 -0.0031649023 0.010622873 -0.018936502
000190 d5 14 75 bd 93 75 ff bb 36 3b 42 3d 9c 1a 45 3d
       -0.05983432 -0.0077959984 0.04741975 0.04812108
0001a0 cc 26 00 3d 68 ac 14 3c 9d 9e 74 3c b5 cb 47 bd
       0.031287 0.009074308 0.0149303945 -0.048778255
0001b0 be 7a ca 3c 67 99 80 bd c8 70 d3 bc 58 8d 86 bc
       0.024716731 -0.06279259 -0.025810614 -0.01642482
0001c0 48 94 39 3d 40 cd ee ba 0f fc ed bc d8 e6 32 3c
       0.045307428 -0.0018219128 -0.029050855 0.010919295
0001d0 d4 6b 54 bd 9e 70 8c bc e4 15 89 3c c0 a2 87 bb
       -0.051860645 -0.017143544 0.016734071 -0.0041392744
0001e0 04 a6 ea bb fa 75 1c 3d 6d e9 44 bd b5 b4 03 bd
       -0.007160904 0.03819845 -0.048074175 -0.032154758
0001f0 9a 58 75 3d c3 ee 41 3c b3 9c 2f bc 9b 26 02 3d
       0.05989895 0.01183671 -0.010718512 0.0317751
000200 70 01 1a 3d 90 1c 2b bc c5 8f d8 bc df 29 31 bc
       0.037599027 -0.010443822 -0.026435742 -0.0108132055
000210 d6 fe b4 3c 2c 84 0c bc 8d 99 12 3d 74 2c 53 bd
       0.022094171 -0.008576434 0.03579097 -0.051556066
000220 d6 0c 00 bd 12 b4 40 3d 68 56 06 3c 60 34 4e 3c
       -0.03126224 0.04704673 0.008199312 0.012585729
000230 c8 85 a3 3c b1 c4 7b bc cb a5 d1 bc 85 12 8e 3c
       0.019961253 -0.015366719 -0.025591752 0.017342815
000240 b4 96 8c bc 41 64 d8 bc d8 49 07 3c c0 af 77 3c
       -0.017161705 -0.026414992 0.008257352 0.015117586
000250 d0 ea b8 bb 6b 92 2f bd c0 d4 1a bc 0e 15 11 bd
       -0.005643226 -0.042864244 -0.009450138 -0.03542047
000260 b2 bc 06 3d a7 0c 2c bd 2e a9 49 3d 28 08 c7 3c
       0.032894798 -0.042004254 0.049233608 0.024295881
000270 0e a8 5d bd 54 fa 3d 3d 12 92 7f bd be 59 8a bb
       -0.054115348 0.04638131 -0.062395163 -0.004222124
000280 6a 44 22 bd 00 3b 5c bd 70 ea ca 3b 68 3f f8 bc
       -0.039616026 -0.053767204 0.006192498 -0.030303672
000290 4a 98 36 3d 05 ac 4b bd 60 7c 54 3d 57 fe 17 3d
       0.044578828 -0.049724597 0.051876426 0.03710779
0002a0 dd c6 5d 3d 18 ee 95 bc 9e ea 1c bd 0f 84 2c bd
       0.05414473 -0.018302009 -0.038309686 -0.04211813
0002b0 ce e1 54 3d 08 a8 fe bc 40 2a fc bb f8 d5 1d bc
       0.051973157 -0.031085983 -0.0076954663 -0.009633534
0002c0 a8 2a 30 3c 7c 11 52 bd 40 6c 4e 3d e1 69 3f bd
       0.010752358 -0.051286206 0.050396204 -0.046731833
0002d0 39 56 79 3d 68 56 c8 bc 90 51 e9 bc 58 c0 0c bc
       0.060873244 -0.024455264 -0.028481275 -0.00859078
0002e0 9e a0 92 3c 26 7b 47 bc 45 f0 80 bd f4 10 34 3d
       0.017898854 -0.012175357 -0.06295828 0.04396148
0002f0 a4 90 7d 3d cc 28 01 3d b1 0b 78 3d 78 a3 86 3c
       0.06190552 0.031533048 0.060558025 0.01643537
000300 f6 18 b4 bb 53 48 4e bd d3 32 62 bd 56 41 30 bd
       -0.0054961396 -0.050361942 -0.05522425 -0.04303106
000310 02 c7 86 bc 73 a1 12 3d 34 3e d3 bc e0 15 1f bb
       -0.016452316 0.0357985 -0.025786497 -0.0024274513
000320 55 55 c1 ba 80 57 27 bd 40 c2 dd ba 29 c0 74 3d
       -0.0014750162 -0.04085493 -0.0016918853 0.05975357
000330 e0 32 4a 3d 93 91 40 3d a0 fc c9 bb 1b cf 05 3a
       0.049364924 0.04701383 -0.0061641484 0.00051044085
000340 6b 84 09 3d c1 1f af bc 8c 6a d4 bc 24 95 58 3d
       0.03357355 -0.021377446 -0.025929712 0.052876607
000350 53 9a 42 3b 58 da 2c bd f3 52 55 3d 07 28 20 3c
       0.0029694035 -0.042200416 0.05208106 0.009775168
000360 88 f9 08 3d b9 c9 60 bd 80 06 3e 3c ca 27 1a 3d
       0.033441097 -0.054879878 0.011598229 0.037635602
000370 38 ba 13 bc e1 f5 13 bd 66 61 4a 3d 7f 52 e9 3c
       -0.009016566 -0.03612316 0.049409293 0.02848172
000380 0c d2 91 3c 4c 71 68 3c 80 cf b4 3a b8 ce 12 3d
       0.017800353 0.014187168 0.001379475 0.035841674
000390 b8 da 5f bc 6c b1 16 bd a3 b2 be 3c 70 99 88 3c
       -0.013662986 -0.036790296 0.02327854 0.016674727
0003a0 85 06 be 3c ea 24 f7 bb 7f b2 11 bc e0 c5 a2 bb
       0.023196468 -0.0075422423 -0.008892654 -0.004967436
0003b0 6c 01 87 3c b3 e0 46 bd 10 d2 70 bd 7c b4 ba 3c
       0.01648017 -0.048554134 -0.05879408 0.02279114
0003c0 34 29 0c bd c5 3e bf bb dc cc 89 3c 3d ed 05 3c
       -0.03421898 -0.00583634 0.016821317 0.008174238
0003d0 b6 93 22 3d c0 3a 06 3c 2f c0 73 3c 8e 4b ca bb
       0.03969165 0.008192718 0.014877363 -0.0061735576
0003e0 a3 a6 0d 3c ec bc bb 3c 35 32 2c 3d b9 02 75 bd
       0.008645686 0.022917233 0.04204007 -0.05981705
0003f0 2b 2b da bc 3f 2c 68 bd a8 0a d1 bc 68 0d 1c 3d
       -0.026631912 -0.05668282 -0.025517777 0.038098723

net.model.2.bias f4 [256]
000000 c5 48 a6 3c f4 bc d2 3c 84 a2 b9 3c 2d 2b 5a 3d
       0.020298371 0.025724865 0.022660501 0.053263832
000010 3a a0 53 3d 90 16 22 bc 39 62 2c bc 2d cc ad 3c
       0.051666476 -0.009893075 -0.010521465 0.021215523
000020 d8 37 c3 bc e2 63 64 bd b0 0f fe bc 20 b6 a7 bb
       -0.02383034 -0.05575932 -0.03101334 -0.0051181465
000030 12 76 ef bc 6c c9 18 3d 50 6a 36 bd 4f aa ac bb
       -0.029231105 0.037301466 -0.04453498 -0.005269326
000040 5b 46 4b bd d1 6a d9 bb f3 2b 08 bd 0c 65 27 bd
       -0.049627643 -0.006635048 -0.03324504 -0.04086785
000050 df 22 01 bd 12 51 53 bc 46 d2 45 bc 8a ee dd 3c
       -0.031527396 -0.012897747 -0.012074059 0.027091283
000060 97 6b 28 3d a8 ef 80 3c 89 87 92 bc fa 08 42 3d
       0.04111823 0.015739277 -0.017886894 0.047371842
000070 de 39 00 bd c1 56 6e 3d 45 cb 28 3d 40 16 07 bd
       -0.031305186 0.058188204 0.041209478 -0.032980204
000080 ec 4f ac 3c f4 f5 4e bd af 1f 0f bd 6f d9 85 3c
       0.021034203 -0.050527528 -0.034942325 0.016339032
000090 06 8c 1f 3d 0e e1 62 bd da b9 7d 3d 30 31 33 bd
       0.038951896 -0.05539041 0.06194482 -0.04374808
0000a0 ae 54 74 bd c6 9d 0c 3d cf 40 98 3c 65 67 44 3c
       -0.05965107 0.034330152 0.01858559 0.011987542
0000b0 38 4c 0a 3d a4 43 05 3c b4 d6 91 3c fd 05 a8 3c
       0.033764094 0.008133803 0.017802574 0.020510668
0000c0 00 87 20 ba f7 6e 75 3d 1e 8d 1f 3d c2 17 56 bd
       -0.0006123632 0.059920277 0.03895294 -0.05226875
0000d0 00 86 00 bd 86 03 52 bd 52 c0 fa 3c 48 2c 7d 3d
       -0.031377792 -0.05127289 0.030609284 0.061809808
0000e0 c8 6d 6e bd 8e 37 2a bd a8 87 3f bc 4c 8d 7a bd
       -0.058210164 -0.041556887 -0.011690058 -0.061169907
0000f0 1e 70 a3 bc 40 75 1d 3d 2a b9 56 3d be 80 59 bc
       -0.019950923 0.038441896 0.05242268 -0.013275323
000100 e6 0b 55 bd 00 86 7b bd 77 20 9a 3c ac 50 52 3d
       -0.0520133 -0.06140709 0.018814309 0.051346466
000110 a2 ac 07 3d 0e f8 8f 3b 1d 3e 06 3d 1e 73 6e bd
       0.03312362 0.004393584 0.03277408 -0.058215253
000120 f0 3f 55 3d b0 ad bc bb dd f5 52 bd e4 ca d2 3c
       0.05206293 -0.00575801 -0.051504005 0.025731511
000130 0c 59 0d bd 9e b7 5e 3d 1f da 04 bd 50 6f f8 bc
       -0.03450875 0.05437433 -0.03243458 -0.030326515
000140 c2 b3 5e 3d eb 1d 2d 3d 7b 65 7c 3c fd c8 8c 3c
       0.05437065 0.04226486 0.015405054 0.017185682
000150 92 5e a5 3c 1a 2e 3a bd ac 4d f7 3c fe 1b 62 3d
       0.020186696 -0.045454122 0.030188404 0.055202477
000160 e4 f0 20 3d fc de 1f bd 31 cd 2c 3d ea d3 a1 bc
       0.03929223 -0.039031014 0.042187873 -0.019754369
000170 f8 ff 08 3c 34 e0 1c bc 74 9a 51 bd aa d3 1d 3d
       0.008361809 -0.009574939 -0.05117269 0.038531937
000180 c0 35 30 bd 06 0a 6d 3c bc 1a b7 3b 70 c4 7c bd
       -0.04302001 0.014467722 0.005587904 -0.061710775
000190 82 87 f7 bc a0 6f 6d 3d 1f 26 8a 3c bc a9 58 bd
       -0.030215982 0.057967782 0.01686388 -0.052896246
0001a0 06 47 d9 3c dc 3d fd bc 48 bd 77 3d 08 0b 74 bc
       0.026523124 -0.030913286 0.060483247 -0.014895208
0001b0 f3 7d 86 3c 1f 2c 57 bd 8c d0 36 bd 08 94 3d bd
       0.01641748 -0.05253231 -0.04463248 -0.04628375
0001c0 00 03 f7 bb 10 66 6a bc 34 61 10 3c dc 8b 0f 3d
       -0.0075381994 -0.01430656 0.0088122375 0.03504549
0001d0 64 a6 c2 3c c0 9c fe bb 00 75 e2 3a 7d 47 92 bb
       0.023760982 -0.007770151 0.00172773 -0.0044640885
0001e0 8f c9 56 bd 71 3f 5b 3d 65 42 09 bd a0 dd 7b 3c
       -0.052438315 0.0535273 -0.033510584 0.015372664
0001f0 a9 47 e8 3c 70 36 ff bc 5f 92 78 3d 48 61 31 3d
       0.028354483 -0.031153888 0.060686465 0.043305665
000200 9a cb 72 3d c6 83 d4 bb 04 42 b7 bc 06 fe 02 bd
       0.0592762 -0.006485435 -0.022370346 -0.031980537
000210 9f a7 78 bd 79 0c 4b bd 80 44 98 3a c5 22 a3 bb
       -0.06070673 -0.04957244 0.0011617094 -0.00497851
000220 98 4f 46 bc e2 b9 44 3d 69 d0 ab bc 2d ee 32 bd
       -0.012103938 0.048028834 -0.020973401 -0.043684173
000230 4a 58 31 3d 5c 1c 8f bc db ea 83 3c fe f8 6f 3c
       0.04329709 -0.017469577 0.016103199 0.014646767
000240 1c 79 13 3d d5 ce 79 3d cf c9 d6 bb aa 6a 31 bd
       0.03600417 0.060988266 -0.006554819 -0.043314613
000250 2e e3 29 3d ec 55 fd bc d0 00 05 bd b2 fd 37 3d
       0.04147642 -0.03092476 -0.032471478 0.044919677
000260 fb 56 6e bd 47 3b b9 3c aa 16 58 3d 58 82 19 bd
       -0.05818842 0.022611273 0.05275599 -0.03747782
000270 22 a0 24 bd 9a ee 74 3d d7 11 77 bd 60 b3 cc 3c
       -0.040191777 0.05979786 -0.060319748 0.024987876
000280 a1 e0 95 3c db 4c 49 3d 8f 12 6f 3c 78 06 f2 bc
       0.018295588 0.04914556 0.014591827 -0.0295441
000290 48 b7 64 bd 78 78 2d 3d c1 9b 90 39 c0 71 5c 3b
       -0.055838853 0.042351216 0.00027581866 0.0033637136
0002a0 4d 4b a3 3c ec 0f 69 3d e4 34 8c 3c 00 91 5a 3d
       0.019933367 0.05689995 0.017115064 0.05336094
0002b0 a6 17 ae 3c 5c ed d4 bc a3 a5 6f 3c e0 c7 4a bc
       0.02125151 -0.025992088 0.014626893 -0.0123767555
0002c0 e7 96 21 bc e0 cf 25 bb 10 b5 4b bc 20 84 cd 3b
       -0.009862638 -0.0025300905 -0.012433305 0.006271854
0002d0 5d 53 28 bd 0c e0 67 bd 9f 42 f5 bc 7d 42 0c 3d
       -0.041095126 -0.056610152 -0.029938994 0.034243096
0002e0 0e ad 0f bd cc 0d 16 bd 66 83 a2 bb 89 51 22 3d
       -0.035077147 -0.03663425 -0.0049595116 0.03962854
0002f0 72 96 60 3d 60 51 8a 3b 5f fa 0d 3d 00 dd 69 bc
       0.054830976 0.0042211264 0.0346626 -0.014273882
000300 4d f5 1e bc f1 08 64 bc a3 16 31 3d 82 06 9d 3c
       -0.009702039 -0.013918147 0.04323448 0.019168142
000310 69 89 d8 bb 7f ca 63 3d f3 55 d8 39 7c b5 ec 3c
       -0.0066081774 0.055613037 0.00041262768 0.028895132
000320 eb d0 f0 3c 9b 00 87 bc 20 76 2a 3d 10 04 6c bc
       0.029396495 -0.01647978 0.04161656 -0.014405265
000330 09 1c 63 bd 58 48 f8 bc 3f b5 da 3c 53 03 07 3d
       -0.05544666 -0.030307934 0.026697753 0.032962155
000340 5b 20 5c bc ce 0b 3b bb c5 4c 4b 3d c0 af 5a bc
       -0.0134354485 -0.0028540972 0.04963376 -0.013347566
000350 f0 84 8c 3c 10 19 15 bc 80 b8 2c bd 88 b2 f3 bc
       0.017153233 -0.009100214 -0.04216814 -0.029748216
000360 9c eb d3 3c f8 6e 50 3c 60 fe cc bb 20 96 57 bc
       0.025869183 0.0127217695 -0.00625591 -0.013158351
000370 10 9f 86 3c 68 9b 6c 3d b5 1b 7f bc 27 f0 d0 bc
       0.016433269 0.057765394 -0.015570571 -0.025505139
000380 02 39 1a bd 18 0f 7f 3b 08 99 2a 3d 14 70 d8 3c
       -0.037652023 0.0038918909 0.04164985 0.02642063
000390 d4 ec 66 bd e2 1d 03 bd 7b 4e 48 bd cd c8 8a 3c
       -0.0563782 -0.03201092 -0.04890297 0.016941452
0003a0 be 4d 27 3d 5b 20 3d 3d 80 fc 82 bc 77 25 92 3c
       0.040845625 0.046173435 -0.015989542 0.01784013
0003b0 00 d7 cc 3a 30 ad 6d bd 90 56 59 3d d7 67 1e 3d
       0.001562804 -0.058026493 0.053061068 0.03867325
0003c0 39 b9 68 bd 2b 73 5e 3d 1c 75 f9 3c 5c 58 41 bd
       -0.056817267 0.05430905 0.03045135 -0.047203407
0003d0 ba ac 28 3d 76 12 5c bd 7d bf 25 3d 9e c2 2e bb
       0.04118035 -0.053728543 0.04046582 -0.0026666294
0003e0 7d c3 85 bc 7b bc bb 3c 6b 53 04 3d 04 f3 38 bd
       -0.016328568 0.022917023 0.032306116 -0.045153633
0003f0 f8 57 1a 3d 2b d3 91 bc ac 15 4f 3d 2a af 7f 3d
       0.03768155 -0.017800888 0.050557777 0.06242291

net.model.4.weight f4 [16, 256]
000000 a5 9e 7b 3d a0 d4 15 3d 60 bc aa bc a6 4e b2 bc
       0.061430592 0.036579728 -0.020841777 -0.021766018
000010 00 b1 14 bd d8 f8 14 bd bd 82 5b bd d9 1c 51 bd
       -0.036301613 -0.03637013 -0.05359148 -0.051052902
000020 c0 0b a2 ba f4 03 e0 bc 20 0e 6d 3b 30 0e 91 3c
       -0.0012363121 -0.027345635 0.003617175 0.01770696
000030 a1 08 5f 3d 1f f1 80 3d 60 79 c8 3c e6 7d 3c bd
       0.05445159 0.0629599 0.024471939 -0.046018504
000040 6b 96 08 3d 11 ff d7 3c 6c 67 3a bd da ed 0c 3d
       0.033346575 0.026366742 -0.045508787 0.03440652
000050 2d 56 c4 3c a4 88 19 3d 6a dd 20 bd e2 54 c1 3c
       0.023966873 0.037483826 -0.039273657 0.023600046
000060 c7 48 fc bc 84 cd af b9 a7 df 54 3d 14 a5 b2 bb
       -0.030796422 -0.00033531722 0.051971104 -0.0054518078
000070 86 0a 72 bd ed b0 cd bb 0d 91 1b 3d e4 0b 9f 3c
       -0.059092067 -0.0062771947 0.037980128 0.01941485
000080 80 05 2d bd 8b 4e 27 3d 16 e5 71 bd ad 14 0e 3d
       -0.042241573 0.04084639 -0.059056364 0.034687687
000090 c8 e9 22 3d 10 01 79 3c db 0c 72 bd a8 10 d2 3c
       0.039773732 0.015198007 -0.05909429 0.025642708
0000a0 a2 01 68 bb 37 ef 4d bd 4a 17 18 bd c7 f7 fd 3c
       -0.0035401364 -0.05027696 -0.037131585 0.031001939
0000b0 07 64 d6 bc 6b d4 18 bd 74 27 22 3d ca d8 a5 3c
       -0.026170744 -0.037311953 0.039588407 0.020244975
0000c0 60 39 b0 bb db 7c 2a bd 94 9e 4f bd 2c eb 7f 3d
       -0.0053779334 -0.041622978 -0.05068834 0.062480137
0000d0 4b a6 ff bc 8d 7b 61 bc 97 b8 37 3d 67 20 21 bd
       -0.031207224 -0.013762367 0.044853773 -0.039337542
0000e0 ae cc 15 3d 88 fa 07 bd 00 6d 19 ba e0 76 60 3c
       0.03657215 -0.03319791 -0.0005852729 0.013700217
0000f0 22 b2 16 3d 46 95 20 3c 16 74 7e 3d 40 92 d3 3c
       0.036790974 0.009801215 0.062122427 0.025826573
000100 b4 eb c6 bc 79 e9 21 bd 3b 0c 60 bc 76 23 49 bd
       -0.024282314 -0.039529298 -0.013674791 -0.049106084
000110 2c 05 02 bd fc 66 22 3d d4 13 22 bc 78 f3 19 bc
       -0.031743214 0.039648995 -0.009892423 -0.009396426
000120 fc f1 f6 bc 9a 0a 15 bd ea 5e e6 bb 62 6b 7a bd
       -0.030144684 -0.036387064 -0.0070303576 -0.061137564
000130 60 44 63 bd 02 b2 28 3d 20 3d 1d 3d d2 5a 61 bd
       -0.05548513 0.041185386 0.03838837 -0.055018254
000140 80 a4 40 3c 65 50 3f bc af 9e 09 3d 35 ef c4 bc
       0.01175797 -0.011676882 0.033598598 -0.024039844
000150 f1 49 17 3d f0 ca e4 bb dc 1f 06 3d bf 83 86 bb
       0.03693575 -0.0069822 0.032745227 -0.004105061
000160 5a e7 09 bb ef 0f c2 bc 21 69 41 bb 85 b1 41 3d
       -0.0021042437 -0.023689238 -0.0029512125 0.047288436
000170 c6 a7 65 bd 4c 2c 49 bd 98 b7 3d bd 3c b2 4c ba
       -0.056068204 -0.04911451 -0.046317667 -0.00078085414
000180 5e cb 2e 3d 2a 0c 39 3d dd 29 a9 ba 5d 55 a9 3c
       0.042674415 0.045177616 -0.0012906153 0.020670587
000190 92 c1 49 3d d1 5b 2d bd ef 21 b4 3c c0 1f 4d 3b
       0.04925687 -0.04232389 0.021988837 0.0031299442
0001a0 21 1f 2a bd fe 60 59 bd 38 6b f3 3c 82 eb 03 bd
       -0.041533593 -0.053071015 0.029714212 -0.03220702
0001b0 e8 55 42 bc 68 7d ae bc 8f 1d 8c 3a d2 1f 0b bd
       -0.011861302 -0.021300033 0.0010689961 -0.033965893
0001c0 7c a0 9e bc 24 44 65 bd 31 fa 01 3d 0c 4b fa bc
       -0.019363634 -0.055973187 0.03173274 -0.030553363
0001d0 1a a3 07 bd 58 3e 1f 3c 90 4f 52 3d cf ec 92 3c
       -0.03311453 0.009719454 0.051345408 0.017935185
0001e0 b0 c2 a2 bc b1 e3 fe 3b a3 d9 21 bd ac 2d c8 bc
       -0.019868225 0.007778608 -0.039514195 -0.02443584
0001f0 86 14 9f bb cc 51 69 bd f1 83 88 bc 8a 7a 57 3d
       -0.0048547415 -0.056962773 -0.016664477 0.052607097
000200 23 9a 07 3c ec 66 28 bd d2 39 66 bd b8 31 e1 3c
       0.008276495 -0.04111378 -0.056207485 0.027489528
000210 01 2e 26 ba 00 5c 82 3c 60 90 5e 3d 2c a7 8f 3c
       -0.00063392526 0.01591301 0.054336905 0.017535768
000220 ab 1c 2a 3d 8c 49 2b bd ab 4d c0 bc 16 56 68 bd
       0.041531246 -0.041818187 -0.023474535 -0.056722723
000230 27 eb 63 bb a0 12 3a 3d 6c f4 b6 3b 3a 40 0b bd
       -0.0034777613 0.04542792 0.0055833366 -0.033996798
000240 5a fc 2b 3b ab bf df bc 87 3d 68 bd 80 ff 47 3c
       0.0026242943 -0.027313074 -0.056699302 0.012206912
000250 68 85 a3 3c a0 36 b7 bb 90 fc 96 3b 38 a7 b5 3c
       0.019961074 -0.0055912286 0.0046077445 0.022174463
000260 61 8a 49 bd e0 c2 50 bd ce dd 01 bd dd a5 1a 3d
       -0.049204234 -0.050967097 -0.03170567 0.037755836
000270 34 81 36 bd 22 a9 7b bd 2d 21 fb bc 40 21 b5 bb
       -0.04455681 -0.061440594 -0.030655468 -0.0055276453
000280 44 3e 80 3b 76 24 2b 3d ba 23 3c bd 02 6c 48 3d
       0.0039136726 0.04178282 -0.04593251 0.04893113
000290 aa 32 23 3d c9 2a a7 3c c1 e4 55 3d 18 5a 63 3c
       0.03984324 0.020406144 0.05222011 0.0138764605
0002a0 b6 f0 1c 3d c8 66 49 bc 90 14 46 3d d4 f4 a9 bc
       0.038315497 -0.012292571 0.048359454 -0.020746626
0002b0 99 da c8 3c 62 49 e3 39 7e 71 80 3d 62 2c cd 3b
       0.024518298 0.00043351488 0.06271647 0.0062613944
0002c0 75 d0 29 bd 12 29 4e 3d 52 63 c5 bc 76 a5 77 3d
       -0.041458566 0.050332136 -0.024095211 0.06046053
0002d0 4f f3 74 bd 88 9b 0e bd d3 cf 5a bd 45 d9 83 bc
       -0.05980235 -0.034816295 -0.053420853 -0.016094813
0002e0 10 6f 2f bc 50 53 ad bc 0c 49 2f bd a0 68 89 3c
       -0.010707632 -0.02115789 -0.042794272 0.016773522
0002f0 47 4b 0f 3d c0 60 45 bb b1 dd 45 3a 8e 6f 42 bd
       0.0349839 -0.0030117482 0.0007547988 -0.047469668
000300 32 52 b9 3c f2 a6 6c bc 03 95 76 3d b1 9c 80 3d
       0.022622202 -0.0144441 0.060200702 0.062798865
000310 75 b3 1d bd 71 64 62 bd fa aa 47 bb 9d 93 cd bc
       -0.03850122 -0.05527157 -0.00304669 -0.025094802
000320 ab 7e 9e 3c bc 90 f5 3c 8a 5d f7 3c 9c f0 eb 3c
       0.01934751 0.029976241 0.03019597 0.028801255
000330 3f 81 fb bb 38 3c 23 3c 9d 53 2c bd 9b 61 36 3b
       -0.0076753194 0.009963088 -0.042071927 0.0027829173
000340 69 86 49 bd 1a ad d5 bb fe 56 74 3c f4 c7 d1 bc
       -0.04920045 -0.0065208795 0.014913319 -0.02560804
000350 14 e4 7b bd c8 8c 6d bd 60 0d 43 3c f2 3c 27 bd
       -0.06149681 -0.057995588 0.011905044 -0.040829606
000360 68 37 56 3d a4 da cf bc 36 79 5a bd 92 db 14 bd
       0.052298933 -0.02537281 -0.053338252 -0.03634221
000370 af d1 f7 3c b4 63 a8 bb 8c 79 94 bc d2 33 92 3c
       0.030251352 -0.0051388387 -0.018124364 0.017846975
000380 ac a6 3e bd eb 96 56 3d 54 06 05 3b 30 92 e2 3c
       -0.04654567 0.05239002 0.0020297961 0.027657598
000390 92 71 2d bd 51 7e 58 3d 50 78 45 bb a4 32 55 3d
       -0.042344637 0.05285484 -0.0030131526 0.052050248
0003a0 07 27 31 3d bf c8 66 3c 04 ec ae 3b 89 e3 a7 3c
       0.04325011 0.014085948 0.005338194 0.02049424
0003b0 0e 9c 23 bd d8 12 97 bc 9f a7 63 3c 53 16 f0 3c
       -0.039943747 -0.018441603 0.013894944 0.02930752
0003c0 bb 57 3b 3c 6d 83 de bc 78 43 4e 3c e0 8e 3c 3b
       0.011434491 -0.027162278 0.012589328 0.0028771684
0003d0 4a 62 f2 38 c0 7f 63 3b 66 35 7e 3d 2c 7a 53 bd
       0.00011557767 0.0034713596 0.062062643 -0.051630184
0003e0 59 0b 6b bc ed e4 19 3d 92 50 08 3c 66 6f 70 bd
       -0.014345967 0.037571836 0.008319991 -0.058699988
0003f0 66 43 11 3d ea 3b ec bc 8e 67 d9 bc c8 bb 62 3d
       0.035464667 -0.028837163 -0.026538637 0.055354863

net.model.4.bias f4 [16]
000000 33 a2 5c 3d 18 79 6a 3d c5 24 84 3b 9f 52 84 3b
       0.053865623 0.05724439 0.0040327036 0.0040381695
000010 f3 c8 40 bd 0b 04 f9 bb ce 5f 65 3d 3e 00 22 bd
       -0.04706664 -0.007599359 0.05599957 -0.039551012
000020 d8 bf ad bc a4 e5 5b bd 0a 95 c7 bc 1c 27 4a 3d
       -0.021209642 -0.0536858 -0.02436306 0.049353704
000030 94 9c a3 3c 7c 9c 5f 3d 58 ee 48 bd ad 8d 5c bd
       0.019972123 0.054592595 -0.049055427 -0.05384605
