SAC/sac_actor.pth (torch, 291053 bytes, 6 tensors)

net.model.0.weight f4 [256, 7]
0	0xbb575a75	-0.0032860313
1	0x3e4f27dc	0.20230049
2	0xbe9f81c6	-0.31153697
3	0xbe8ea7ad	-0.278623
4	0xbe15baf8	-0.14622104
5	0x3dd060f8	0.10174745
6	0xbc022623	-0.007943663
7	0x3e98ea46	0.29866236
8	0xbd0dd0df	-0.034623023
9	0x3dcaa48b	0.09894665
10	0xbdec1958	-0.115282714
11	0xbd9a2ff2	-0.07528676
12	0xbeb85928	-0.3600552
13	0xbe80b1ba	-0.25135595
14	0xbe1e5ec5	-0.15465839
15	0x3c6634e4	0.014050696
16	0x3e195e82	0.14977458
17	0x3e695a01	0.2278824
18	0xbe82b336	-0.25527352
19	0xbe29a3b1	-0.1656635
20	0x3e0d85f3	0.13820629
21	0x3ea031ce	0.31287998
22	0xbda1980c	-0.07890329
23	0x3e904083	0.2817422
24	0xbd7e103e	-0.06202721
25	0x3d27e940	0.04099393
26	0x3eaf36fd	0.3422164
27	0xbeb41652	-0.3517328
28	0xbe749518	-0.23885
29	0xbdc61316	-0.09671609
30	0xbe17d4aa	-0.14827219
31	0x3ea6af03	0.32555398
32	0xbe7b6b8f	-0.24552749
33	0xbe3162fb	-0.17322914
34	0xbe87ab7a	-0.26498014
35	0xbeb53ffe	-0.35400385
36	0xbe60dd80	-0.21959496
37	0x3ea6ecc0	0.326025
38	0x3e2cd6f7	0.16878878
39	0x3e3b9e5f	0.18322133
40	0x3ca5ae79	0.020224797
41	0xbe460fdf	-0.19341992
42	0x3d82f604	0.0639458
43	0xbeb4afc2	-0.35290343
44	0xbe8bd456	-0.27310437
45	0xbe47874a	-0.19485202
46	0x3e743209	0.23847212
47	0x3e62ed5d	0.2216086
48	0xbe2ba5fc	-0.16762537
49	0xbc6f6ebe	-0.014613805
50	0x3e765e82	0.2405949
51	0x3ebfcd6c	0.37461412
52	0x3e18712c	0.14886922
53	0x3d544f1c	0.051833257
54	0x3e824854	0.25445807
55	0xbe65122c	-0.22370213
56	0x3d903e59	0.07043142
57	0xbe960911	-0.29303792
58	0xbe861fe0	-0.26196194
59	0xbe47efad	-0.19525023
60	0x3e2f1f89	0.17101873
61	0x3e1ba681	0.15200235
62	0xbe6542f3	-0.2238882
63	0x3de9a118	0.11407679
64	0x3e549def	0.20763372
65	0xbd42e858	-0.04758486
66	0x3c6d126f	0.014469727
67	0x3db2b911	0.08726705
68	0x3e700e16	0.23442873
69	0x3eb9ca20	0.36287022
70	0xbe95a3b9	-0.29226473
71	0xbe0cb3f3	-0.1374052
72	0x3e193334	0.14960939
73	0x3ea0deeb	0.31420073
74	0x3ea7dfb0	0.32787848
75	0x3eab482f	0.3345351
76	0x3d9c3be1	0.076286085
77	0xbea8479c	-0.32867134
78	0x3d0e6ae1	0.034769896
79	0xbe7221ad	-0.23645659
80	0xbeb45987	-0.35224554
81	0x3eabf06a	0.3358186
82	0x3e9324a6	0.28738898
83	0xbec10a18	-0.37703013
84	0x3d90e26f	0.07074439
85	0xbd82666a	-0.0636719
86	0xbd7ec39c	-0.062198266
87	0xbe312b10	-0.17301583
88	0x3e14d641	0.14534856
89	0xbe653e18	-0.22386968
90	0x3e0de247	0.13855849
91	0x3e44b4a9	0.19209541
92	0x3e8b1d72	0.27170902
93	0x3e11db8c	0.14243907
94	0xbebeffbb	-0.37304482
95	0xbe7bb6c9	-0.24581446
96	0x3e404391	0.18775775
97	0x3da458a6	0.08024721
98	0xbe96bde2	-0.29441744
99	0xbe600f9b	-0.21880953
100	0x3eb57531	0.35440972
101	0x3e81d2d2	0.25356156
102	0xbe29a162	-0.16565469
103	0xbdc32bcd	-0.09529839
104	0xbeb8f0e7	-0.36121294
105	0xbbde9cba	-0.0067935856
106	0xbe91baf6	-0.28462952
107	0xbe954571	-0.29154542
108	0xbcaa9aa5	-0.020825693
109	0x3d687229	0.056749497
110	0xbe1e80b8	-0.1547879
111	0x3e65a884	0.22427565
112	0xbe6a957b	-0.22908585
113	0x3eb02a1f	0.34407136
114	0x3e852dc8	0.2601149
115	0xbea2a587	-0.31766912
116	0xbdc25aca	-0.09489973
117	0x3c823086	0.015892278
118	0x3d665c44	0.056240335
119	0x3db615c7	0.088908724
120	0x3e16cc54	0.14726382
121	0x3cb08dd1	0.021551998
122	0xbe3df049	-0.18548693
123	0x3e382062	0.17981103
124	0xbeba34d2	-0.36368424
125	0xbe6687bb	-0.22512715
126	0xbdc1c5ec	-0.09461579
127	0xbe3c87bc	-0.18411154
128	0xbe0765e2	-0.13222459
129	0xbe9e9c84	-0.30978787
130	0xbda4a81c	-0.08039877
131	0x3da57674	0.08079234
132	0xbe7c23f5	-0.24623092
133	0xbc9cad68	-0.019125655
134	0x3e89fc56	0.2695033
135	0xbd232d22	-0.039837964
136	0x3c29376e	0.010328157
137	0xbd01e6b6	-0.031714164
138	0x3d9c0f84	0.07620147
139	0x3e75c2c2	0.24000075
140	0x3eb6f148	0.35730958
141	0x3e769784	0.24081236
142	0x3eb84ae0	0.35994625
143	0xbce076ce	-0.0274004
144	0xbeadb69d	-0.33928385
145	0xbe369b61	-0.1783271
146	0x3e83e957	0.25763962
147	0xbb21668e	-0.0024627778
148	0xbe406330	-0.18787837
149	0xbe944d04	-0.28965008
150	0xbeb501e2	-0.35353
151	0xbea34c29	-0.31894043
152	0xbd9d93fc	-0.076942414
153	0x3e543b1c	0.20725673
154	0x3e505772	0.20345858
155	0xbebb2e09	-0.3655856
156	0x3e70490b	0.23465364
157	0xbe97fdad	-0.29685727
158	0xbda221db	-0.07916614
159	0xbe1d28fe	-0.15347669
160	0xbd9761a7	-0.073916726
161	0xbd9637e0	-0.07334876
162	0xbead364c	-0.33830488
163	0xbea6a633	-0.32548675
164	0xbd6f6c5e	-0.058452956
165	0x3bb9e19b	0.005672646
166	0xbe308ba2	-0.17240766
167	0x3e12ae91	0.14324404
168	0xbeae8442	-0.3408528
169	0xbcd2e956	-0.025746029
170	0x3eaa3841	0.33246043
171	0xbe1d9f63	-0.15392832
172	0x3eae3368	0.34023595
173	0x3e0c8532	0.13722685
174	0xbeaf2518	-0.34207988
175	0x3e75be03	0.23998265
176	0xbd2f2fa3	-0.04277004
177	0xbe2be91b	-0.16788141
178	0x3e9b177b	0.30291352
179	0xbe9bf9fa	-0.30464154
180	0x3d23bc4e	0.039974503
181	0xbda0540d	-0.078285314
182	0x3e899a44	0.26875508
183	0x3dd66fee	0.10470568
184	0x3e3922b9	0.18079652
185	0x3e079f10	0.13244271
186	0xbdb84012	-0.089965954
187	0xbda05e77	-0.07830518
188	0xbea00581	-0.312542
189	0x3e52b634	0.20577317
190	0x3e9a4342	0.3012944
191	0x3e850340	0.25979042
192	0xbe87e646	-0.26542872
193	0x3c8834db	0.016626766
194	0xbe887864	-0.2665435
195	0xbe53d754	-0.2068761
196	0xbe61871d	-0.22024198
197	0x3e04447a	0.12916747
198	0xbe66a3be	-0.225234
199	0xbc071ac6	-0.008246129
200	0x3c824141	0.015900256
201	0x3e797df9	0.24364461
202	0xbe9248b4	-0.28571093
203	0xbe852b29	-0.2600949
204	0xbe61de74	-0.22057515
205	0x3e86d9d7	0.26338074
206	0xbe0c4d22	-0.13701299
207	0x3ea2d4bf	0.31802937
208	0x3e0c75b6	0.13716778
209	0x3d3f39a2	0.046685822
210	0xbb5e6edc	-0.003394059
211	0xbd99db2a	-0.07512505
212	0x3d3ddb9d	0.046352018
213	0xbdb3179c	-0.087447375
214	0xbb54688e	-0.0032410952
215	0x3d47e6fc	0.04880427
216	0xbe97e915	-0.29670015
217	0xbe4adb87	-0.19810306
218	0x3e9c43a4	0.30520356
219	0xbe9d0c7a	-0.3067358
220	0xbcde551a	-0.027140189
221	0x3ebf6f71	0.3738971
222	0x3e0bcfc5	0.13653477
223	0x3c2f549a	0.010701323
224	0xbea7b457	-0.32754776
225	0x3e3fba98	0.18723524
226	0xbe89d6c9	-0.2692168
227	0xbddbbb2d	-0.1072906
228	0xbe01db55	-0.12681325
229	0xbd6542a7	-0.055971768
230	0x3b8778e3	0.004134284
231	0x3e9f067c	0.31059635
232	0x3d3cbd4a	0.046078958
233	0x3eacc525	0.3374416
234	0x3e6b959b	0.23006289
235	0xbe73f541	-0.23824026
236	0x3e2ece2f	0.1707084
237	0xbe895ff2	-0.26831013
238	0xbe22fc13	-0.15916471
239	0x3de60c6f	0.1123284
240	0x3e0100cb	0.12597959
241	0x3e91c68e	0.28471798
242	0xbdfa5e9b	-0.12225076
243	0x398ffd1d	0.0002746367
244	0x3e487684	0.1957646
245	0xbeba9194	-0.36439192
246	0x3e8c7d8e	0.2743954
247	0xbe9f7138	-0.31141067
248	0x3bd023a6	0.006351906
249	0xbd8135bc	-0.06309077
250	0xbe4cfb49	-0.20017733
251	0x3d513e1c	0.051084623
252	0x3ea00604	0.3125459
253	0xbde246b1	-0.110486396
254	0xbe65c7e0	-0.22439528
255	0xbe0f240b	-0.13978593

net.model.0.bias f4 [256]
0	0x3e9a03e0	0.3008108
1	0x3e49f041	0.19720556
2	0x3e1be02a	0.1522223
3	0xbdcb26be	-0.09919499
4	0x3e4c60f6	0.19958863
5	0x3e3b4279	0.18287076
6	0x3e06fc4a	0.13182178
7	0xbc459212	-0.012058752
8	0x3d63eda6	0.05564656
9	0x3abf4f29	0.0014595735
10	0xbe8be52e	-0.27323288
11	0x3db28246	0.08716254
12	0xbe8e4383	-0.27785882
13	0x3e3d049d	0.18458791
14	0xbe67cae2	-0.22635987
15	0xbdfcd9cb	-0.12346228
16	0xbe366dc2	-0.17815307
17	0x3e9827ab	0.29717764
18	0xbe884762	-0.2661696
19	0x3e45e26d	0.19324656
20	0x3e43482d	0.19070502
21	0x3e891820	0.26776218
22	0x3dbf9b96	0.093558475
23	0x3e52c637	0.20583425
24	0x3e9865d3	0.29765186
25	0x3d9614e1	0.07328201
26	0x3e027841	0.12741186
27	0xbe96b5fe	-0.29435724
28	0xbdcfa106	-0.10138135
29	0x3d07815f	0.033082362
30	0x3d37af64	0.044845
31	0xbe08bd79	-0.13353528
32	0xbebfd76d	-0.37469044
33	0xbdcb9675	-0.09940807
34	0x3e1564a4	0.14589173
35	0x3ea73906	0.32660693
36	0xbeaec092	-0.34131294
37	0x3e3a02bc	0.18165106
38	0xbeb73ad6	-0.35787076
39	0xbeb90fba	-0.3614481
40	0xbe726102	-0.23669818
41	0xbd4c7bd8	-0.049922794
42	0x3dd5cb33	0.10439148
43	0xbe932c26	-0.2874462
44	0x3e947d2d	0.29001752
45	0x3eaf9c41	0.342989
46	0x3cc85ba5	0.024457762
47	0x3e9d80b1	0.30762246
48	0xbe2fae8f	-0.17156433
49	0xbe19b145	-0.15009029
50	0xbd47c7b2	-0.04877443
51	0x3d2d69e2	0.042337306
52	0xbe8796ea	-0.26482326
53	0xbe9af4fc	-0.30265033
54	0x3e17b75b	0.14816038
55	0x3ddcc8d7	0.10780495
56	0x3ebd5c97	0.36984703
57	0xbe1dcca7	-0.154101
58	0x3e092ef0	0.13396811
59	0xbe1c2f0b	-0.1525232
60	0x3e3ea4c7	0.18617545
61	0xbcae2f41	-0.021262767
62	0x3e8eef3b	0.27916893
63	0x3e583b57	0.21116386
64	0x3ea1ab67	0.31576082
65	0x3e48167c	0.19539827
66	0x3c77f057	0.015132985
67	0x3ea65779	0.3248861
68	0xbe635673	-0.22200947
69	0x3eb5f5ef	0.35539195
70	0x3ebc881d	0.36822596
71	0x3eb8aa5c	0.36067474
72	0xbe33b255	-0.17548497
73	0xbe4d12f2	-0.20026758
74	0x3ccd9e93	0.025100028
75	0x3deec065	0.1165779
76	0x3e40fa06	0.18845376
77	0x3e1e81b4	0.15479165
78	0x3ea42caf	0.3206534
79	0xbdc1ef98	-0.09469527
80	0xbdfdf3c7	-0.124000125
81	0x3e009c7d	0.12559696
82	0x3dd80ece	0.10549699
83	0xbe61c4c1	-0.22047712
84	0x3d129cf5	0.035794217
85	0xbe926745	-0.28594413
86	0xbde316b1	-0.110883124
87	0xbe17e6ac	-0.14834088
88	0x3ea90c8e	0.3301739
89	0xbeae331b	-0.34023365
90	0xbe635f7f	-0.22204398
91	0xbebd61e0	-0.36988735
92	0x3dc3d487	0.09562021
93	0xbe94f2d2	-0.29091507
94	0x3dfce0be	0.12347554
95	0xbe85d8d5	-0.26141992
96	0xbe76c72e	-0.24099419
97	0xbe45ba20	-0.19309282
98	0x3d6c106b	0.057632845
99	0x3eb269ca	0.34846336
100	0x3eb524d4	0.3537966
101	0xbce1c585	-0.027560005
102	0xbebd8cd2	-0.370215
103	0xbdffbbdd	-0.12487004
104	0xbe1380e8	-0.14404643
105	0xbda4a442	-0.08039142
106	0x3e12cd4c	0.14336127
107	0x3e43d9ec	0.191261
108	0x3e2a75e3	0.16646533
109	0x3ddf5ce4	0.10906389
110	0xbe1dc876	-0.15408501
111	0xbb83624d	-0.004009521
112	0x3d40738b	0.04698519
113	0xbe46b063	-0.19403224
114	0xbd0f3782	-0.034965046
115	0xbd4140c3	-0.047180902
116	0xbeb6d68d	-0.35710564
117	0x3e82aa54	0.25520575
118	0xbd17fdc9	-0.037107263
119	0xbea749d2	-0.32673508
120	0x3e98b45e	0.2982511
121	0xbe5040fa	-0.20337287
122	0x3e0a26a3	0.13491301
123	0x3ebf6684	0.373829
124	0x3c98cde9	0.018652873
125	0x3de05cd7	0.10955208
126	0x3e18a0f2	0.14905146
127	0x3e92d458	0.2867763
128	0xbdeb0d61	-0.11477161
129	0xbe59cad3	-0.21268778
130	0xbce8b2b0	-0.028405517
131	0x3e97f320	0.29677677
132	0x3d008d15	0.031384546
133	0x3e860873	0.2617832
134	0xbb812c23	-0.003942029
135	0x3ded3306	0.115819976
136	0x3c6a9bdb	0.014319385
137	0x3c38e2d3	0.011284548
138	0xbeb827c3	-0.35967836
139	0xbea92e0d	-0.33042946
140	0x3cfd2028	0.030899122
141	0x3e40aa54	0.18814975
142	0x3e82128b	0.25404772
143	0x3c8ff902	0.01757479
144	0x3e222b3d	0.15836807
145	0x3e22e4f2	0.15907648
146	0xbea70e00	-0.3262787
147	0xbeaa16da	-0.3322056
148	0xbe960b13	-0.29305324
149	0x3be0ed3e	0.006864219
150	0xbe739c83	-0.23790173
151	0xbdf7b680	-0.12095356
152	0xbd679fba	-0.05654881
153	0x3e15d042	0.14630225
154	0x3db142aa	0.08655293
155	0x3eb2ee55	0.34947458
156	0x3eadf364	0.33974755
157	0xbe76e977	-0.24112497
158	0xb8eb8082	-0.0001122961
159	0x3d7b5d3e	0.06136822
160	0x3ea98324	0.33107865
161	0xbdefe6a5	-0.11713914
162	0xbe181b18	-0.14854085
163	0xbe752b8d	-0.23942395
164	0x3e8e05c1	0.27738765
165	0xbdd90e35	-0.10598413
166	0xbe110ecd	-0.14165802
167	0x3e824e36	0.25450295
168	0x3eb18f98	0.34679866
169	0xbc827b45	-0.01592792
170	0xbe88d75c	-0.26726806
171	0x3e9e486c	0.30914629
172	0xbe045e37	-0.12926565
173	0xbe325b0a	-0.17417541
174	0xbe88a244	-0.266863
175	0xbe3b5282	-0.18293193
176	0xbe981925	-0.29706684
177	0xbe608228	-0.2192465
178	0xbeb0d729	-0.34539154
179	0xbd9def3e	-0.077116475
180	0x3e1cbe7c	0.15307039
181	0xbe927cc6	-0.2861082
182	0xb9ff8a9c	-0.00048740662
183	0xbe0fb90c	-0.14035434
184	0x3e3aef6f	0.18255399
185	0x3ea83338	0.32851577
186	0xbd4b3b40	-0.049617052
187	0xbe42cb7f	-0.1902294
188	0xbe941cec	-0.28928316
189	0xbe64321a	-0.22284737
190	0x3ddd29e8	0.107990086
191	0x3db301a8	0.0874055
192	0x3e4fbc0c	0.20286578
193	0xbd613b54	-0.05498822
194	0x3e47cc51	0.19511534
195	0xbeac68d1	-0.3367372
196	0x3dcd9fdc	0.100402564
197	0x3ebb5a8e	0.36592525
198	0xbebf8636	-0.37407082
199	0xbe48ebbb	-0.19621174
200	0x3e769034	0.24078447
201	0xbd720cd1	-0.059094254
202	0xbe4eb62b	-0.20186679
203	0x3e6ca0e8	0.23108256
204	0x3cc5c794	0.024143018
205	0x3c61b46e	0.013775928
206	0xbdeb1ca5	-0.11480073
207	0x3e9138dd	0.28363696
208	0x3e57eaf4	0.21085721
209	0x3d885ad5	0.0665795
210	0x3d708d1d	0.058728326
211	0x3e46eccc	0.19426268
212	0x3e703874	0.23459035
213	0xbe1ec337	-0.15504156
214	0xbd2e0150	-0.04248172
215	0x3e2b2562	0.16713479
216	0xbe3b8c97	-0.1831535
217	0x3eb46c1f	0.3523874
218	0xbe848f3f	-0.25890538
219	0x3e315db4	0.17320901
220	0xbe8b44e0	-0.27200985
221	0x3df640aa	0.120240524
222	0x3e8697dc	0.26287735
223	0x3d3eb139	0.04655573
224	0xbd1b2aca	-0.037882604
225	0x3e768d9c	0.24077457
226	0xbe8a7102	-0.27039343
227	0xbe81fcc0	-0.25388145
228	0xbea4637f	-0.3210716
229	0xbe6e3d4b	-0.23265569
230	0x3c329ecf	0.010902121
231	0xbe2f7fea	-0.17138639
232	0x3daee7a8	0.08540279
233	0x3c463eb8	0.012099914
234	0x3ea1a373	0.31570014
235	0xbe26c380	-0.16285515
236	0xbdd1e8e3	-0.10249498
237	0x3e80888c	0.25104177
238	0xbdc6300c	-0.09677133
239	0x3eb8aed0	0.3607087
240	0xbe19b90c	-0.15011996
241	0xbbab003d	-0.0052185343
242	0xbdb50a7c	-0.0883989
243	0x3e337e28	0.17528594
244	0x3e1316be	0.14364144
245	0xbe4f2490	-0.20228791
246	0x3e8008c8	0.250067
247	0xbccd5a04	-0.025067337
248	0xbdc25167	-0.094881825
249	0xbbf9d420	-0.007624164
250	0x3e86122b	0.26185736
251	0x3ebd3e8c	0.36961782
252	0x3e3cfa4f	0.1845486
253	0x3d8999f8	0.0671882
254	0x3e7dc9c8	0.24784005
255	0xbe21d889	-0.15805258

net.model.2.weight f4 [256, 256]
0	0xbd0a74aa	-0.033802666
1	0xbc9d39b3	-0.019192552
2	0xbd2a5fa6	-0.041595124
3	0x3cd3db25	0.025861332
4	0x3b9d35fa	0.0047976943
5	0xbcb88ae1	-0.02252716
6	0xbbf51f1f	-0.0074805166
7	0xbb132b8c	-0.0022456376
8	0x3d56d969	0.052453432
9	0x3d600ab9	0.054697726
10	0xbd4514c2	-0.0481155
11	0x3cb2577b	0.02177023
12	0x3cc5b524	0.024134226
13	0x3cba6654	0.022753872
14	0xbc0b9a80	-0.008520722
15	0x3c800b8c	0.015630506
16	0x3c80d680	0.015727282
17	0x3d747c19	0.05968866
18	0xbd755b86	-0.059901737
19	0xbccba68a	-0.024859685
20	0xbd30ed5a	-0.043195106
21	0xbd00d8d2	-0.031456776
22	0x3c36491e	0.011125831
23	0x3d177841	0.036979917
24	0xbd464641	-0.048406843
25	0x3d21d93e	0.03951382
26	0x3d512662	0.051061995
27	0xbcfc5e50	-0.03080669
28	0x3c32ba40	0.010908663
29	0xbd081bf1	-0.033229772
30	0x3c489db1	0.012244628
31	0xbced5ff8	-0.028976426
32	0xbcc773bc	-0.024347179
33	0xbd2f7bc1	-0.04284263
34	0xbd5a2989	-0.053262267
35	0x3d479fb5	0.048736293
36	0xbc015080	-0.007892728
37	0xbb3c8d33	-0.0028770685
38	0xbcfece8c	-0.031104349
39	0x3d326eca	0.043562688
40	0xbd128710	-0.035773337
41	0xbccf15a8	-0.025278881
42	0xbd4c86e2	-0.04993332
43	0xbd5743f2	-0.052555032
44	0x3d5e9abe	0.054346792
45	0xbd4a5c86	-0.049404643
46	0xbc1ffdb7	-0.00976508
47	0xbc9d8982	-0.019230608
48	0x3cb35a40	0.02189362
49	0x3c80d231	0.015725227
50	0xbd443f4e	-0.047911935
51	0x3d613732	0.05498428
52	0xbd7f0288	-0.062258273
53	0x3bca8f30	0.00618162
54	0xbbd09f1f	-0.006366625
55	0xbc800855	-0.015628973
56	0x3d29c999	0.041452024
57	0x3d582524	0.052769795
58	0x3be55969	0.006999184
59	0xbcb4d680	-0.022074938
60	0x3d39a517	0.045323458
61	0x3d1cacd9	0.038250778
62	0x3c2534c0	0.010083377
63	0xbc956864	-0.018238254
64	0x3ac381f4	0.0014916048
65	0x3d5f7c34	0.05456181
66	0x3bb8a749	0.0056351763
67	0xbc5c8888	-0.013460286
68	0xbd58be66	-0.052915953
69	0xbd0ddece	-0.03463631
70	0x3d3435ea	0.04399673
71	0xbb5b33f8	-0.0033447724
72	0xbb8861f0	-0.0041620657
73	0x3cc75a48	0.024335042
74	0xbd2d1db3	-0.04226465
75	0xbbafc0b8	-0.00536355
76	0xbc994fc1	-0.018714787
77	0x3d0142a0	0.03155768
78	0x3d4ba9cc	0.049722478
79	0x3d20be8e	0.039244227
80	0x3d3edcbc	0.046597227
81	0xbd697940	-0.0570004
82	0xbcbf19dd	-0.023327762
83	0x3bf28410	0.007400997
84	0xbd5e2044	-0.05422999
85	0x3c8ae440	0.016954541
86	0xbd27cda6	-0.040967606
87	0x3cdb65fc	0.026782028
88	0x3d4a821c	0.04944049
89	0xbd5afeb6	-0.053465568
90	0x3d568364	0.052371398
91	0x3ceee660	0.029162586
92	0xbd2d97d4	-0.042381123
93	0x3d750998	0.059823602
94	0xbd626377	-0.05527064
95	0xbd2c5820	-0.04207623
96	0xbcfeb134	-0.031090356
97	0xbb4f6a40	-0.0031649023
98	0x3c252075	0.010078539
99	0xbc9f9945	-0.019482264
100	0xbd775156	-0.060380302
101	0xbc06bdbc	-0.008223947
102	0x3d423b36	0.04741975
103	0x3d451a9c	0.04812108
104	0x3d0026cc	0.031287
105	0x3c14ac68	0.009074308
106	0x3c6bb08e	0.014385356
107	0xbd4a0769	-0.049323473
108	0x3cc5ffc5	0.024169812
109	0xbd81b7f6	-0.06333916
110	0xbcd370c8	-0.025810614
111	0xbc868d58	-0.01642482
112	0x3d3755f6	0.044759713
113	0xbaeecd40	-0.0018219128
114	0xbcf18151	-0.029480608
115	0x3c32e6d8	0.010919295
116	0xbd546bd4	-0.051860645
117	0xbc90e8d3	-0.017689144
118	0x3c8db739	0.017299281
119	0xbb87a2c0	-0.0041392744
120	0xbbfc85dc	-0.007706387
121	0x3d1c75fa	0.03819845
122	0xbd47257f	-0.048619743
123	0xbd05f0ad	-0.03270023
124	0x3d731c8e	0.059353404
125	0x3c3900bc	0.011291679
126	0xbc388b54	-0.011263687
127	0x3cffd5d2	0.031229887
128	0x3d1a0170	0.037599027
129	0xbc2b1c90	-0.010443822
130	0xbcda1d34	-0.026625253
131	0xbc3a19b0	-0.011358663
132	0x3cb08cb7	0.021551473
133	0xbc15735f	-0.009121745
134	0x3d10d219	0.035356615
135	0xbd556a4a	-0.05210332
136	0xbd023dda	-0.031797267
137	0x3d3e7db4	0.0465066
138	0x3c065668	0.008199312
139	0x3c4e3460	0.012585729
140	0x3c9f0a54	0.019414105
141	0xbc8259d6	-0.015911978
142	0xbcd61df6	-0.026137333
143	0x3c8998ed	0.016796554
144	0xbc910eb7	-0.017707212
145	0xbcdcdcdb	-0.02696078
146	0x3c0749d8	0.008257352
147	0x3c77afc0	0.015117586
148	0xbbb8ead0	-0.005643226
149	0xbd31c293	-0.04339845
150	0xbc1ad4c0	-0.009450138
151	0xbd11150e	-0.03542047
152	0x3d06bcb2	0.032894798
153	0xbd2e494b	-0.042550366
154	0x3d476d40	0.048688173
155	0x3cc28fdd	0.02375024
156	0xbd5fe46d	-0.054661203
157	0x3d3dfa54	0.04638131
158	0xbd80a420	-0.06281304
159	0xbb9c4b5d	-0.004769726
160	0xbd2480f2	-0.040162034
161	0xbd5c3b00	-0.053767204
162	0x3bcaea70	0.006192498
163	0xbcf83f68	-0.030303672
164	0x3d345c1c	0.044033155
165	0xbd4d4a71	-0.05011982
166	0x3d547c60	0.051876426
167	0x3d15c226	0.036562108
168	0x3d5b8a8e	0.053598933
169	0xbc95ee18	-0.018302009
170	0xbd1cea9e	-0.038309686
171	0xbd2ec027	-0.04266372
172	0x3d54e1ce	0.051973157
173	0xbcfea808	-0.031085983
174	0xbbfc2a40	-0.0076954663
175	0xbc1dd5f8	-0.009633534
176	0x3c302aa8	0.010752358
177	0xbd52117c	-0.051286206
178	0x3d4e6c40	0.050396204
179	0xbd408135	-0.04699822
180	0x3d771a59	0.06032786
181	0xbcc85668	-0.024455264
182	0xbceccca6	-0.028906178
183	0xbc0cc058	-0.00859078
184	0x3c8e291e	0.01735359
185	0xbc506bc1	-0.012721003
186	0xbd81cf02	-0.06338312
187	0x3d3410f4	0.04396148
188	0x3d7d90a4	0.06190552
189	0x3d0128cc	0.031533048
190	0x3d75d022	0.060012944
191	0x3c822b87	0.015889896
192	0xbbc5f9d1	-0.0060417433
193	0xbd500772	-0.05078835
194	0xbd646e5f	-0.05576932
195	0xbd304156	-0.04303106
196	0xbc8b3fc5	-0.016998181
197	0x3d10651f	0.035252687
198	0xbcd33e34	-0.025786497
199	0xbb1f15e0	-0.0024274513
200	0xbb047529	-0.0020211434
201	0xbd275780	-0.04085493
202	0xbaddc240	-0.0016918853
203	0x3d728340	0.0592072
204	0x3d47f43f	0.048816916
205	0x3d3e5157	0.04646429
206	0xbbc9fca0	-0.0061641484
207	0xb8128513	-3.4933048e-05
208	0x3d074828	0.033027798
209	0xbcb39c34	-0.02192507
210	0xbcd8dd3a	-0.026472677
211	0x3d565974	0.052331403
212	0x3b1eda8d	0.0024239153
213	0xbd2cda58	-0.042200416
214	0x3d539055	0.051651318
215	0x3c1738c6	0.009229844
216	0x3d08f988	0.033441097
217	0xbd6305c6	-0.055425428
218	0x3c3e0680	0.011598229
219	0x3d17eabd	0.0370891
220	0xbc13ba38	-0.009016566
221	0xbd16321e	-0.03666889
222	0x3d482496	0.048863016
223	0x3ce4d814	0.027935065
224	0x3c91d20c	0.017800353
225	0x3c5f7fc6	0.013641303
226	0x3ab4cf80	0.001379475
227	0x3d12ceb8	0.035841674
228	0xbc5fdab8	-0.013662986
229	0xbd16b16c	-0.036790296
230	0x3cba3a3b	0.022732845
231	0x3c889970	0.016674727
232	0x3cb990f6	0.02265213
233	0xbc0483c3	-0.008088055
234	0xbc1aa299	-0.00943818
235	0xbba2c5e0	-0.004967436
236	0x3c87016c	0.01648017
237	0xbd491d05	-0.04909994
238	0xbd6cf842	-0.057853945
239	0x3cb63c5d	0.02224558
240	0xbd0c2934	-0.03421898
241	0xbbcd15a0	-0.0062586814
242	0x3c944de2	0.018103544
243	0x3bf9ef42	0.0076273987
244	0x3d20580b	0.039146464
245	0x3c063ac0	0.008192718
246	0x3c6ad021	0.014331848
247	0xbbd822cd	-0.0065959455
248	0x3c06b901	0.008222819
249	0x3cbbbcec	0.022917233
250	0x3d29f61d	0.041494478
251	0xbd773ed8	-0.060362667
252	0xbcdea24c	-0.027176999
253	0xbd6a67d1	-0.057227913
254	0xbcd581fa	-0.026062954
255	0x3d1c0d68	0.038098723

net.model.2.bias f4 [256]
0	0x3ca1d086	0.019752752
1	0x3cd2bcf4	0.025724865
2	0x3cb9a284	0.022660501
3	0x3d5c2b2c	0.05375211
4	0x3d5169f6	0.051126443
5	0xbc221690	-0.009893075
6	0xbc18d4d8	-0.00932809
7	0x3ca9ee2d	0.020743454
8	0xbcc337d8	-0.02383034
9	0xbd6463e2	-0.05575932
10	0xbcfe0fb0	-0.03101334
11	0xbba7b620	-0.0051181465
12	0xbceb0f5c	-0.028693847
13	0x3d1b0bc9	0.037853036
14	0xbd38afde	-0.045089595
15	0xbbb261a7	-0.00544377
16	0xbd4d6deb	-0.050153654
17	0xbbe67cb5	-0.007033909
18	0xbd05f4b8	-0.032704085
19	0xbd27650c	-0.04086785
20	0xbcfd87ea	-0.030948598
21	0xbc5a472c	-0.013322633
22	0xbc4eed39	-0.0126298005
23	0x3ce209a9	0.027592497
24	0x3d2672c7	0.040636804
25	0x3c781a58	0.015143
26	0xbc8dfde1	-0.017332973
27	0x3d41abd7	0.04728302
28	0xbd0039de	-0.031305186
29	0x3d6e5c49	0.05819348
30	0x3d27c119	0.040955637
31	0xbd071640	-0.032980204
32	0x3cb109ce	0.02161112
33	0xbd5162fc	-0.05111979
34	0xbd0d4338	-0.034487933
35	0x3c88adbf	0.016684411
36	0x3d21f056	0.039535843
37	0xbd62e10e	-0.05539041
38	0x3d7fe193	0.062470984
39	0xbd30c4c1	-0.04315639
40	0xbd721baf	-0.059108432
41	0x3d082339	0.033236716
42	0x3c9bff2c	0.019042574
43	0x3c48de51	0.012260036
44	0x3d07f407	0.033191707
45	0x3c0ed67b	0.008718128
46	0x3c91d6b4	0.017802574
47	0x3ca507a1	0.02014524
48	0xba208700	-0.0006123632
49	0x3d7729b1	0.060342494
50	0x3d1d8ed7	0.0384663
51	0xbd5bc214	-0.053651884
52	0xbd004034	-0.03131123
53	0xbd546790	-0.051856577
54	0x3d001e3f	0.031278845
55	0x3d7f8500	0.062382698
56	0xbd6c7317	-0.057726946
57	0xbd2c80b0	-0.042114913
58	0xbc3f87a8	-0.011690058
59	0xbd7a8d4c	-0.061169907
60	0xbc9f2046	-0.019424569
61	0x3d1bbebf	0.038023707
62	0x3d56b92a	0.05242268
63	0xbc449d3f	-0.012000381
64	0xbd550be6	-0.0520133
65	0xbd7dad50	-0.06193286
66	0x3c9e2375	0.019304017
67	0x3d4fe552	0.050755806
68	0x3d07aca2	0.03312362
69	0x3b7f0b5d	0.0038916685
70	0x3d04e930	0.032448947
71	0xbd6e731e	-0.058215253
72	0x3d572bed	0.052532125
73	0xbbbcadb0	-0.00575801
74	0xbd50a3b5	-0.050937373
75	0x3cd1ae50	0.025595814
76	0xbd0d590c	-0.03450875
77	0x3d5eb79e	0.05437433
78	0xbd0737b7	-0.03301212
79	0xbcf86f50	-0.030326515
80	0x3d603b4e	0.054744057
81	0x3d2f6fac	0.042831108
82	0x3c734537	0.014848045
83	0x3c902a5f	0.01759833
84	0x3caa1c08	0.02076532
85	0xbd3a2e1a	-0.045454122
86	0x3cf74dac	0.030188404
87	0x3d6432c3	0.055712473
88	0x3d237cbb	0.039913874
89	0xbd1d91b3	-0.038469028
90	0x3d2d3277	0.042284455
91	0xbca65f68	-0.020309165
92	0x3c08fff8	0.008361809
93	0xbc1adec1	-0.009452523
94	0xbd519a74	-0.05117269
95	0x3d1ff979	0.039056275
96	0xbd3035c0	-0.04302001
97	0x3c7472e5	0.014919971
98	0x3ba5e41d	0.0050625936
99	0xbd7f159e	-0.062276475
100	0xbcf5b7dc	-0.029994898
101	0x3d6b474b	0.057441037
102	0x3c884031	0.016632171
103	0xbd58a9bc	-0.052896246
104	0x3cde25ed	0.027117694
105	0xbcfd3ddc	-0.030913286
106	0x3d75515f	0.059892055
107	0xbc740b08	-0.014895208
108	0x3c81bcfe	0.015837189
109	0xbd54d0ea	-0.05195705
110	0xbd3c62d8	-0.045992702
111	0xbd3d9408	-0.04628375
112	0xbbf70300	-0.0075381994
113	0xbc6a6610	-0.01430656
114	0x3c19c7c4	0.009386007
115	0x3d0d6e5d	0.03452908
116	0x3cc2a664	0.023760982
117	0xbbfe9cc0	-0.007770151
118	0x3ae27500	0.00172773
119	0xbb8cbddd	-0.0042950944
120	0xbd564f5d	-0.05232178
121	0x3d598b84	0.053111568
122	0xbd0b6980	-0.03403616
123	0x3c7bdda0	0.015372664
124	0x3cec8691	0.02887276
125	0xbcff3670	-0.031153888
126	0x3d72e72c	0.059302494
127	0x3d316148	0.043305665
128	0x3d749e80	0.05972147
129	0xbbd76f28	-0.00657453
130	0xbcb393cd	-0.021921063
131	0xbd02fe06	-0.031980537
132	0xbd7a8bb0	-0.061168373
133	0xbd490541	-0.049077276
134	0x3a984480	0.0011617094
135	0xbb8fa4d3	-0.0043836622
136	0xbc3d55e8	-0.011556126
137	0x3d44b9e2	0.048028834
138	0xbca70ce3	-0.020391887
139	0xbd3532c5	-0.04423787
140	0x3d3544b8	0.04425499
141	0xbc8f1c5c	-0.017469577
142	0x3c88ce92	0.016700063
143	0x3c66787f	0.014066814
144	0x3d15c4d7	0.036564674
145	0x3d7aa98b	0.061196845
146	0xbbe8fdb7	-0.0071103233
147	0xbd316aaa	-0.043314613
148	0x3d29e32e	0.04147642
149	0xbcfd55ec	-0.03092476
150	0xbd0500d0	-0.032471478
151	0x3d37fdb2	0.044919677
152	0xbd702565	-0.058629412
153	0x3cbcc44c	0.02304282
154	0x3d52180e	0.05129247
155	0xbd16f2ef	-0.036852773
156	0xbd22635e	-0.039645545
157	0x3d728de4	0.05921735
158	0xbd7b323f	-0.061327215
159	0x3cccb360	0.024987876
160	0x3c939650	0.01801601
161	0x3d4b82a6	0.049685143
162	0x3c664de2	0.014056655
163	0xbced1d0b	-0.028944513
164	0xbd64b748	-0.055838853
165	0x3d2b3f95	0.041808683
166	0x37eb9d23	2.8087356e-05
167	0x3b5c71c0	0.0033637136
168	0x3ca6182e	0.020275202
169	0x3d66b0e9	0.05632106
170	0x3c8c34e4	0.017115064
171	0x3d5a9100	0.05336094
172	0x3cb2fd60	0.021849334
173	0xbcd87ff8	-0.026428208
174	0x3c58d415	0.013234158
175	0xbc43baf8	-0.011946432
176	0xbc385f75	-0.0112532275
177	0xbb25cfe0	-0.0025300905
178	0xbc54ccab	-0.01298825
179	0x3bb9ddbd	0.005672185
180	0xbd2de631	-0.042455856
181	0xbd67e00c	-0.056610152
182	0xbcf71541	-0.030161502
183	0x3d0a07a2	0.033698685
184	0xbd0fad0e	-0.035077147
185	0xbd160dcc	-0.03663425
186	0xbb95eccb	-0.004575347
187	0x3d200079	0.03906295
188	0x3d627aa0	0.055292726
189	0x3b8a5160	0.0042211264
190	0x3d105f36	0.03524705
191	0xbc69dd00	-0.014273882
192	0xbc162d2b	-0.009166042
193	0xbc6cc64d	-0.014451575
194	0x3d3384ff	0.043828007
195	0x3c98bd72	0.018645022
196	0xbbea6dde	-0.0071542105
197	0x3d646833	0.055763435
198	0x3a837616	0.0010029699
199	0x3cef29db	0.029194763
200	0x3cf3dd81	0.029768707
201	0xbc8277d6	-0.015926283
202	0x3d2806e3	0.041022193
203	0xbc6c0410	-0.014405265
204	0xbd6280ae	-0.0552985
205	0xbcf84858	-0.030307934
206	0x3cd66ca3	0.026174849
207	0x3d049465	0.032368083
208	0xbc5f0bb8	-0.013613634
209	0xbb10240f	-0.002199415
210	0x3d48fb94	0.04906805
211	0xbc58132b	-0.013188164
212	0x3c8c84f0	0.017153233
213	0xbc151910	-0.009100214
214	0xbd2cb880	-0.04216814
215	0xbcf3b288	-0.029748216
216	0x3cd3eb9c	0.025869183
217	0x3c506ef8	0.0127217695
218	0xbbccfe60	-0.00625591
219	0xbc605f57	-0.013694606
220	0x3c829590	0.015940458
221	0x3d6b7f23	0.057494294
222	0xbc80993e	-0.015698072
223	0xbcd4ffc2	-0.026000861
224	0xbd1a3902	-0.037652023
225	0x3b3c0a8d	0.0028692812
226	0x3d29704e	0.041366868
227	0x3cdbbc5f	0.02682322
228	0xbd66ecd4	-0.0563782
229	0xbd00d78c	-0.03145556
230	0xbd49601e	-0.04916393
231	0x3c8f7dc5	0.017516026
232	0x3d262558	0.040562958
233	0x3d3bfc17	0.04589471
234	0xbc8a3e2b	-0.016875347
235	0x3c8f7df9	0.017516123
236	0x3accd700	0.001562804
237	0xbd6dad30	-0.058026493
238	0x3d56f545	0.05248
239	0x3d197e12	0.037473746
240	0xbd694fae	-0.056960754
241	0x3d5c59a6	0.053796433
242	0x3cf9751c	0.03045135
243	0xbd41585c	-0.047203407
244	0x3d2b1df8	0.041776627
245	0xbd5c1276	-0.053728543
246	0x3d235430	0.03987521
247	0xbb01f289	-0.00198284
248	0xbc8205ef	-0.01587197
249	0x3cb6eec5	0.022330651
250	0x3d0247fa	0.031806923
251	0xbd38f304	-0.045153633
252	0x3d180d80	0.03712225
253	0xbc95e3df	-0.018297134
254	0x3d514c56	0.05109819
255	0x3d7b4bfa	0.061351754

net.model.4.weight f4 [16, 256]
0	0x3d7693f2	0.060199685
1	0x3d15d4a0	0.036579728
2	0xbcaabc60	-0.020841777
3	0xbcaeb689	-0.021327274
4	0xbd12a62b	-0.035803
5	0xbd14f8d8	-0.03637013
6	0xbd61baa8	-0.05510965
7	0xbd4f89b4	-0.050668433
8	0xbaa20bc0	-0.0012363121
9	0xbce003f4	-0.027345635
10	0x3b6d0e20	0.003617175
11	0x3c910e30	0.01770696
12	0x3d60eef9	0.054915402
13	0x3d81d217	0.063388996
14	0x3ccae3fd	0.024766916
15	0xbd3aed7a	-0.04563663
16	0x3d09b6b0	0.03362149
17	0x3cda9d3c	0.026686303
18	0xbd38ea2f	-0.04514521
19	0x3d0cedda	0.03440652
20	0x3cc83308	0.024438396
21	0x3d1addbf	0.03780913
22	0xbd264bb0	-0.040599525
23	0x3cc4a8dd	0.024006302
24	0xbcf940cd	-0.030426407
25	0x38402f9e	4.5820714e-05
26	0x3d567951	0.05236179
27	0xbba5ca43	-0.005059512
28	0xbd720a86	-0.059092067
29	0xbbbfb52a	-0.005850454
30	0x3d15ea0c	0.036600158
31	0x3c9f0be4	0.01941485
32	0xbd2b0f0a	-0.04176239
33	0x3d28e1c4	0.041230932
34	0xbd725083	-0.059158813
35	0x3d0fb0f9	0.035080884
36	0x3d248e2f	0.04017466
37	0x3c790110	0.015198007
38	0xbd706895	-0.058693487
39	0x3cd51b62	0.026014034
40	0xbb50b9b6	-0.0031848974
41	0xbd4d5147	-0.05012634
42	0xbd162740	-0.036658525
43	0x3d009d48	0.031399995
44	0xbcd2c9bb	-0.025730958
45	0xbd171bbf	-0.036891695
46	0x3d222774	0.039588407
47	0x3ca932d8	0.020654127
48	0xbbb03960	-0.0053779334
49	0xbd284190	-0.04107815
50	0xbd4e7379	-0.050403092
51	0x3d7b5f79	0.061370347
52	0xbd0528a2	-0.032509454
53	0xbc5bd4e9	-0.013417461
54	0x3d338840	0.04383111
55	0xbd1f69d8	-0.0389193
56	0x3d174aef	0.036936697
57	0xbd0a99a6	-0.033837937
58	0xba196d00	-0.0005852729
59	0x3c6076e0	0.013700217
60	0x3d11eea4	0.035627976
61	0x3c26dfd4	0.010185201
62	0x3d7e7416	0.062122427
63	0x3cd39a7f	0.025830505
64	0xbcc6ebb4	-0.024282314
65	0xbd208ecd	-0.039198685
66	0xbc750b53	-0.014956313
67	0xbd4e5681	-0.050375465
68	0xbd02052c	-0.031743214
69	0x3d23ba87	0.03997281
70	0xbc1bb898	-0.00950446
71	0xbc19f378	-0.009396426
72	0xbd00b998	-0.031426996
73	0xbd150a9a	-0.036387064
74	0xbbd6d0bc	-0.006555645
75	0xbd7936e4	-0.060843363
76	0xbd634460	-0.05548513
77	0x3d28b202	0.041185386
78	0x3d1ef3fd	0.038806904
79	0xbd615ad2	-0.055018254
80	0x3c2dcea4	0.010608349
81	0xbc38f7b8	-0.0112895295
82	0x3d0ae5bc	0.033910498
83	0xbcc10a28	-0.023564413
84	0x3d1b76f7	0.03795525
85	0xbbe4caf0	-0.0069822
86	0x3d061fdc	0.032745227
87	0xbb7061b9	-0.003667934
88	0xbaebee4d	-0.0018000096
89	0xbcc19289	-0.023629444
90	0xbb27e89f	-0.002562083
91	0x3d419903	0.047265064
92	0xbd65a7c6	-0.056068204
93	0xbd478700	-0.04871273
94	0xbd3db798	-0.046317667
95	0xb9c60a5c	-0.0003777322
96	0x3d2ecb5e	0.042674415
97	0x3d3b25b7	0.045690265
98	0xba68c1f6	-0.0008879
99	0x3cabfca9	0.020994501
100	0x3d447276	0.04796072
101	0xbd2ba8a7	-0.041908886
102	0x3cb6d28e	0.022317197
103	0x3b4d1fc0	0.0031299442
104	0xbd2882e9	-0.04114047
105	0xbd5960fe	-0.053071015
106	0x3cf751fe	0.030190464
107	0xbd03eb82	-0.03220702
108	0xbc3b5f11	-0.01143624
109	0xbcab4b54	-0.020909943
110	0x377e104b	1.5143373e-05
111	0xbd0b1fd2	-0.033965893
112	0xbc9ea07c	-0.019363634
113	0xbd654424	-0.055973187
114	0x3cf9c04e	0.030487206
115	0xbcf7bcff	-0.030241488
116	0xbd07a31a	-0.03311453
117	0x3c1f3e58	0.009719454
118	0x3d524f90	0.051345408
119	0x3c95c0fe	0.018280502
120	0xbc9fad9e	-0.019491967
121	0x3c0331c1	0.008007468
122	0xbd2067ae	-0.039161377
123	0xbcc82dac	-0.02443584
124	0xbb8b7f67	-0.004257131
125	0xbd6951cc	-0.056962773
126	0xbc912736	-0.017718893
127	0x3d577a8a	0.052607097
128	0x3bf37c65	0.0074306005
129	0xbd2d9895	-0.04238184
130	0xbd645016	-0.05574044
131	0x3ce131b8	0.027489528
132	0xb9ac581f	-0.00032872052
133	0x3c854562	0.016268436
134	0x3d5e9060	0.054336905
135	0x3c93d53c	0.018046014
136	0x3d2bacd7	0.04191288
137	0xbd2b498c	-0.041818187
138	0xbcbc9741	-0.023021342
139	0xbd66dc2e	-0.056362323
140	0xbb48e7f2	-0.0030655828
141	0x3d3a12a0	0.04542792
142	0x3b8675e6	0.00410341
143	0xbd10491b	-0.03522597
144	0x3b4a28be	0.0030847038
145	0xbce9c7c8	-0.028537646
146	0xbd66acef	-0.056317266
147	0x3c47ff80	0.012206912
148	0x3ca38568	0.019961074
149	0xbbb736a0	-0.0055912286
150	0x3b96fc90	0.0046077445
151	0x3cb5a738	0.022174463
152	0xbd489e11	-0.04897887
153	0xbd55c347	-0.052188184
154	0xbd06de84	-0.03292705
155	0x3d1c81fe	0.038209908
156	0xbd32681c	-0.043556318
157	0xbd7a045c	-0.061039314
158	0xbcf8c1db	-0.030365875
159	0xbbb52140	-0.0055276453
160	0x3b3d52dc	0.00288885
161	0x3d2cbbc5	0.04217126
162	0xbd3adab4	-0.045618728
163	0x3d4a6547	0.04941299
164	0x3d2332aa	0.03984324
165	0x3cab5789	0.020915763
166	0x3d573024	0.052536145
167	0x3c635a18	0.0138764605
168	0x3d177b4b	0.036982816
169	0xbc4349ab	-0.011919419
170	0x3d461490	0.048359454
171	0xbca9f4d4	-0.020746626
172	0x3cce0d4f	0.02515283
173	0x3a282765	0.00064145616
174	0x3d7bdc74	0.061489537
175	0x3b9a7445	0.0047135674
176	0xbd28275f	-0.041053172
177	0x3d4e2912	0.050332136
178	0xbcc283e5	-0.023744533
179	0x3d790141	0.06079221
180	0xbd73c731	-0.059516136
181	0xbd0e9b88	-0.034816295
182	0xbd593e20	-0.053037763
183	0xbc8caa0f	-0.017170934
184	0xbc2f6f10	-0.010707632
185	0xbcad5350	-0.02115789
186	0xbd2d7398	-0.042346567
187	0x3c8c8cd3	0.017156994
188	0x3d0a1ff3	0.033721875
189	0xbb4560c0	-0.0030117482
190	0x3a9e0b68	0.0012057843
191	0xbd426f8e	-0.047469668
192	0x3cbc80da	0.02301066
193	0xbc666e66	-0.014064407
194	0x3d785ece	0.060637288
195	0x3d814cbc	0.06313464
196	0xbd22fa60	-0.039789557
197	0xbd60d48c	-0.0548902
198	0xbb2daa1c	-0.0026499098
199	0xbccad255	-0.024758497
200	0x3ca1b9a0	0.019741833
201	0x3cf91603	0.030406004
202	0x3cecab8b	0.028890392
203	0x3cebf09c	0.028801255
204	0xbbf058fa	-0.0073348256
205	0x3c233c38	0.009963088
206	0xbd31fed0	-0.0434559
207	0x3ac7556f	0.0015207956
208	0xbd483027	-0.048874047
209	0xbc00d97b	-0.007864351
210	0x3c7ac4bb	0.015305693
211	0xbccdfd5e	-0.025145229
212	0xbd7be414	-0.06149681
213	0xbd6d8cc8	-0.057995588
214	0x3c430d60	0.011905044
215	0xbd273cf2	-0.040829606
216	0x3d563768	0.052298933
217	0xbccfdaa4	-0.02537281
218	0xbd5a7936	-0.053338252
219	0xbd136da5	-0.035993237
220	0x3cfa96b3	0.030589437
221	0xbb9a070a	-0.004700546
222	0xbc91f5b5	-0.017817358
223	0x3c955497	0.018228812
224	0xbd3ea6ac	-0.04654567
225	0x3d5a40f8	0.053284615
226	0x3a436d76	0.00074549706
227	0x3ce56eb4	0.028006889
228	0xbd2d7192	-0.042344637
229	0x3d59fab8	0.05321762
230	0xbb2bd01d	-0.0026216574
231	0x3d56dfa5	0.052459378
232	0x3d2be800	0.0419693
233	0x3c6ceeb4	0.014461208
234	0x3b8a6a4e	0.0042240983
235	0x3caa98cf	0.020824818
236	0xbd239c0e	-0.039943747
237	0xbc9712d8	-0.018441603
238	0x3c6bcd95	0.014392276
239	0x3cf16f0d	0.029471898
240	0x3c4132a7	0.011791862
241	0xbcdc10d0	-0.026863486
242	0x3c4e4378	0.012589328
243	0x3b3c8ee0	0.0028771684
244	0x3a1bc2fe	0.0005941837
245	0x3b637fc0	0.0034713596
246	0x3d7fbc50	0.06243545
247	0xbd588ec1	-0.052870516
248	0xbc659dcd	-0.014014673
249	0x3d1bacac	0.03800647
250	0x3c0f042e	0.008729024
251	0xbd706f66	-0.058699988
252	0x3d12ddc6	0.03585603
253	0xbce91a12	-0.028454814
254	0xbcd5dcc8	-0.026106253
255	0x3d646fdc	0.05577074

net.model.4.bias f4 [16]
0	0x3d5e8c78	0.05433318
1	0x3d681285	0.056658287
2	0x3b69d92a	0.0035682418
3	0x3b8daac4	0.0043233354
4	0xbd3e554f	-0.046468075
5	0xbbe64ab7	-0.0070279497
6	0x3d677125	0.056504387
7	0xbd208dad	-0.039197613
8	0xbcb1f7fa	-0.02172469
9	0xbd5e5281	-0.0542779
10	0xbccc7c08	-0.024961486
11	0x3d47afd0	0.048751652
12	0x3c9ef7e6	0.019405317
13	0x3d5d51f6	0.054033242
14	0xbd4b35ac	-0.049611732
15	0xbd5edf79	-0.05441234
