SAC/sac_actor.pth (torch, 291053 bytes, 6 tensors)

net.model.0.weight f4 [256, 7]
00000000: ba93 08bc c5a0 cfbe 9e5e 5e3e cc2b d5be
00000010: 32fd 603f a778 18bf 4ead e53c 2ec7 d93d
00000020: 4742 86be b85f cfbe ae14 07bf 8399 0bbc
00000030: 4f02 ae3e e7e8 f3be c75f f83d 543c 7fbf
00000040: 5fb2 05be b333 8fbd 2f01 b13e eb50 1e3f
00000050: f609 e13e 7ec8 92be 3b0d 99bd 6c7c d1ba
00000060: c613 0cbf aa43 973f 6999 2fbe 1244 3fbe
00000070: 7744 cb3e 0ff1 d9be 0c21 d8be 88c5 d4bc
00000080: 62e7 923e 2bff ef3e 1f05 123e 5214 02be
00000090: 4fa6 07bf d08a 82be 07d4 b8bd d825 823e
000000a0: 287b a1bf 1394 abbc 9201 a63e edd1 353f
000000b0: 06ea 933e 7afc cd3d eb7a 18bf 8e1e ed3d
000000c0: 7cf6 7ebe 5a51 22be 07b1 6a3e 7278 07bd
000000d0: 92e5 653d 8273 763e 8521 85bf 97c8 f33e
000000e0: 310e 443e 6269 16be 9779 69bc 7a37 2b3d
000000f0: d7b5 ac3f d655 9abc a2f6 4c3d 8aca e63d
00000100: 0865 2c3e c32f c23d 63b6 523f 7b21 81bf
00000110: df0a a0be 8771 63bd a106 21bf 6912 1abf
00000120: 934c 65bd 4d77 8b3d f7b8 763e 4484 39be
00000130: 6e4d 98bd eef0 713c f33e 573c 326f 5bbe
00000140: b1cb 31bd 2841 bfbe 6249 ac3f 73f5 fdbc
00000150: 9cd5 333e aaa7 163f b905 ccbe 8fda b7bd
00000160: ca0f 323f 13aa 943d 7db1 86be b77a ea3e
00000170: c7fc 38bf cdc8 a33d 4195 e7be 5c85 b1be
00000180: 5baa 1abd e027 87bd d425 d1be 36e7 10be
00000190: 9ce9 583e e013 693e 16e2 483f be59 873f
000001a0: 14ae 6cbe ab04 aabe 8d20 10be 673f ec3e
000001b0: 38ff 9d3d df95 3e3f 586e 2a3f a0c7 a53e
000001c0: 0fba 74be a0e6 463c 4325 b339 f28e 96be
000001d0: ed8d 9abe 0510 603f 630d f33e 37b5 e9bd
000001e0: 6f54 283e 1a2b dc3e 0e0e 223e bcc6 183f
000001f0: f5b1 1d3f 0eb1 bb3d 0ff7 8a3c c843 e13e
00000200: 40f8 cd3e 9a56 4cbe 8c0b 68be f664 853f
00000210: c79e d33c eb7c 46be 496b 173f 1736 a63d
00000220: 4e16 093f 4986 a1be 65f5 3abf 2d0c 3dbe
00000230: aec6 b0bd 5152 9f3e 69f1 273d b8dc 38be
00000240: b9f8 96be 2286 90be 3c68 3ebd 5781 1fbc
00000250: 18b5 c5be 91af b0bd 5e3a fd3d 082c 943f
00000260: 0a53 d73c 022d ab3d 540b fdbc 1853 003c
00000270: 12ad 263e 7207 82be 2df1 77bd cc8b 8f3f
00000280: f9da 5abd c94f 963c 8300 503d 27a9 a7bd
00000290: 8531 7abe c81b 11bf 48cf 8f3f a4f8 fdbd
000002a0: e992 073f 9b23 273f cdfd 88bc deb4 c3be
000002b0: b54c 463d bc57 033f 8c91 fe3d f7e8 3e3e
000002c0: 788c 0dbf 7395 b3be 02c3 50be de1b 2bbf
000002d0: 3040 3c3d 4046 2a3e ec3a 523d 46c3 66be
000002e0: ff83 813e 2a95 50be 4a83 473f 5f6a 4c3f
000002f0: 0f0e cebd 4d68 23be b3d0 2d3f e032 bbbd
00000300: 9263 41be 37e9 b6bf 34de a9bd 5fbd a13d
00000310: 957d c3be 86c2 543f 281c 03be d9a7 90be
00000320: 1ed9 913e 98b7 2c3d f298 e7bd 5b9f 1bbe
00000330: 5010 c7bd b294 35be 69fd a6bd 9dfa 443e
00000340: 7a69 af3d 2d1b 033f 65d3 e13e 1995 fe3e
00000350: d361 a43d fd81 e6be 4da7 24bf 8a8b d1be
00000360: aaaf 353e 70ff e33e 5ad2 2b3e dabe 8b3d
00000370: a260 dfbe ee8e 393f ec10 8b3f 88b7 823d
00000380: 7717 d63d d7ea d23c 6dde 983e 20f6 71be
00000390: 4342 1e3f 8006 873d a1fc 6d3e ae6f 783e
000003a0: d784 613e 7041 26be 368a 9d3e 83ae 42bf
000003b0: 887c abbe a32f 913e 5099 ac3e ba9c ec3e
000003c0: d10d 2ebe d178 d9be 650c a6bf 426d d53d
000003d0: 82dc 713b 1750 193f 586b 8bbe a8fe 05be
000003e0: 4f6f 413f 0b74 373e bd69 c3be 6994 9abd
000003f0: f4b1 3abe 2778 773e 91e1 bd3d c830 aebd
-0.008336002 -0.40552345 0.21715781 -0.41634977 0.87886345 -0.595591 0.02803674 0.10633694
-0.2622244 -0.40502715 -0.5276593 -0.008520487 0.33986136 -0.47638628 0.12127643 -0.9970143
-0.13056324 -0.06992283 0.34571216 0.6184222 0.43952912 -0.28668588 -0.07473227 -0.0015982515
-0.5471767 1.1817524 -0.17148365 -0.1867831 0.39700672 -0.42566726 -0.42212713 -0.025973096
0.28692156 0.46874365 0.14259766 -0.12703064 -0.5298814 -0.2549653 -0.09024816 0.25419497
-1.2615709 -0.02094463 0.32423073 0.71023446 0.28889483 0.10057922 -0.5956256 0.115780935
-0.24898714 -0.15851346 0.22919093 -0.03307385 0.05612714 0.240675 -1.0400854 0.47613975
0.19146039 -0.14688638 -0.014250181 0.041800953 1.3492993 -0.018839758 0.050039895 0.112691
0.16835415 0.09481766 0.8230955 -1.0088342 -0.31258294 -0.05552819 -0.6290074 -0.6018434
-0.05598123 0.06809864 0.24093996 -0.18116862 -0.074366435 0.014766915 0.013137567 -0.21429136
-0.043407146 -0.37354398 1.3459895 -0.031000828 0.17561954 0.58849585 -0.39848116 -0.089772336
0.6955534 0.072590016 -0.26307288 0.4579675 -0.7226071 0.07997284 -0.4523106 -0.34672058
-0.03776012 -0.065994024 -0.40849173 -0.141507 0.21182865 0.22761488 0.7846998 1.0574262
-0.2311328 -0.33206686 -0.14074917 0.46142122 0.07714695 0.74447435 0.6657462 0.32378864
-0.238991 0.012139946 0.00034169303 -0.29405934 -0.30186406 0.87524444 0.4747115 -0.11411517
0.16438459 0.43001634 0.15825674 0.59678245 0.61599666 0.0916463 0.01696351 0.43997025
0.40228462 -0.19954911 -0.22660655 1.0421436 0.025832547 -0.1938359 0.5914808 0.081157856
0.5354966 -0.31547764 -0.7303069 -0.18461676 -0.08631645 0.3111749 0.04100171 -0.18052948
-0.29486635 -0.28227335 -0.046486124 -0.009735427 -0.38614726 -0.08627237 0.12364648 1.1575937
0.026284713 0.08358194 -0.03088919 0.007832311 0.16276959 -0.25396305 -0.060532738 1.1214538
-0.053431485 0.018348591 0.050781738 -0.0818656 -0.24432953 -0.56683016 1.1235132 -0.1240094
0.5295854 0.65288705 -0.016722584 -0.38223928 0.048412997 0.5130575 0.124301046 0.18643557
-0.55292463 -0.35074958 -0.2038689 -0.66839397 0.04595965 0.16628361 0.051325724 -0.22535428
0.25296018 -0.20369402 0.77934706 0.7984981 -0.10061275 -0.15957756 0.67896575 -0.09140563
-0.1888564 -1.4289922 -0.08294335 0.07897448 -0.3818175 0.8310932 -0.1280371 -0.28253058
0.2848596 0.042167276 -0.11308469 -0.15197508 -0.09719908 -0.17732504 -0.08153803 0.19236226
0.0856504 0.5121334 0.44106594 0.49723127 0.08026471 -0.45021048 -0.6431778 -0.40926772
0.17742792 0.4453082 0.16779462 0.068235114 -0.43628412 0.7248372 1.0864539 0.06382662
0.10453694 0.025746746 0.29857197 -0.23629045 0.6181986 0.06593037 0.23240902 0.24261352
0.2202333 -0.162359 0.3076951 -0.76047534 -0.33493447 0.28356656 0.33710718 0.46213323
-0.16997458 -0.42474988 -1.2972533 0.1042123 0.0036905115 0.5988783 -0.27230334 -0.13085425
0.7556047 0.1791536 -0.3816661 -0.07547838 -0.18231946 0.24166928 0.09271539 -0.08505398

net.model.0.bias f4 [256]
00000000: fe55 ffbd d806 d73e b209 dabd e89e d5bd
00000010: e8e1 8d3e 793b 5e3e 3da6 d6be b4ee 36be
00000020: 818f 0d3d b825 94bd 9836 3cbd 249b 973e
00000030: 7e7d 503e 4adf 24bd 22c8 6abe cfe0 acbe
00000040: d04c 35be 1b53 36be 78fe e9bd ac75 773c
00000050: 8a2c b0be d86b 683e d23c c9bd ae2b 513e
00000060: 5906 d8bd 53cc 633e 3868 68bd 15c0 983d
00000070: 0da3 db3c 6384 9abc 45ef 3d3c f8f0 353c
00000080: e135 b8be 0508 5a3e cc71 233e 740b e93d
00000090: 9cfe 973d f1bf 15be 0dd8 2bbd 8822 dcbc
000000a0: ab62 a33d a9fc 24be dec0 bfbe 4d22 45be
000000b0: eb83 52be d820 6ebe 053b 4cbd 4394 a8be
000000c0: a7dd b43e df11 7dbe efe3 2ebe 44a1 a1bd
000000d0: 4435 2b3e 2c11 2cbe 47a0 8f3d cadb 95be
000000e0: 89cf a5bc 4965 31be df56 01bd 04bd 043e
000000f0: 8853 843e 148e e73c ea00 5d3e 7075 8abe
00000100: e9c6 c03d 6098 953e c1e6 60be 3cc3 c0be
00000110: 1d8f 82bc 0746 5e3e c9e8 46be 576d 10be
00000120: 4eda e1bc dd48 9d3e 58fb 0e3e ae3b bbbe
00000130: 90f9 4cbd d538 a8be f498 ab3e c36e 82be
00000140: e4e3 953e adf5 39be d5b9 333e 8f90 383d
00000150: 965b 1abe 222c 9a3e 8414 c7be 1841 0e3e
00000160: f1ca 3dbd 6d94 9abe 3075 a63c 334e 92be
00000170: 5441 16be f7a4 5abe 6105 bdbc ab04 393e
00000180: b84e 82bd a5b4 c1bd 804c 20be 7c2b f9be
00000190: 8b3c b73d 420a 833e 983e c4bc 94f9 3dbd
000001a0: 590e a4be bf09 9cbc 8c6b 0cbe cd4c 9cbe
000001b0: ece9 2b3e e6df f2bd b1c1 543d b2ab 93bd
000001c0: 1c1f 1b3d 8c75 62be 7480 a73d 7cf1 e4bd
000001d0: 20ce 883d a6f9 fb3b a930 13be da63 32be
000001e0: 3e7d e9bd d3fa 2d3e 1c39 49be e120 b43d
000001f0: 81db 04be 2952 dc3d caa1 82bd e393 d2be
00000200: 5d73 4bbe f9da 6cbc 7210 b53e 2977 573e
00000210: cde8 953d 408a c0bd 8f1a 923e 043d a43e
00000220: e1c2 973d 8f44 89be 64b0 663d 6210 3bbe
00000230: 8f7b b63d 019a 8d3e 30ed 91be 20ab e2bd
00000240: e51a 07bd b32c 05be de33 38bd b376 cc3d
00000250: 88a1 40be 39ac a93d db1f 30be 917c 98be
00000260: cdab 7c3e b760 6fbd b849 76bd 5130 2a3e
00000270: 1c38 b9be ce2a 6f3d 01ad a9be fa1b 4f3e
00000280: 8592 36bd 7d79 823d 20e8 05be b34b 3abe
00000290: 9b93 4a3e 573e 2cbe c93b ecbd bf10 093d
000002a0: 7798 c5bd c599 7bbd bb22 aebe 4ea6 6e3d
000002b0: 1df2 df3d 0dbd b13e a2ae 8fbd 7bd3 99bd
000002c0: 4472 1cbe bbc1 49bd cea0 16bd 2fb3 60bb
000002d0: 0cb4 0abd 2dc2 a13e 3684 30bd 1239 a83d
000002e0: 969c f33c 8972 653d 0afc c73e ac76 02be
000002f0: 3590 72be 94ba 67be 5916 10bd 7187 8d3d
00000300: 3460 88be b567 5cbe edb0 61be d2fc cc3d
00000310: 861f e8bd fd4d 93be e495 90be 33f8 4fbe
00000320: bbd5 0cbe 2667 cabe 8546 42be 0cbd c7bb
00000330: 6b80 ccbe ae7f e03d 03d8 f9bd 78dd b73d
00000340: 9f56 bfbd 46e1 36be d858 6e3e 6a92 2b3e
00000350: 1b3e 1a3e 4362 2e3e 14ed 373d 6f9c 143d
00000360: 9787 80bd 02fc d83b 6d7a 4b3d c3dd e1bd
00000370: ab1d d63c fac1 7ebe 06d4 223e 22aa 04be
00000380: f070 b83e 3b30 e63d 193d 923e ca5e 1e3d
00000390: 3a47 a6be 629e 543e 56a4 cabd cd56 1bbd
000003a0: 0bf4 77be c2d6 5bbd 508a 9bbe 8fb6 93bc
000003b0: 93c0 e03d 0d1a 94be 47d2 ba3e cf16 c93b
000003c0: a834 94be 2f15 2d3e a082 5bbd 649b f1bd
000003d0: 7413 8d3e af4d c83c 27a3 3cbe d99f 1ebe
000003e0: 35ce 873c a1cc 9cbb 47eb 663c 5699 59be
000003f0: 8187 90be b820 be3b d0f5 85be 1f6d 9bbe
-0.124675736 0.4199741 -0.106463805 -0.104306996 0.27711415 0.21702375 -0.41923705 -0.17864496
0.034560684 -0.07233757 -0.045950502 0.2961055 0.20360371 -0.040252008 -0.22927907 -0.33765265
-0.17705083 -0.1780514 -0.11425489 0.015103739 -0.3440898 0.22697389 -0.09826054 0.20426819
-0.10548086 0.22245912 -0.056740016 0.07458512 0.026811147 -0.018861955 0.011592691 0.011104815
-0.35978606 0.21292122 0.15961379 0.11379138 0.0742161 -0.14624001 -0.04195409 -0.026871935
0.07977804 -0.16112007 -0.37451833 -0.19251366 -0.20558135 -0.23254716 -0.049860973 -0.32925615
0.35325357 -0.24713849 -0.17079137 -0.07892087 0.16719538 -0.16803426 0.07012992 -0.29269248
-0.020240562 -0.17323793 -0.031576987 0.12962729 0.2584498 0.02826599 0.2158238 -0.27042723
0.09412939 0.29217815 -0.21963026 -0.37648952 -0.015937382 0.21706401 -0.19424738 -0.1410421
-0.027569916 0.30719653 0.13963068 -0.3656897 -0.05004269 -0.3285586 0.3351513 -0.2547513
0.2927543 -0.18160124 0.17551358 0.045059737 -0.15074 0.30111796 -0.3888284 0.13892019
-0.046336118 -0.30191365 0.020319551 -0.28575286 -0.14673358 -0.21351992 -0.023073854 0.18068187
-0.06362671 -0.09458283 -0.15654182 -0.48665988 0.089470945 0.25593764 -0.023955628 -0.046380594
-0.32042196 -0.019047616 -0.13712901 -0.30527344 0.16788453 -0.118591115 0.05194253 -0.07210483
0.037871465 -0.22115153 0.08178797 -0.11178872 0.0667994 0.0076896725 -0.14374031 -0.17420903
-0.11400841 0.16990213 -0.19650692 0.08795334 -0.12974359 0.10757858 -0.06378515 -0.41128454
-0.19868226 -0.014456504 0.3536411 0.2104155 0.07319794 -0.09401369 0.28535888 0.320778
0.07410217 -0.2681012 0.056320563 -0.18267968 0.08910286 0.27656558 -0.28501272 -0.11067796
-0.032984633 -0.13005333 -0.04497134 0.099835776 -0.1881162 0.08284802 -0.17199652 -0.29782537
0.24674912 -0.058441844 -0.060128897 0.16619994 -0.3617562 0.05839043 -0.33139804 0.20225516
-0.044573326 0.06370828 -0.1307683 -0.1819294 0.1978287 -0.16820656 -0.115348406 0.033463236
-0.09648221 -0.061425943 -0.34010872 0.05826407 0.10934851 0.34714547 -0.070157304 -0.0751104
-0.15277964 -0.04925702 -0.03677445 -0.003428649 -0.033863112 0.31593457 -0.043094836 0.0821401
0.029737752 0.056017432 0.39059478 -0.12740582 -0.23687823 -0.22629768 -0.035177562 0.06910599
-0.26635897 -0.21523936 -0.22040148 0.10009159 -0.113341376 -0.28770438 -0.28239357 -0.20309524
-0.13753407 -0.3953182 -0.18972214 -0.006095534 -0.39941725 0.10961853 -0.12199404 0.08977789
-0.093426935 -0.17859372 0.23276079 0.16755071 0.15062754 0.17029671 0.04490383 0.036282
-0.06275862 0.0066218385 0.0496773 -0.11028626 0.026137194 -0.24878684 0.15901193 -0.12955526
0.36023664 0.11239668 0.2856224 0.038664617 -0.32476217 0.20763543 -0.09894626 -0.037924577
-0.24214189 -0.053671606 -0.30378962 -0.018031387 0.109742306 -0.28926125 0.36488554 0.006136752
-0.28946424 0.16902612 -0.05359137 -0.117972165 0.27553904 0.024451105 -0.18421613 -0.15490665
0.01657782 -0.004785136 0.01409418 -0.212499 -0.2822838 0.00580224 -0.26164103 -0.3035669

net.model.2.weight f4 [256, 256]
00000000: 24e4 bcbc a19b 2e3d 2ff7 fa3c 1eef 103d
00000010: 96b6 5a3c 071c 113d 0894 19bd 12b1 abbb
00000020: ef5e dbbb 6084 0d3d 1ebd 1ebd f0c5 c2bc
00000030: 7efd bebc 42b7 353d da9e 8b3b 26da cbbc
00000040: 0eea 173d dd0a 073d bcb2 24bd d45d b6bb
00000050: e84e 8fbc 14cd 343d 23ec 7cbd a3f5 ea3c
00000060: 2f6c 693d 5415 3b3c 71eb 90bc fbbd 393d
00000070: 3a84 f3bc d7cd b43c 4238 2ebc a722 9fbd
00000080: 5a31 3ebd 7fbb 0cbd 7175 6fbd 0171 0cbb
00000090: d0cb 4bbd 05b8 c2bc a925 3a3d 2e8c ce3b
000000a0: 0e62 e6bc c43a 3f3d a025 7b3d 364b 08bd
000000b0: bf0a aa3c 696f 2d3c f59b 923c 02da 50bd
000000c0: b727 fabc 5e8f 36bd 7a65 29bd d429 183c
000000d0: b143 83bd 03ff f3bc ab50 27bd 2863 3a3c
000000e0: 91df 3a3d d25f 7bbb 4f20 043d d404 91bd
000000f0: 7a9f dbbc 2320 243d a956 04bd 685b ef3c
00000100: 88f0 7fbb 33f1 19bd eb29 b4bc 7565 3abd
00000110: 463e 19bd de08 233d 0ed4 1ebd ea15 53bd
00000120: 4301 e03c f423 09bd c14b 63bd 3426 83bd
00000130: f088 73bd 354e 8b3c 26ad 94bc 05ef adbc
00000140: 63c3 273d 881e e13a dfd1 43bd 1746 cabc
00000150: fb84 80bd d525 85bd 7c77 893c 1af5 30bd
00000160: 5f12 2b3d 37f1 f03c 4bc1 c43c 5692 4fbd
00000170: 95ba 52bd 2831 d6bc 2ed4 84bd a052 89bd
00000180: a085 083c 0146 5bbd 0de5 28bd 28b1 9fbc
00000190: 18fa 9a3c 25e7 c7bc 6a4c 163d 1496 79bd
000001a0: eed6 0d3d 617b 103c 6e11 4e3c f4ba 573d
000001b0: 9b0c 00bd 54e1 9dbc cf37 eebc 94b1 debc
000001c0: 8e63 df3c ba35 233d a0f2 0f3c 1369 dc3a
000001d0: 4e0c 58bd f9c9 1e3d 8b8f d43c bae0 f93c
000001e0: 7cb7 5b3d a975 6ebd 42d1 d3bc f8f4 5abd
000001f0: 472d 90bd 8521 d03c 560b 3d3b d91d 843c
00000200: a4f9 b53c 8428 a1bd 309c 52bc 7d29 393c
00000210: 4815 693d f07a ccbb ba86 91bc 3aec 04bc
00000220: b995 3fbd 0bbc f4bc 629a 1bbd ddab 64bd
00000230: 498f 373d d24f e53c ceb3 793c 9b41 f83c
00000240: 4485 6e3c 5344 9dbd 8e04 633d 391e b53c
00000250: c50f f3bc a0bb 9bbd 7bed 1ebd be29 41bd
00000260: 1492 cfbb cc26 ec3c 763c 1d3d 4b79 d6bb
00000270: 9c8c 29bd a307 e7b9 7210 b83c 277d 5dbc
00000280: 60eb edbb 8019 53bd 5b32 8fbd 6c02 86bd
00000290: 3162 11bd ba97 1e3d 7d42 733d 9b77 b7bc
000002a0: 26f9 91bd 8812 8ebd 5a77 69bd c2f4 153d
000002b0: 7a38 7fbd 893b 75bc 231f 453d 9444 8dbd
000002c0: 43ec 453c 6924 25bc 246b 1e3d 0b9f 18bc
000002d0: 11c6 6d3c 4919 1d3d 40e2 093d ffcc 62bd
000002e0: 2555 76bc ca91 d03b 0788 9abc 68d8 56bc
000002f0: 5f56 4fbd 1476 0dbd eab5 60bd 4882 49bd
00000300: 963f 343d 5ba6 fdbc 10bc 43ba 4c2d 24bd
00000310: 5566 ebbc 4025 113d ace2 3cbd 5be6 223d
00000320: 7ae0 4bbd 4b25 043d 5ace 383d 2553 8b3c
00000330: 1d0a 473d f606 1c3d 0e4f 91bc f8de a63c
00000340: 204c f1bb 1f01 efbc 75bd 98bc 0d85 8bbd
00000350: fe82 013d 4575 43bd 8628 443d f238 f3bc
00000360: 7abd ef3c 7535 23bd 8bbc 973c 7858 43bd
00000370: 77f2 983b d6f9 6dbd dec8 893b b51c 133d
00000380: d905 ec3c 9f33 0d3d 0136 dabc f98a e43b
00000390: 12e0 4bbd c622 23bc be83 823c ff84 53bd
000003a0: 8232 8ebd d2cf 8bbc fcb0 243d f64c a03c
000003b0: e3dc e13c dcd6 a2bc 42d2 50ba 50c7 83bd
000003c0: 70d8 8b3b 5720 5abd c795 3f3d 7c62 1bbd
000003d0: 31ac e8ba 5bed 3f3d b4e3 70bc 324a 4abd
000003e0: d485 82bb 44d2 7dbd 0eb0 113d 5cb7 9dbc
000003f0: 40be 96bc c979 e3bc c02d 42bc 27f2 5abd
-0.023058005 0.042628888 0.030635444 0.03538429 0.013349196 0.03542712 -0.03749469 -0.0052396143
-0.0066946666 0.03455007 -0.038754575 -0.023776025 -0.023314234 0.04436422 0.00426088 -0.024884295
0.037088446 0.032969344 -0.040209517 -0.0055653844 -0.01749368 0.04414089 -0.061748635 0.028681582
0.056987938 0.011418659 -0.017690392 0.045347195 -0.029726136 0.022070808 -0.01063353 -0.07770281
-0.046433784 -0.034358498 -0.05846161 -0.002142966 -0.049754918 -0.023769388 0.04544607 0.006303332
-0.028122928 0.046686903 0.06131518 -0.03327485 0.020757077 0.010585644 0.017896632 -0.05098916
-0.030536516 -0.04457032 -0.04135654 0.009287316 -0.064093955 -0.029784685 -0.040848415 0.01137618
0.045623366 -0.0038356674 0.032257374 -0.07080999 -0.026809443 0.04006971 -0.032309208 0.02921839
-0.003905328 -0.03758354 -0.021992644 -0.045506913 -0.037412904 0.03980338 -0.03877645 -0.05153457
0.027344352 -0.033481553 -0.055492166 -0.06403771 -0.059456766 0.017005065 -0.01814897 -0.021232137
0.04095782 0.0017175237 -0.04780757 -0.024691625 -0.06275364 -0.065013565 0.016780607 -0.043202497
0.041765567 0.029411895 0.02401795 -0.050676666 -0.05144747 -0.026146486 -0.064857826 -0.067052126
0.00833264 -0.053533558 -0.041234065 -0.019493654 0.018918082 -0.02440221 0.036693968 -0.06093414
0.0346288 0.008818478 0.012577398 0.052668527 -0.03126202 -0.019272484 -0.029079346 -0.027184285
0.027269151 0.03984616 0.008785874 0.0016815983 -0.05274611 0.038766835 0.025947353 0.030502666
0.05364178 -0.05821768 -0.025856618 -0.053456277 -0.07039886 0.025406608 0.0028845868 0.016127514
0.022213764 -0.07869056 -0.012854621 0.0113013955 0.05690506 -0.006240241 -0.017764438 -0.008112961
-0.046773646 -0.029874822 -0.037989028 -0.055827964 0.04481438 0.027992163 0.015240623 0.03030472
0.01455814 -0.076790474 0.055424266 0.022109138 -0.029670605 -0.07604146 -0.038800698 -0.04715895
-0.0063345525 0.028827094 0.03838774 -0.006545221 -0.04139386 -0.00044065443 0.02246878 -0.013518608
-0.007260725 -0.05153799 -0.069920264 -0.06543431 -0.035494033 0.038718916 0.05938958 -0.0223959
-0.071275994 -0.06937128 -0.05699859 0.036610372 -0.06230972 -0.014967808 0.048125397 -0.06897846
0.012080255 -0.010079482 0.038676396 -0.009315263 0.014512555 0.038354192 0.033663034 -0.05537128
-0.0150349485 0.0063650357 -0.018863691 -0.013113119 -0.05061948 -0.034536436 -0.054860987 -0.04919651
0.044005953 -0.030963114 -0.0007466683 -0.04008226 -0.02873532 0.035435915 -0.04611461 0.039770465
-0.049774624 0.032262128 0.045118667 0.01700742 0.04859363 0.038092576 -0.017737892 0.020369992
-0.007363811 -0.02917534 -0.018645028 -0.06812487 0.031619065 -0.04771926 0.04789021 -0.02969024
0.029265154 -0.039845902 0.018522521 -0.047691792 0.004667576 -0.05809959 0.0042048534 0.03591605
0.028811382 0.034473058 -0.02663708 0.0069745746 -0.049774237 -0.009957021 0.01593196 -0.051640507
-0.06943227 -0.01706687 0.040207848 0.019567948 0.027571147 -0.019877844 -0.0007965901 -0.064345
0.0042677447 -0.053253498 0.0467737 -0.03793572 -0.0017751512 0.04685722 -0.014702726 -0.049387164
-0.0039832387 -0.061968103 0.03556829 -0.019252472 -0.018401265 -0.027768033 -0.011851728 -0.05345359

net.model.2.bias f4 [256]
00000000: 5cdb 083d 6838 c1bd 899e be3d 4dc1 eabb
00000010: 4c00 603d a477 34bb 8f9b 873d f949 7d3d
00000020: 26d1 133d a405 903d b1fe b83b fd90 453d
00000030: 93cf 3d3d 5a06 33bd 5602 11bd 5c77 78bd
00000040: 3614 4b3c 1a11 08be 314e 24bd 5b5c acbc
00000050: 0f12 043c bf7c 04be 4b5a fa3b c60f 10bd
00000060: 4bcc 3f3c e095 38be 9c44 0dbe beae b63d
00000070: e818 c0bc b4c6 0d3d fd25 85bc 582c ae3d
00000080: e85d 9bbb e7b6 49bd c8a0 b43d 1d9e 7ebb
00000090: ea08 f03c 1c23 3d3d 2708 83bd d431 8bbd
000000a0: 850c 8bbc 49bd 42bd dd58 d8bd 3e37 03bd
000000b0: 6591 cebc 1c05 093d e584 183b 03fb 21bc
000000c0: 971f 13bd 3b64 2dbc fd00 8d3c 03f9 4d3a
000000d0: 3266 24bc 66a1 2f3c c0e2 ccbd fb2b bbbb
000000e0: 4982 2b3d ca51 72bd 8c89 24bd afaa 71bd
000000f0: 0449 35bd d041 c83c aa91 b23d b9e7 82bb
00000100: 9799 20bd 9696 d73b ead0 b43d bde5 4f3d
00000110: 9bdd 383d 8daf 73bd 01b8 14bd 2a13 14bd
00000120: ac3c 5b3d 3ec6 fcbc 1f23 a63c fd6b 1cbe
00000130: 4956 113b 8351 8bbd 83d6 ccbd 6860 803c
00000140: d59e 8d3d 0006 15bc 0e7f 45bd e2ea 703d
00000150: c981 89bb 77a8 9b3b 362e 8a3d 6a55 81bd
00000160: d5bc aabd e89f 91bc 6c95 92bd 837f b43d
00000170: 9e18 563b e9f0 043d 0a2a 2dbc edd5 31bd
00000180: 7693 84bd ce9e 40bd c164 59bd d3aa 993b
00000190: 74fe 8ebc af2d b8bc 729d cc3b 311c 4bbb
000001a0: 585b 713d 4974 d0bc 7ccb 16bd 9254 75bd
000001b0: ac36 3bbe 1d4d 5dbd 5436 2f3c 481c c9bc
000001c0: d020 fd3c 2906 9abc 3827 91bd 770e 7f3d
000001d0: dabd 32bc 15ce a3bd 955c 3cbd 3ffd c6bc
000001e0: 0b8c f5bd b730 85bd bcea 873d eddb 79bc
000001f0: 730f e73c e1ef 14bd d615 8ebb 912d e33c
00000200: 64f0 d83d 8cb3 023c f35e 9c3d 66b8 303d
00000210: b48f 2dbc 9c1f c2bc b95d 1abc 1ea8 16bc
00000220: 74bb ab3d e4d2 623d ea46 2cbd 73f7 0d3d
00000230: 1c56 06bd 351f e839 d73b 2cbd 581f 04bd
00000240: 56e9 9fbb 975d 4e3c b688 43bc 1b5a 55bd
00000250: 180a 2bbd 7854 c93c 1b3e f73b 3251 8fbd
00000260: 5e9e e5bd a0f6 2abd eb12 cebc e2be 983d
00000270: 2b31 843b a065 02be d405 35bd 52f0 183d
00000280: d885 7abd f30f 83bc bb75 793d 556a f03d
00000290: 173e 4d3b a8db 0a3d 1946 173d 1c41 ae3c
000002a0: a34c ddbd 494c 63bc 4b9c b2bc f42b 0fbd
000002b0: b374 48bd e60f 9a3b 6832 34bd 6bfe fabd
000002c0: 8d3e 343d 1783 423d 6a38 0dbd b5b9 8c3d
000002d0: 2334 45bd f8a4 01bd 2068 383d f22a bf3d
000002e0: 9f7f 23bc 0b36 ba3c d84d 8b3c c810 9dbc
000002f0: 495a b1bd b163 cfbc f047 be3c fcfc f0bb
00000300: 5859 e5bc cd41 81bc bb42 34bc cae3 c5bc
00000310: b1c6 c53c 1bdf 7cbc 6205 b83d cad4 0dbd
00000320: 14ef 87bd 093c 34bd 4546 153d 9ffa 0cbc
00000330: 66b6 963d 6aff 85bc 46db 09ba 4aa8 3ebe
00000340: 1b82 5c3d 39a0 1dbd c18c 91bc d767 f53b
00000350: 3358 dd3a 6cea 68bd d34d 113c c96e f5bc
00000360: 52f7 bf3d 467a e13c ad48 80bc 2816 b0bd
00000370: fca3 a23b 913a d7bd c59f 4abd c822 383d
00000380: e153 2fbc 2f97 c2bc 1c09 b03d 800e 12bd
00000390: 9515 28be f5b6 f6ba a2dc 833d 5840 0cbc
000003a0: b085 06bd ccc7 2cbb b9b4 8ebb d2b0 03bd
000003b0: 078c 463d e04f 8b3d 3cc9 84bd c005 a3bd
000003c0: 0019 ca3c 9a76 5e3d 7ab7 05be 8754 0bbd
000003d0: f9b1 53bd b22b eebc 8e4b 7bbb 6967 b13c
000003e0: c360 203d 1e4a 8bbd 2322 7ebc 1931 933d
000003f0: 97b6 723d b2c0 b03c cb4f ac3c cb13 a33d
0.033412322 -0.09434587 0.09307582 -0.0071641565 0.054687783 -0.0027537132 0.06621467 0.061838124
0.03608813 0.07032326 0.005645596 0.048233975 0.046340536 -0.04370723 -0.03540262 -0.060660705
0.012394955 -0.13287774 -0.04011363 -0.021040132 0.008060946 -0.12938212 0.0076401583 -0.035171293
0.011706422 -0.18025923 -0.13795704 0.08920048 -0.023449376 0.034613326 -0.016253466 0.08504552
-0.004741419 -0.049246695 0.08819729 -0.0038851567 0.029301126 0.04617606 -0.06398039 -0.06796613
-0.016973743 -0.047543798 -0.10563824 -0.032035105 -0.025215814 0.03345214 0.002327257 -0.009886506
-0.0359188 -0.010582979 0.017212385 0.0007857235 -0.010034131 0.010719633 -0.10004187 -0.00571203
0.041872296 -0.05916003 -0.040170237 -0.059000667 -0.044259086 0.024445444 0.087191895 -0.0039949086
-0.039208975 0.0065792305 0.0882891 0.050756205 0.045133214 -0.05949359 -0.036308292 -0.03615109
0.053524658 -0.030856248 0.020280419 -0.1527557 0.0022176674 -0.068026565 -0.10001852 0.01567097
0.069150604 -0.009095669 -0.048216872 0.05881775 -0.00419638 0.004750307 0.06747095 -0.063151196
-0.08336798 -0.017776445 -0.07157406 0.088133834 0.0032668482 0.032456312 -0.010569105 -0.043416906
-0.064734384 -0.047026448 -0.053074602 0.0046895533 -0.017455317 -0.022482721 0.006244355 -0.0030992145
0.058925003 -0.025446074 -0.03681515 -0.059895106 -0.18282574 -0.05402862 0.010694105 -0.024549618
0.030899435 -0.018801766 -0.070875585 0.062269654 -0.010909522 -0.079982914 -0.04598673 -0.024290679
-0.11989602 -0.06503432 0.06636569 -0.015250188 0.028205609 -0.03636158 -0.004336099 0.027731689
0.10592726 0.007977378 0.076352976 0.043144606 -0.0105933435 -0.023696713 -0.009421759 -0.009195356
0.08385363 0.055376902 -0.042059816 0.034659814 -0.032796964 0.0004427374 -0.042049255 -0.032256454
-0.0048801107 0.012595556 -0.01193445 -0.052087884 -0.041757673 0.02457641 0.0075452453 -0.06997909
-0.11211847 -0.041739106 -0.025155505 0.07458283 0.0040341816 -0.1273408 -0.04419501 0.037338562
-0.0611628 -0.015998816 0.060903292 0.11739031 0.0031317526 0.033900887 0.036932085 0.021271281
-0.10805633 -0.013873168 -0.021803042 -0.034954026 -0.048939418 0.0047016023 -0.043993384 -0.122555576
0.044004966 0.0474883 -0.03447763 0.06871358 -0.048145425 -0.031651467 0.045021176 0.09334363
-0.009979158 0.022730848 0.017004892 -0.019173041 -0.08659799 -0.025316091 0.023227662 -0.007354377
-0.027996704 -0.015778447 -0.011002238 -0.02415647 0.024142595 -0.015434052 0.08985402 -0.03462676
-0.066373974 -0.044002566 0.036443967 -0.008604675 0.073590085 -0.016357142 -0.00052588095 -0.18618885
0.053835016 -0.03848288 -0.017767312 0.0074891853 0.0016887247 -0.056864187 0.008868652 -0.029960053
0.093733445 0.027524125 -0.015659655 -0.08597976 0.004963396 -0.105092175 -0.049468774 0.044955045
-0.010701151 -0.02375373 0.085954875 -0.03565836 -0.16414483 -0.0018822836 0.06438567 -0.008560263
-0.032842338 -0.0026364205 -0.00435504 -0.03215105 0.048473384 0.06802344 -0.06483695 -0.07960081
0.024670124 0.054312326 -0.13058272 -0.03401616 -0.0516834 -0.02907357 -0.0038344595 0.021655755
0.03915478 -0.06801246 -0.0155110685 0.07187099 0.059256162 0.02157626 0.021034142 0.079627596

net.model.4.weight f4 [16, 256]
00000000: 0740 48bc 418e 09be a7be fd3d b557 f3bc
00000010: 48f5 13bd 6542 a0bd 21bf a6bd eb3d 4abd
00000020: efd3 7d3e 60d9 b53d bd18 183e 10bc 973c
00000030: 9d05 e23c d3bf 7c3b 7b60 88bc f26a 34bd
00000040: a4cb c4bb 9e5b 43be ee28 913c adbb 493d
00000050: 842c 07bc 8bdd f5bd 8e7b 8dbb 742a 363d
00000060: f261 b33d ba64 80bb c33e 72be 414b ea3d
00000070: 8d9e 00bd e854 8a3c 55f6 c5bb 5c13 e33d
00000080: 1e23 74be c319 483d a6a5 9dbe 0f49 bf3d
00000090: 26fc 24be 2def f93d 8b88 6dbe f68c 52bd
000000a0: aade 1dbd 42b6 0fbe fb40 9ebe c11d d9bd
000000b0: 4bfb e93c 7641 47bb 7eca 35bd a8fc 893d
000000c0: c8eb 9d3c 889b 69bc c97e 163e 4a96 0dbd
000000d0: 0360 01be 5963 0c3d ea12 833d 99f2 843c
000000e0: babc e43d 342f 873c 67b1 693b 3609 63bd
000000f0: 1852 88bc 1eef 23be ec6c 87bc 25b7 493d
00000100: 858e 453e 934d 77bd 6472 273e 22d9 683d
00000110: f4ca 2b3c 324a cdbc d770 02bd c12b c73d
00000120: b2d1 b23c f3a6 bb3c 6a92 af3d 6894 75bd
00000130: 9ab1 b83a 72d7 513d 0501 f73e dad3 06bc
00000140: a33b 5dbe f012 e23c 39c4 563c 065c 3fbe
00000150: 2a05 9a3d d083 193e 4026 163e d3ce 70bd
00000160: 9b1d b53d 2591 363e 5625 a8bb f411 90bd
00000170: 7185 eabd 1fbc 61be df51 a5bd d688 4cbc
00000180: c82e 183c 7a24 293d aa1d 0ebe 3c70 c73d
00000190: 3a5f 28be fa38 e5bb 63f7 59be 26d5 353d
000001a0: 3d82 b73d eaec f4bc b393 94bc 448a d93d
000001b0: a83c 15be 83d5 183d 493c 3abd 3251 a43d
000001c0: f588 bfbd a705 adbb b18d 8f3e 90d2 843e
000001d0: df1f 2cbe fabd 043e a60c 103e 9174 263d
000001e0: b8c8 46be 6b9d 9d3c cf46 4fbd 7c3e 4e3e
000001f0: 23c1 503d 683d 093d 9f88 89bd 66ff 05be
00000200: c550 9a3d 8003 dcbc adcd 4fbd c26f 9f3d
00000210: a276 9bbc 7a2c 253d e22a 4bbe b4e2 92be
00000220: 963c 81bc 9d08 ed3b 1765 3a3d ebc8 8c3b
00000230: face 66be 3c67 433c 7d60 8f3c d3eb 5e3d
00000240: 4be6 17bb 1846 42be c555 543d 0aa9 593d
00000250: 2bf5 643e b5f9 7dbe 9552 67be 74f3 473e
00000260: 0f79 e1bd 19fb 713e 62c9 803e c189 2d3e
00000270: 6756 a8bd 8e8b 27be 3c04 f33d 8365 d5ba
00000280: b00e 88bc 9b45 aa3d d453 8a3c 89cb 833d
00000290: 53f5 4d3e 21d6 663d 8b3e 5f3e bca3 323c
000002a0: 3822 383e ef93 b43d 7371 a9bc ad51 2d3b
000002b0: 2df5 20bc 403b 4abd 3b2d a9bd e91f 073e
000002c0: 784b 59bd e1a7 84bc cfe7 c73c 55e2 d0bd
000002d0: 6608 593c 8a41 173d 87a6 f0bc ea4d 39bc
000002e0: eeca 883d b286 bfbc 1bc8 8abd 2dd5 363e
000002f0: 564e 38bd 63cf 87bd ab2a 85bd 96c5 17bd
00000300: 71b2 7f3e 7613 573c 94b8 9d3e edc4 e33d
00000310: 2b48 7bbe d901 333d 7c93 b43d bb41 253c
00000320: c310 2e3d ad71 f1bc 7536 1b3d 4507 e13c
00000330: 8cb7 cc3e 1091 d33d 785b c7be b487 3bbe
00000340: b677 36be 8d7a 8a3c 30a6 143e 5725 a8bd
00000350: 91b9 52be 0daa 6fbc 15f1 f9bd a415 223c
00000360: 043c 5cbe 23f1 053e 5ddf 3e3d 366d be3c
00000370: 0a2b 46bd 79a9 d1bd df22 5cbe 1165 e03c
00000380: ceb3 073e 4aa6 133d 6e86 dbbd a6af 103e
00000390: 5d5b 03bf 4387 e6bd 8d8d 85bd 76fe 203d
000003a0: 645a 883c 8879 3e3e 71f6 05bd e10f a2bb
000003b0: 49e6 cd3d 263e 8e3d f844 13bd d1c5 b9bd
000003c0: 1ae7 fd3d cc9c a4bd 4a57 cf3d 898b b3bc
000003d0: bb1b 413c 257a eebc 3292 743c ee5c 74bc
000003e0: 1108 c9bd 637a 61be e115 d8bd 038d 0abe
000003f0: 1506 8fbd 922a 32bc 84cd eabb 33c2 6abe
-0.012222297 -0.13433172 0.1238988 -0.029704908 -0.03612259 -0.07825164 -0.08141924 -0.049375456
0.24787878 0.088793516 0.14853187 0.018522292 0.027590567 0.0038566485 -0.016647568 -0.044047303
-0.006005721 -0.19077918 0.017719712 0.049251247 -0.008250359 -0.120051466 -0.0043177074 0.04447408
0.08758916 -0.0039182575 -0.23656754 0.11440135 -0.031401206 0.01688619 -0.006041328 0.11087677
-0.23841521 0.048852693 -0.30790442 0.09340107 -0.16111812 0.12203822 -0.23196618 -0.051403962
-0.038542427 -0.1403437 -0.3090895 -0.10601378 0.028562209 -0.0030404008 -0.044382565 0.067376435
0.019277468 -0.014258273 0.14696802 -0.034567155 -0.12634282 0.034274433 0.06400092 0.01622896
0.11168809 0.016502 0.0035658719 -0.055428706 -0.016640708 -0.16009185 -0.01653143 0.049246926
0.19292648 -0.060376715 0.1635223 0.0568477 0.0104853995 -0.025059793 -0.031845894 0.09725142
0.021828506 0.022906756 0.08572848 -0.059955984 0.0014091015 0.051230855 0.48242965 -0.00822922
-0.21604781 0.02759692 0.013108307 -0.18687448 0.07520516 0.14991689 0.14663029 -0.058790993
0.088435374 0.17828806 -0.005131404 -0.07034674 -0.11451233 -0.22044419 -0.08072256 -0.012483796
0.009288497 0.041294552 -0.13878503 0.09738204 -0.16442576 -0.0069953175 -0.21285777 0.044392727
0.08960388 -0.029898126 -0.018136835 0.10622075 -0.1457392 0.037312996 -0.04546765 0.08023299
-0.09352294 -0.005280215 0.2803779 0.25941896 -0.16809033 0.12963095 0.14067325 0.04063851
-0.19412506 0.019240102 -0.050604638 0.20141023 0.05096544 0.033505827 -0.067155115 -0.13085708
0.07534937 -0.026857138 -0.050733257 0.07784988 -0.018977467 0.04032562 -0.19840577 -0.28688586
-0.01577596 0.007233693 0.045506563 0.004296412 -0.22539893 0.011926468 0.017502064 0.05442412
-0.0023178037 -0.18972051 0.05183961 0.053139724 0.22359149 -0.24802287 -0.22590096 0.19526464
-0.11009418 0.23630942 0.25153643 0.1694708 -0.08219605 -0.1636183 0.11866042 -0.0016280863
-0.016608566 0.083140574 0.016885675 0.064353056 0.20113115 0.056356553 0.21801202 0.010903295
0.17981803 0.088172786 -0.02068398 0.0026446388 -0.009824079 -0.04937291 -0.0826058 0.13195767
-0.05305049 -0.016193332 0.024402527 -0.101994194 0.013246631 0.036927737 -0.029376281 -0.01131008
0.06679331 -0.023379657 -0.06776448 0.17854758 -0.044996582 -0.06631353 -0.06502279 -0.037053667
0.24970414 0.013127198 0.30804884 0.11121545 -0.24539249 0.043702934 0.08817193 0.010086472
0.042496454 -0.02947315 0.03789373 0.027469287 0.39983785 0.10330403 -0.38936973 -0.18313485
-0.17819104 0.01690414 0.1451652 -0.08210247 -0.205786 -0.014627946 -0.12204186 0.009892855
-0.21507269 0.13080268 0.046599735 0.023245435 -0.04838089 -0.102374025 -0.21497677 0.027391942
0.13252184 0.036047257 -0.10719 0.14129505 -0.51311284 -0.11256268 -0.06521139 0.039305173
0.016644664 0.18601048 -0.032705728 -0.0049457406 0.10053689 0.069454476 -0.035954446 -0.090709336
0.12397595 -0.08037719 0.10124071 -0.021917121 0.011786397 -0.029110977 0.014927434 -0.014914734
-0.09815992 -0.22019343 -0.10551048 -0.13530354 -0.06983582 -0.010874407 -0.0071656127 -0.22925644

net.model.4.bias f4 [16]
00000000: 0b0d 923b 2d8c cdbc 6952 533d 34a3 303d
00000010: 4d0f 4ebd ed64 38bc a994 993b 2099 80ba
00000020: cfab b1bd 4f35 86bd 0152 75bd 6224 65bd
00000030: 5625 51bd d2f3 e4bd 27c5 c1bc 8537 02be
0.0044571212 -0.025091255 0.051592264 0.043124393 -0.05030756 -0.011254531 0.004686911 -0.000981126
-0.08675348 -0.065531366 -0.05989266 -0.0559429 -0.051060997 -0.111793175 -0.02365358 -0.12716492
