SAC/sac_actor.pth (torch, 291053 bytes, 6 tensors)

net.model.0.weight f4 [256, 7]
0.037395474 0.8306407 -0.32351285 -0.602217 -0.014790236 -0.8900056 0.37844086 1.1415217
-0.027472204 -0.08184998 0.082044005 -1.054435 -0.46475324 0.01568449 -1.1780833 0.031948693
-0.1265313 1.2510759 -0.197366 -0.27654088 -0.931769 0.652051 0.52494156 0.24275693
-0.87591285 -0.06622959 0.08041702 -0.6947384 0.28236067 0.009840676 -0.13599892 2.2841368
0.36806127 1.2761093 -0.7386754 -0.36783502 -0.5941291 0.09232985 0.28151396 -0.09320856
0.046450783 -1.0439111 0.058533393 -0.31497312 -0.31315598 -0.1638517 0.23313734 0.233992
-0.15584022 0.38988706 0.57326555 0.13425195 0.43172 0.91152173 0.21267533 -2.3213677
0.07043142 -0.29303792 -0.26196194 -0.19525023 0.17101873 0.15200235 -0.2238882 0.47295097
0.6963365 0.094225 -0.9466879 1.3850666 0.34096763 0.849635 -0.9680458 0.043130707
0.16984482 1.6020361 1.1042987 1.1066391 -0.49239028 -0.79589903 0.058030855 -0.17379569
-1.207865 0.93322617 0.9515949 -0.49328637 0.07074439 -0.0636719 -0.062198266 -0.17301583
0.14534856 -0.22386968 0.13855849 0.2069049 0.53929365 -0.08026827 -1.8029644 -1.5897343
0.04464606 -0.8691834 0.06459869 -0.19732645 0.25790888 0.15470852 -0.519228 -0.21027973
-0.46004853 -0.0067935856 -0.28462952 -0.29154542 -0.020825693 0.056749497 -0.1547879 0.22427565
-0.5355002 0.78625184 0.057898905 -1.5722394 0.6681323 -1.2342055 0.36698014 0.8352687
0.27647543 -0.11247683 0.040768627 -0.0051681865 -0.5955149 -1.5130172 -0.09461579 -0.18411154
-0.13222459 -0.30978787 -0.08039877 0.08079234 -0.24623092 -0.78484654 0.3307382 -0.19272889
1.2768232 1.6517078 -0.51947 0.30831817 -0.008904679 0.29895294 0.10585089 0.16627572
-1.1633197 -0.3728625 1.6485897 0.26694563 -0.4456711 -0.2781221 -1.9939982 -0.41601717
0.41504785 0.51041806 0.18726003 -0.13824332 0.064432256 -2.5298607 0.20295274 0.4081965
-0.17762977 0.1588317 -0.6997669 -0.25671774 -0.057086207 -0.62289935 1.0473461 1.1579318
-0.43051448 0.024511363 -0.027160719 0.054127377 1.1208011 0.40721968 -2.5217242 0.7461792
-0.24689896 -0.22601917 1.139658 0.09665454 0.24681877 0.7222501 0.3454248 0.6177284
-0.09982007 -0.031850945 -1.1543273 -0.6135016 -1.1631544 -0.3388903 0.33005217 0.20598672
-0.60546786 -0.60444134 -1.7411608 -0.11949133 -0.22024198 0.12916747 -0.225234 -0.008246129
0.015900256 0.24364461 -0.28571093 -0.88685364 0.0821315 0.046096426 0.16044208 0.8394493
1.4414335 0.388817 -0.53087586 0.1405432 0.014886428 -0.9984731 -0.18900454 1.9062636
-0.5397616 -0.19810306 0.30520356 -0.3067358 -0.027140189 0.3738971 0.13653477 0.010701323
-0.32754776 0.18723524 -0.2692168 -0.1072906 -0.12681325 -0.055971768 0.004134284 0.81588334
-0.024057113 0.16824277 0.82005614 0.031347264 0.31422624 -1.3578811 -0.1338843 -0.049555626
0.023611331 2.5093234 -0.13862623 -0.027289197 -0.14429642 -0.23982635 0.48714632 -0.3195998
0.08278539 0.512219 -1.0216713 -0.0800211 0.3125459 -0.110486396 -0.22439528 -0.13978593
00000000: ff2b 193d dea4 543f 7aa3 a5be e52a 1abf
00000010: bf52 72bc 68d7 63bf 00c3 c13e 621d 923f
00000020: 630d e1bc f6a0 a7bd b006 a83d baf7 86bf
00000030: 23f4 edbe c27c 803c 6fcb 96bf a2dc 023d
00000040: 6c91 01be 4123 a03f 501a 4abe c496 8dbe
00000050: 6a88 6ebf d0ec 263f 9262 063f 4695 783e
00000060: d33b 60bf 61a3 87bd aeb1 a43d 60da 31bf
00000070: 9491 903e c93a 213c 4d43 0bbe 4c2f 1240
00000080: 8772 bc3e 8d57 a33f d519 3dbf df54 bcbe
00000090: d818 18bf 6f17 bd3d 9922 903e 21e4 bebd
000000a0: 2d43 3e3d e19e 85bf b6c0 6f3d 2844 a1be
000000b0: fb55 a0be bdc8 27be 8ebb 6e3e 999b 6f3e
000000c0: 9494 1fbe 479f c73e 88c1 123f 5879 093e
000000d0: 670a dd3e 7d59 693f 90c7 593e 4a91 14c0
000000e0: 593e 903d 1109 96be e01f 86be adef 47be
000000f0: 891f 2f3e 81a6 1b3e f342 65be a126 f23e
00000100: 1c43 323f 09f9 c03d 235a 72bf dd49 b13f
00000110: 4f93 ae3e ae81 593f d9d1 77bf d3a9 303d
00000120: cdeb 2d3e 850f cd3f a959 8d3f 5aa6 8d3f
00000130: 941a fcbe 0ac0 4bbf c3b1 6d3d 7ff7 31be
00000140: 529b 9abf e9e7 6e3f b99b 733f 0890 fcbe
00000150: 6fe2 903d 6a66 82bd 9cc3 7ebd 102b 31be
00000160: 41d6 143e 183e 65be 47e2 0d3e e1de 533e
00000170: 260f 0a3f b163 a4bd 8ac7 e6bf 6a7c cbbf
00000180: c9de 363d ce82 5ebf 514c 843d f20f 4abe
00000190: a20c 843e e96b 1e3e 20ec 04bf 9253 57be
000001a0: 7b8b ebbe ba9c debb f6ba 91be 7145 95be
000001b0: a59a aabc 2972 683d b880 1ebe 84a8 653e
000001c0: 8b16 09bf cd47 493f 6727 6d3d 243f c9bf
000001d0: b80a 2b3f 72fa 9dbf d2e4 bb3e 2bd4 553f
000001e0: 308e 8d3e 415a e6bd 01fd 263d e459 a9bb
000001f0: aa73 18bf 8caa c1bf ecc5 c1bd bc87 3cbe
00000200: e265 07be 849c 9ebe 1ca8 a4bd 7476 a53d
00000210: f523 7cbe b4eb 48bf 8456 a93e b95a 45be
00000220: f16e a33f 296b d33f fcfb 04bf e1db 9d3e
00000230: eee4 11bc 5c10 993e 5ac8 d83d 2f44 2a3e
00000240: a9e7 94bf d5e7 bebe fd04 d33f 19ad 883e
00000250: 012f e4be 0566 8ebe 553b ffbf 3400 d5be
00000260: 2781 d43e c2aa 023f 18c1 3f3e a88f 0dbe
00000270: 0ff5 833d 3de9 21c0 d8d2 4f3e 22ff d03e
00000280: 94e4 35be c7a4 223e ec23 33bf 8270 83be
00000290: 3ad3 69bd 5576 1fbf 700f 863f 1c37 943f
000002a0: 656c dcbe 0ecc c83c 2880 debc abb4 5d3d
000002b0: 6976 8f3f 197f d03e ee63 21c0 9a05 3f3f
000002c0: 15d3 7cbe 9271 67be 50e0 913f d1f2 c53d
000002d0: 0fbe 7c3e 62e5 383f 85db b03e 7323 1e3f
000002e0: 776e ccbd 2376 02bd ffc0 93bf 710e 1dbf
000002f0: 3ee2 94bf 0883 adbe 99fc a83e 2fee 523e
00000300: f1ff 1abf abbc 1abf 5bde debf dfb7 f4bd
00000310: 1d87 61be 7a44 043e bea3 66be c61a 07bc
00000320: 4141 823c f97d 793e b448 92be d708 63bf
00000330: 8f34 a83d 9bcf 3c3d ee4a 243e 26e6 563f
00000340: e580 b83f 0613 c73e 7be7 07bf 8eea 0f3e
00000350: 34e6 733c ef9b 7fbf 688a 41be 7200 f43f
00000360: d12d 0abf 87db 4abe a443 9c3e 7a0c 9dbe
00000370: 1a55 debc 716f bf3e c5cf 0b3e 9a54 2f3c
00000380: 57b4 a7be 98ba 3f3e c9d6 89be 2dbb dbbd
00000390: 55db 01be a742 65bd e378 873b bbdd 503f
000003a0: 6c13 c5bc d547 2c3e 33ef 513f fd65 003d
000003b0: 43e2 a03e 0ccf adbf f718 09be d7fa 4abd
000003c0: 8d6c c13c c198 2040 09f4 0dbe 988d dfbc
000003d0: 71c2 13be 0a95 75be 3e6b f93e 96a2 a3be
000003e0: 638b a93d c920 033f 20c6 82bf 1ae2 a3bd
000003f0: 0406 a03e b146 e2bd e0c7 65be 0b24 0fbe

net.model.0.bias f4 [256]
0.3007033 0.10844358 0.10131235 -0.27357674 0.048213296 -0.09896972 0.090455025 -0.25784078
0.056456447 -0.091146596 -0.28863302 0.20338076 -0.27785882 0.005465586 -0.27158606 -0.12346228
-0.17061199 0.06673788 -0.2661696 0.09421129 -0.17732334 0.26006374 -0.026384598 0.345033
-0.012428817 0.18352236 -0.0069559785 -0.30278358 -0.10138135 0.023154564 0.022037707 -0.13353528
-0.37469044 -0.22833158 -0.036654048 0.38436866 -0.34131294 -0.000416515 -0.2454502 -0.3614481
-0.23669818 -0.06603323 -0.15316774 -0.3783752 0.32858545 0.12134494 -0.1978084 0.29773176
-0.32274014 -0.26113 -0.03219464 -0.22998099 -0.37665096 -0.30265033 -0.10111282 -0.17271547
0.28486466 -0.03302703 0.11201429 -0.1525232 0.024322914 -0.08489831 -0.010435449 -0.01728307
-0.004333157 0.053813573 -0.045588326 0.0016662033 -0.22200947 -0.08587184 0.043310568 -0.11314892
-0.15847655 -0.20026758 -0.10467225 0.07425193 0.31849295 0.0065561626 0.3227613 -0.09469527
-0.124000125 -0.029382622 0.10850346 -0.2221423 -0.014995441 -0.45538637 -0.110883124 -0.14834088
0.030934809 -0.34023365 -0.21921685 -0.5157562 0.104442954 -0.29091507 0.15757027 -0.27685842
-0.19147941 -0.19309282 -0.14611533 0.31469816 0.30541244 -0.18887854 -0.370215 -0.12487004
-0.14404643 -0.08039142 0.0145293735 -0.014094396 0.0501304 0.14001605 -0.31419954 -0.004009521
0.05466814 -0.018074194 -0.10567193 -0.047180902 -0.35710564 0.16967778 -0.051635113 -0.6614759
-0.014417908 -0.08208602 0.064626865 0.20935461 -0.15863083 -0.18357672 -0.11527696 -0.0012601728
-0.051372953 -0.21268778 -0.060092602 0.07713566 -0.061175108 -0.034751605 -0.14671229 0.34435794
-0.20127673 -0.1286133 -0.34682137 -0.33042946 -0.013904488 0.06315797 0.025903696 0.016399575
0.013224196 -0.0055704424 -0.3262787 -0.3322056 -0.29305324 -0.040104788 -0.39072862 -0.12095356
-0.0764209 0.0701061 -0.12655258 0.13115379 0.33495784 -0.24112497 0.0630772 0.062414993
0.33196008 -0.11713914 -0.14854085 -0.23942395 -0.034072347 -0.1460554 -0.09370767 0.0055265888
0.33212075 -0.01592792 -0.26445004 0.26374647 -0.12926565 -0.17417541 -0.3281279 -0.20363449
-0.42142028 -0.30651256 -0.36883447 -0.10812609 -0.057144847 -0.44513664 -0.11558914 -0.25470838
-0.051364105 0.3495004 -0.07988232 -0.1902294 -0.34482944 -0.3396512 -0.03553707 -0.022246985
0.038521364 -0.32421765 0.0022596999 -0.3367372 0.08827313 0.29783866 -0.37407082 -0.19621174
0.16137774 -0.059094254 -0.22491723 0.13397676 0.025336292 0.014803752 -0.11480073 -0.20027497
0.3090239 0.06770918 -0.17231463 0.002542033 0.0071968855 -0.15504156 -0.100476645 0.059924006
-0.1831535 0.10666678 -0.25890538 0.14611602 -0.1770132 0.005035005 0.26933828 0.04556345
-0.037882604 0.303921 -0.4087762 -0.22151904 -0.4267959 -0.23265569 0.009809783 -0.17138639
-0.14054988 0.04608617 -0.07009633 -0.1617698 -0.08095357 0.2558147 -0.38493183 0.20201269
-0.15011996 -0.11676526 -0.04309357 0.12240895 -0.103719816 -0.26027244 0.2027172 -0.23196438
-0.29973865 0.05467714 -0.03711768 0.07069797 0.12845089 0.030492982 -0.18396439 -0.15805258
00000000: c8f5 993e ab17 de3d d97c cf3d 4012 8cbe
00000010: 4e7b 453d a3b0 cabd 7c40 b93d b503 84be
00000020: e03e 673d 11ab babd b5c7 93be 0c43 503e
00000030: 8343 8ebe a918 b33b 540d 8bbe cbd9 fcbd
00000040: e9b4 2ebe dfad 883d 6247 88be d9f1 c03d
00000050: 4094 35be 1327 853e 8324 d8bc 2aa8 b03e
00000060: 3da2 4bbc 49ed 3b3e faee e3bb 7306 9bbe
00000070: 06a1 cfbd a4ae bd3c 6c88 b43c 79bd 08be
00000080: 6dd7 bfbe c1cf 69be 8e22 16bd f8cb c43e
00000090: 92c0 aebe b25f dab9 4c57 7bbe ba0f b9be
000000a0: 0261 72be 6e3c 87bd 01d8 1cbe 65ba c1be
000000b0: 5a3c a83e b283 f83d 498e 4abe 4c70 983e
000000c0: 323e a5be d5b2 85be 87de 03bd 2380 6bbe
000000d0: 65d8 c0be fcf4 9abe 3d14 cfbd 53dc 30be
000000e0: c8d9 913e 5a47 07bd c067 e53d 0b2f 1cbe
000000f0: d940 c73c 2adf adbd 72f9 2abc 3a95 8dbc
00000100: 28fd 8dbb 9f6b 5c3d d3ba 3abd 8164 da3a
00000110: 7356 63be 93dd afbd 6c66 313d 9fba e7bd
00000120: ad47 22be f212 4dbe 685e d6bd 6511 983d
00000130: 8211 a33e 14d5 d63b f840 a53e 98ef c1bd
00000140: c7f3 fdbd d3b3 f0bc 1037 de3d 4579 63be
00000150: 70af 75bc 6728 e9be b116 e3bd ace6 17be
00000160: ff6a fd3c 1b33 aebe 627a 60be 9908 04bf
00000170: 30e6 d53d d2f2 94be 1a5a 213e 63c0 8dbe
00000180: 2e13 44be 20ba 45be 429f 15be 1e20 a13e
00000190: 055f 9c3e 6069 41be d28c bdbe ddbb ffbd
000001a0: e880 13be 42a4 a4bd 9c0c 6e3c 2eec 66bc
000001b0: 8955 4d3d 5e60 0f3e c3de a0be 4d62 83bb
000001c0: b3eb 5f3d 5510 94bc 866a d8bd c340 41bd
000001d0: 8dd6 b6be 03c0 2d3e 577f 53bd 7c56 29bf
000001e0: 1739 6cbc b71c a8bd 175b 843d 0e61 563e
000001f0: 1f70 22be 89fb 3bbe 5416 ecbd 622c a5ba
00000200: 726c 52bd d3ca 59be a923 76bd 4df9 9d3d
00000210: c092 7abd b357 0ebd bf3b 16be af4f b03e
00000220: 7d1b 4ebe 34b3 03be 9292 b1be 0d2e a9be
00000230: a6cf 63bc f758 813d fd33 d43c 6758 863c
00000240: 4caa 583c 4288 b6bb 000e a7be da16 aabe
00000250: 130b 96be eb44 24bd 950d c8be 80b6 f7bd
00000260: 9082 9cbd c993 8f3d 0097 01be 2e4d 063e
00000270: 987f ab3e 77e9 76be 9e2e 813d dda6 7f3d
00000280: acf6 a93e a5e6 efbd 181b 18be 8d2b 75be
00000290: 728f 0bbd 8c8f 15be cfe9 bfbd 6318 b53b
000002a0: bb0b aa3e 457b 82bc ff65 87be c709 873e
000002b0: 375e 04be 0a5b 32be 6100 a8be 8f85 50be
000002c0: 66c4 d7be 37ef 9cbe dfd7 bcbe 3671 ddbd
000002d0: b710 6abd f3e8 e3be 00ba ecbd 2369 82be
000002e0: 2b63 52bd b7f1 b23e 5799 a3bd 7fcb 42be
000002f0: 7c8d b0be c3e6 adbe 528f 11bd 4f3f b6bc
00000300: 94c8 1d3d dbff a5be 7917 143b d168 acbe
00000310: 8bc8 b43d 4f7e 983e 3686 bfbe bbeb 48be
00000320: 3540 253e d10c 72bd b450 66be 3431 093e
00000330: 0e8e cf3c 708b 723c a51c ebbd e214 4dbe
00000340: 6138 9e3e 1cab 8a3d 3f73 30be 3d98 263b
00000350: dad3 eb3b 37c3 1ebe b3c6 cdbd e072 753d
00000360: 978c 3bbe 1d74 da3d 3f8f 84be 709f 153e
00000370: f342 35be affc a43b b5e6 893e bda0 3a3d
00000380: ca2a 1bbd 899b 9b3e 1d4b d1be e3d5 62be
00000390: fe84 dabe 4b3d 6ebe 36b9 203c ea7f 2fbe
000003a0: 4fec 0fbe dac4 3c3d aa8e 8fbd fca6 25be
000003b0: fcca a5bd 25fa 823e c915 c5be 6adc 4e3e
000003c0: 0cb9 19be a022 efbd e282 30bd 8bb1 fa3d
000003d0: 0e6b d4bd 6e42 85be 1995 4f3e 1288 6dbe
000003e0: 5877 99be 23f5 5f3d b508 18bd 19ca 903d
000003f0: a188 033e 6bcc f93c 2961 3cbe 89d8 21be

net.model.2.weight f4 [256, 256]
-0.09270168 0.13204578 0.120250195 0.057892576 -0.044678036 0.14620382 -0.0063451454 -0.30450907
0.05358941 -0.11026824 -0.2678955 -0.52914786 0.024134226 -0.2524872 0.37233323 0.015630506
-0.34600833 -0.39162436 -0.059901737 -0.53135866 -0.07819995 -0.424119 -0.12083533 0.17730413
-0.7094415 -0.3205262 -0.1929337 -0.80217034 0.010908663 -0.009633115 -0.054113436 -0.028976426
-0.024347179 0.021223878 -0.13754132 -0.15723874 -0.007892728 -0.21041767 -0.062003292 0.043562688
-0.035773337 -0.018666977 -0.27770594 -0.15828793 0.2574002 0.16376586 -0.005729781 -0.0037467221
-0.19285516 0.018507322 -0.08830367 -0.06988523 -0.44208047 0.00618162 -6.450624e-05 0.24026546
0.035408963 -0.3440078 -0.056000482 -0.022074938 -0.44603914 -0.052242346 -0.62107885 -0.021804798
-0.3116686 -0.40918863 0.200521 0.27425614 -0.052915953 -0.45544618 -0.9337015 0.08126297
-0.07648363 0.024335042 -0.43427548 -0.24594404 -0.11913137 0.26793492 0.29732847 0.039244227
0.046597227 -0.20823447 -0.31108096 0.04481941 0.058519207 -0.3797538 -0.040967606 0.026782028
0.40464658 -0.053465568 -0.081533894 -0.22915138 -0.27773115 0.059823602 -0.5672694 0.13675289
0.16666989 -0.0031649023 -0.047185227 0.027832499 0.093261115 0.012488652 0.04741975 0.04812108
0.031287 0.009074308 -0.4124056 -0.19317344 -0.20517623 -0.4498381 0.10496768 -0.01642482
-0.2634446 -0.25529397 0.009905359 0.010919295 -0.051860645 -0.0672575 0.17963935 0.07746001
-0.4165322 -0.6907966 -0.29628468 -0.15561941 -0.21803215 -0.5548868 -0.29985937 -0.28604588
0.13210881 -0.010443822 0.039560884 0.23773204 0.16282263 0.47103673 -0.03446703 -0.16113675
0.51165104 -0.16820928 0.123293854 0.012585729 -0.30542728 0.1817953 -0.52295244 0.017930262
-0.11346585 -0.52838904 0.008257352 0.015117586 -0.005643226 -0.261313 0.05326644 -0.03542047
0.032894798 -0.07772007 -0.33692506 0.13571715 0.2929181 0.04638131 0.011643813 -0.003633827
0.13012218 -0.053767204 0.006192498 -0.030303672 0.10698112 -0.12975384 0.047615767 0.31660986
-0.12309113 -0.018302009 -0.12299936 -0.026456408 0.051973157 -0.031085983 0.025308274 0.15322137
-0.31236926 -0.2307021 -0.05776721 -0.03599265 0.100845955 0.015911799 0.13029411 -0.10925513
0.28661242 0.08417492 -0.32261476 0.04396148 0.26151872 0.443294 0.17563125 -0.13721848
-0.24559999 0.1413713 0.21602532 -0.04303106 -0.046362918 0.13634117 -0.025786497 -0.0024274513
-0.17600653 -0.04085493 -0.2002119 0.024602149 0.04995341 0.0476012 -0.0061641484 -0.17957823
0.3533939 -0.020789161 0.20771092 -0.05815631 -0.019618284 -0.042200416 0.09139851 -0.38403293
0.033441097 0.3061769 0.011598229 -0.23625576 0.07433126 -0.09306139 0.111599706 0.029070064
0.017800353 -0.07403526 -0.07651536 -0.31000537 -0.013134064 -0.036790296 0.023865506 0.016674727
0.24031654 -0.00415353 0.008552733 -0.013276361 0.10882426 -0.059293106 -0.41699922 -0.15229525
-0.03421898 -0.102260105 0.07804157 -0.36295748 0.018099302 -0.4202107 -0.0074719307 -0.17383717
-0.003262255 0.12794106 -0.22693345 -0.16157834 0.05456747 -0.21709853 -0.088489935 0.038098723
00000000: 61da bdbd 0237 073e bc45 f63d c420 6d3d
00000010: 5100 37bd 74b6 153e f0ea cfbb 9de8 9bbe
00000020: 9280 5b3d 51d4 e1bd 9929 89be 3c76 07bf
00000030: 24b5 c53c 0146 81be 76a2 be3e 8c0b 803c
00000040: 0128 b1be fd82 c8be 865b 75bd 1f07 08bf
00000050: 4c27 a0bd 2026 d9be 8378 f7bd 378f 353e
00000060: f59d 35bf 031c a4be 6990 45be 095b 4dbf
00000070: 40ba 323c 36d4 1dbc 0da6 5dbd f85f edbc
00000080: bc73 c7bc b3dd ad3c a2d7 0cbe 3103 21be
00000090: 8050 01bc bb77 57be 2af7 7dbd ca6e 323d
000000a0: 1087 12bd 7deb 98bc 792f 8ebe 3b16 22be
000000b0: f6c9 833e 3db2 273e e3c0 bbbb 918b 75bb
000000c0: d37b 45be ab9c 973c 8ed8 b4bd fd1f 8fbd
000000d0: 5f58 e2be 308f ca3b 8647 87b8 2608 763e
000000e0: fd08 113d ca21 b0be c360 65bd 80d6 b4bc
000000f0: 3e5f e4be 12fc 55bd 06ff 1ebf fa9f b2bc
00000100: 0793 9fbe 2c81 d1be 6155 4d3e 4d6b 8c3e
00000110: 66be 58bd 3e30 e9be 1007 6fbf 336d a63d
00000120: 73a3 9cbd 485a c73c 5b59 debe c1d8 7bbe
00000130: 26fb f3bd c42e 893e 703b 983e 8ebe 203d
00000140: bcdc 3e3d 6b3b 55be 0146 9fbe 8f94 373d
00000150: d6b1 6f3d 176f c2be a6cd 27bd fc65 db3c
00000160: d62d cf3e b6fe 5abd 3efb a6bd a9a6 6abe
00000170: c732 8ebe 9809 753d 9138 11bf f308 0c3e
00000180: 83ab 2a3e 406a 4fbb 4c45 41bd fb00 e43c
00000190: afff be3d 349d 4c3c 363b 423d 9c1a 453d
000001a0: cc26 003d 68ac 143c d426 d3be 42cf 45be
000001b0: b819 52be 2e51 e6be 4cf9 d63d 588d 86bc
000001c0: 36e2 86be e4b5 82be 164a 223c d8e6 323c
000001d0: d46b 54bd 4dbe 89bd 61f3 373e 5ba3 9e3d
000001e0: b543 d5be 0cd8 30bf a0b2 97be b25a 1fbe
000001f0: d243 5fbe 100d 0ebf 2b87 99be 9b74 92be
00000200: 8847 073e 901c 2bbc 980a 223d 0770 733e
00000210: faba 263e ba2b f13e 4d2d 0dbd 0801 25be
00000220: 90fb 023f 0e3f 2cbe 7d81 fc3d 6034 4e3c
00000230: f760 9cbe 8c28 3a3e 36e0 05bf 7ce2 923c
00000240: c960 e8bd 8144 07bf d849 073c c0af 773c
00000250: d0ea b8bb d1ca 85be e92d 5a3d 0e15 11bd
00000260: b2bc 063d b32b 9fbd 7181 acbe 70f9 0a3e
00000270: 5cf9 953e 54fa 3d3d b1c5 3e3c 8025 6ebb
00000280: c03e 053e 003b 5cbd 70ea ca3b 683f f8bc
00000290: eb18 db3d 31de 04be c008 433d b01a a23e
000002a0: 3417 fcbd 18ee 95bc 17e7 fbbd 1cbb d8bc
000002b0: cee1 543d 08a8 febc 4c53 cf3c 10e6 1c3e
000002c0: ddee 9fbe 2c3d 6cbe 4f9d 6cbd 076d 13bd
000002d0: 5388 ce3d 7659 823c d26b 053e 27c1 dfbd
000002e0: ddbe 923e e763 ac3d c32d a5be f410 343d
000002f0: c8e5 853e 6ef7 e23e aed8 333e 0083 0cbe
00000300: 907e 7bbe a3c3 103e be35 5d3e 5641 30bd
00000310: 0be7 3dbd 059d 0b3e 343e d3bc e015 1fbb
00000320: 0e3b 34be 8057 27bd 5904 4dbe 728a c93c
00000330: f29b 4c3d 7af9 423d a0fc c9bb 5be3 37be
00000340: 0cf0 b43e 084e aabc 2cb2 543e 5035 6ebd
00000350: 86b6 a0bc 58da 2cbd 242f bb3d f79f c4be
00000360: 88f9 083d 38c3 9c3e 8006 3e3c 08ed 71be
00000370: fd3a 983d f896 bebd 638e e43d 5824 ee3c
00000380: 0cd2 913c cc9f 97bd 16b4 9cbd 06b9 9ebe
00000390: 4230 57bc 6cb1 16bd 9881 c33c 7099 883c
000003a0: 8a15 763e 561a 88bb c320 0c3c 1885 59bc
000003b0: 41df de3d 54dd 72bd ec80 d5be 49f3 1bbe
000003c0: 3429 0cbd bf6d d1bd 42d4 9f3d 90d5 b9be
000003d0: fd44 943c db25 d7be 19d7 f4bb 5f02 32be
000003e0: 8fcb 55bb fb02 033e 3e61 68be cb74 25be
000003f0: 2482 5f3d 144f 5ebe 363a b5bd 680d 1c3d

net.model.2.bias f4 [256]
0.042955406 -0.0052263704 0.0034296596 0.013000828 0.001841768 -0.016428813 -0.028102556 -0.0034999412
-0.27206063 -0.073367245 -0.05255366 -0.019462164 -0.049827155 -0.001728109 -0.057619534 0.026930653
-0.06328839 0.027966999 -0.06828316 -0.05273802 0.05546967 -0.036045633 -0.02699223 -0.038690113
0.010803385 0.11072823 -0.03810337 0.010685444 -0.05033922 0.11169883 0.010528877 -0.051947128
0.12034145 -0.06500436 -0.04576309 -0.016284943 -0.23001891 -0.06438052 0.0084264185 0.18222012
0.13585286 9.247036e-05 -0.007353127 -0.008992985 0.08100116 -0.0030829066 -0.0011566008 -0.041749693
0.022918737 -0.03203799 0.009558494 -0.06564857 -0.048863985 -0.07337863 0.0066203475 0.17368257
-0.07652691 -0.053682644 -0.18669671 -0.08225901 -0.03985388 -0.10183139 0.016512126 -0.03742528
-0.061527837 -0.07641821 -0.014613765 0.08454829 0.008015925 -0.02899046 0.0025896477 -0.077249296
0.0017707763 0.113087654 -0.05431714 -0.0017683958 -0.045441035 0.0075093764 -0.18489271 -0.039838787
0.06318857 0.016589694 -0.11017187 -0.019772315 -0.01577439 -0.05588561 -0.0026985253 0.12488818
0.059632152 -0.052388187 -0.0031049019 0.04920767 -0.016348667 -0.036838178 -0.0681729 0.17062426
-0.05250603 0.11346846 -0.012103956 -0.064228304 -0.049111586 0.0139065655 -0.0029647623 -0.062417988
0.12717153 -0.04995019 0.23835741 -0.03391957 -0.0137070175 0.014882406 -0.053096507 -0.06187099
-0.026006293 -0.026055748 -0.009367715 -0.04600209 0.04562196 -0.02791554 -0.023837913 -0.08204642
-0.04324189 0.037490416 0.023543002 0.0058554807 0.13438521 -0.040556166 0.017129507 0.014770655
0.16184857 -0.030651927 -0.030509057 -0.044856805 -0.076610155 -0.025963329 -0.07979629 -0.083281696
0.23952538 0.23543844 0.045538303 -0.06272755 0.12554258 -0.026991121 -0.006080391 -0.012714573
0.17143698 0.016152516 -0.03146275 -0.07365211 0.014639167 -0.04806092 -0.07060542 0.013064915
-0.084761955 -0.061568107 0.07016515 -0.07518906 -0.022187298 0.04399072 -0.08052999 -0.013054844
-0.073860794 0.034696575 -0.005364136 -0.034550197 -0.06536315 0.0130844 -0.015387932 -0.0061158305
-0.0055446774 0.018750433 -0.011144221 0.019017143 0.21124975 -0.034909222 0.020149266 -0.03743742
-0.025547912 -0.14213805 -0.034177054 -0.011779754 -0.061921682 -0.056610152 0.018674506 -0.03753541
-0.07344489 -0.042356424 -0.012147597 -0.044893403 0.16613778 -0.022610167 0.2560699 -0.030936461
0.025152465 0.023585686 0.0028980265 -0.004187566 -0.03854146 0.013359101 0.118217416 0.0016308405
0.05623315 -0.026808968 0.009352596 -0.03343194 -0.08039298 -0.043695044 -0.002458117 0.0007771589
-0.03338955 -0.030866051 0.089171976 -0.035559136 -0.06013758 -0.028147826 -0.13061367 -0.04590616
0.21386008 -0.011117721 -0.017458884 -0.02982896 -0.008119306 -0.0624741 -0.035648372 -0.047714546
-0.05525313 -0.052230056 0.006302705 0.002141465 -0.065638565 -0.036197633 -0.06268634 0.15290256
0.09041379 0.0895647 -0.035008676 -0.004779072 -0.02677283 -0.06536233 0.108070634 0.016714588
-0.04388559 0.017956916 0.0061911726 -0.06462122 0.07596292 -0.063263014 0.23249048 -0.011999726
-0.037482206 0.01522287 0.015396829 -0.054677036 0.0012803044 -0.030699512 0.12271744 0.017396271
00000000: 02f2 2f3d f941 abbb 24c4 603b 6d01 553c
00000010: 7b67 f13a b895 86bc 5537 e6bc 455f 65bb
00000020: 884b 8bbe 9141 96bd 8242 57bd 1e6f 9fbc
00000030: 8f17 4cbd b781 e2ba 7602 6cbd ac9d dc3c
00000040: 589d 81bd 0c1b e53c 0bd8 8bbd d203 58bd
00000050: 2a34 633d 96a4 13bd cf1e ddbc 8679 1ebd
00000060: ae00 313c 7bc5 e23d 4812 1cbd 0012 2f3c
00000070: 7f30 4ebd 5bc2 e43d 5081 2c3c 83c6 54bd
00000080: 9475 f63d 0221 85bd 1472 3bbd 0068 85bc
00000090: 148a 6bbe efd9 83bd f60e 0a3c e997 3a3e
000000a0: 031d 0b3e a6ec c138 80f2 f0bb 5057 13bc
000000b0: f0e3 a53d 970a 4abb 1599 97ba ba01 2bbd
000000c0: 13c0 bb3c 443a 03bd 3b9b 1c3c c272 86bd
000000d0: 9a25 48bd 8947 96bd 80ef d83b d8d9 313e
000000e0: 24ba 9cbd 55e2 5bbd 6c2d 3fbe 6977 a8bd
000000f0: d23d 23bd fa8c d0bd 7044 873c 404b 19bd
00000100: 9d04 7cbd 2781 9cbd 936e 6fbc a727 ad3d
00000110: 3a55 033c 677d edbc 14b7 293b e134 9ebd
00000120: 6519 e83a 809a e73d a67b 5ebd 84c9 e7ba
00000130: 6120 3abd 3711 f63b 8454 3dbe ff2d 23bd
00000140: 0269 813d 1ce7 873c caa1 e1bd 8df9 a1bc
00000150: 4b39 81bc 4fe8 64bd bed9 30bb 60c5 ff3d
00000160: d840 743d ff94 56bd 9c7b 4bbb fb8d 493d
00000170: a4ed 85bc a1e3 16bd 3c9e 8bbd 20b8 2e3e
00000180: 9010 57bd 2762 e83d ac4f 46bc 218a 83bd
00000190: 3b29 49bd 5dd8 633c 754c 42bb 01aa 7fbd
000001a0: 4139 023e 9298 4cbd f713 743e 3fef 0abd
000001b0: 6693 60bc 56d5 733c b97b 59bd 6f6c 7dbd
000001c0: 260b d5bc dd72 d5bc 0b7b 19bc b06c 3cbd
000001d0: 18de 3a3d 21af e4bc ba47 c3bc f407 a8bd
000001e0: 681e 31bd 8d8f 193d 41dd c03c 55df bf3b
000001f0: 479c 093e 391e 26bd 2e53 8c3c 9e00 723c
00000200: a2bb 253e c019 fbbc 21ee f9bc c5bb 37bd
00000210: c9e5 9cbd 0cb1 d4bc 3d6c a3bd 988f aabd
00000220: 2446 753e c616 713e 5f86 3a3d 4d77 80bd
00000230: 3c8e 003e 7c1c ddbc 043e c7bb c950 50bc
00000240: 2d8d 2f3e 4852 843c 16df 00bd ebd6 96bd
00000250: 1ed9 6f3c 87db 44bd 9399 90bd 3a0e 563c
00000260: ad97 adbd d72e 7cbd bfb2 8f3d b9fc 99bd
00000270: 23c2 b5bc 9d2f 343d e8ec a4bd fce3 55bc
00000280: 5444 97bd ff1d 0e3d a2c5 afbb 8284 0dbd
00000290: 1ddd 85bd f45f 563c aa1d 7cbc 4e67 c8bb
000002a0: 20b0 b5bb 829a 993c 4096 36bc d7c9 9b3c
000002b0: db51 583e f9fc 0ebd 1310 a53c fb57 19bd
000002c0: db49 d1bc a38c 11be 3dfd 0bbd dfff 40bc
000002d0: 97a1 7dbd 0ce0 67bd 47fb 983c bbbe 19bd
000002e0: 466a 96bd ee7d 2dbd b706 47bc 25e2 37bd
000002f0: 0620 2a3e f538 b9bc 981b 833e 766e fdbc
00000300: 8b0c ce3c c536 c13c d1ec 3d3b da37 89bb
00000310: a6dd 1dbd 21e0 5a3c f91b f23d edc1 d53a
00000320: bb54 663d 7b9e dbbc a13b 193c eeef 08bd
00000330: 13a5 a4bd 93f9 32bd 5c18 21bb 40ba 4b3a
00000340: 7bc3 08bd cdda fcbc cc9f b63d 75a6 11bd
00000350: d352 76bd 4596 e6bc 97bf 05be 1908 3cbd
00000360: 23fe 5a3e 1a27 36bc ef05 8fbc dd5b f4bc
00000370: d606 05bc d8e4 7fbd 0704 12bd 5470 43bd
00000380: 1b51 62bd 2fef 55bd ec86 ce3b d257 0c3b
00000390: 836d 86bd f843 14bd b261 80bd 7d92 1c3e
000003a0: dd2a b93d b36d b73d 4265 0fbd c399 9cbb
000003b0: b252 dbbc afdc 85bd 2354 dd3d 08ed 883c
000003c0: 60c1 33bd 621a 933c 52df ca3b 2158 84bd
000003d0: 7392 9b3d 0a90 81bd fc11 6e3e 809a 44bc
000003e0: f186 19bd 5869 793c fb42 7c3c 07f5 5fbd
000003f0: e3cf a73a 8b7d fbbc 4853 fb3d a082 8e3c

net.model.4.weight f4 [16, 256]
-0.25228152 -0.20020138 -0.03875285 -0.011516597 -0.32318172 -0.04099937 -0.04123314 -0.03107671
-0.18084265 -0.021565778 -2.7789718e-05 0.013583028 0.026515935 0.04194679 0.018250454 0.18392135
0.010992604 0.010791788 -0.04638282 0.027862374 0.00880263 0.03119857 -0.049941022 -0.16765171
-0.018411675 -0.04691281 0.045136455 -0.011799799 -0.04677157 -0.3396873 0.03797616 0.033019986
0.14794831 0.03906819 -0.051123988 -0.114828825 0.018387027 0.010666932 -0.034426127 -0.42878845
0.15566404 -0.06568937 -0.023995219 0.0030888212 -0.24961646 -0.009419495 0.028134359 0.24615565
0.62563384 0.085006274 -0.026290555 0.04640697 -0.03606798 0.004636858 0.059616033 -0.18550916
0.018620122 -0.021508027 -0.027755797 0.022097716 0.0119606685 0.2556694 0.06741087 0.016524551
-0.01744161 -0.027019003 -0.01635342 -0.0562494 -0.036725342 0.027988866 -0.021282908 0.004135298
-0.03704303 0.12147204 -0.5246756 -0.06711852 -0.03674609 0.038281936 0.86954534 -0.04775638
-0.23344712 0.00051690225 -0.22514522 0.18270414 0.04622422 -0.002666736 0.047105167 -0.16801226
0.19246608 -0.01906456 -0.0005091847 0.46000952 -0.03905817 -0.024437543 -0.055451367 -0.033025853
0.039443206 0.021649074 0.009374326 0.020679541 0.05553913 -0.037285715 -0.010493839 0.00653703
0.14115173 -0.04957254 -0.12886156 -0.013657191 -0.022740088 0.34803247 0.010644362 -0.022290656
-0.013065614 -0.06966495 0.02817531 0.11185844 0.40344054 0.014772272 0.058564026 -0.110827446
0.3444002 -0.037895717 -0.60968435 -0.032575615 0.07704599 -0.054696027 -0.028859586 0.058564242
0.21275955 -0.036638554 0.052444417 0.021421866 -0.0058921715 -0.1195042 -0.1976751 -0.026863841
0.067120805 -0.37608773 -0.5684423 -0.050221454 -0.15290959 0.053405482 0.0048307367 -0.0094230445
0.26407653 0.0047848285 -0.060801946 -0.010083954 -0.013508984 0.01908551 -7.7968775e-07 0.02786119
-0.036449216 -0.57757217 -0.037902866 -0.053266708 -0.5562857 -0.041104693 -0.022338945 -0.011315356
-0.29734233 0.49841732 -0.043642793 -0.084638245 0.030517237 0.031950153 0.060514327 0.02195013
0.026010403 -0.0046830066 0.028841292 -0.052175604 0.25661132 -0.0033726622 0.03322522 0.00020469386
-0.039252542 0.21247487 -0.032350473 0.05800646 -0.05664913 -0.034816295 -0.00946292 -0.020426601
-0.064641215 -0.02979042 -0.016826095 0.13355383 0.2533637 -0.0072344705 0.3625088 -0.04609633
0.31780848 0.025086902 0.041117337 0.038829915 -0.022450533 -0.02844771 0.27375174 0.0034265816
-0.2988551 0.034077983 0.4011446 0.022944652 -0.005108398 0.021220127 -0.0503663 0.036034577
-0.056541163 -0.016459575 -0.3199133 -0.011204988 -0.12697524 -0.05050158 0.27390265 -0.04013174
0.18048428 0.46016008 -0.03630849 -0.031451162 0.015325123 -0.068249896 0.004781999 0.014923557
-0.044608932 0.1383053 0.028638724 -0.0023675936 -0.039629914 0.039191216 -0.014781353 -0.33846188
0.31267768 -0.3577257 0.021149592 0.01701249 -0.025448874 -0.026169011 -0.15213338 0.027449451
-0.23741667 -0.024902744 0.02056844 0.03139964 0.33974248 -0.017785959 -0.28377795 -0.051973805
-0.0051361695 0.63219684 0.12242254 -0.05842191 0.035534117 -0.03090583 -0.1414552 0.03392764
00000000: 0b2b 81be 9701 4dbe 4fbb 1ebd 1cb0 3cbc
00000010: 1378 a5be f5ee 27bd 15e4 28bd 9694 febc
00000020: d12e 39be b7aa b0bc f71d e9b7 598b 5e3c
00000030: f237 d93c 66d0 2b3d fa81 953c e155 3c3e
00000040: 531a 343c 0ad0 303c e9fb 3dbd a23f e43c
00000050: e838 103c 2594 ff3c f58e 4cbd e4ac 2bbe
00000060: 15d4 96bc a627 40bd 01e1 383d f253 41bc
00000070: 8c93 3fbd 7eeb adbe e48c 1b3d f73f 073d
00000080: c37f 173e f705 203d 6367 51bd 602b ebbd
00000090: 64a0 963c 5bc4 2e3c 6902 0dbd 298a dbbe
000000a0: 6566 1f3e 2688 86bd 9f91 c4bc d26d 4a3b
000000b0: 759b 7fbe 3a54 1abc 077a e63c 3a10 7c3e
000000c0: 8a29 203f c517 ae3d 4a5f d7bc 3c15 3e3d
000000d0: 05bc 13bd c9f0 973b f12f 743d 1df6 3dbe
000000e0: 3a89 983c 9a31 b0bc 2060 e3bc 4506 b53c
000000f0: aef6 433c 19e7 823e b60e 8a3d 7f5e 873c
00000100: b5e1 8ebc f556 ddbc 9cf7 85bc c565 66bd
00000110: 506d 16bd e848 e53c 7e59 aebc 6581 873b
00000120: 6fba 17bd 55c6 f83d 2451 06bf 6f75 89bd
00000130: 1183 16bd 85cd 1c3d 869a 5e3f 329c 43bd
00000140: c30c 6fbe b980 073a 788c 66be cb16 3b3e
00000150: 9c55 3d3d 68c4 2ebb 59f1 403d 680b 2cbe
00000160: d415 453e 482d 9cbc cf7a 05ba 5e86 eb3e
00000170: 76fb 1fbd 3e31 c8bc f920 63bd 1e46 07bd
00000180: 338f 213d 6659 b13c c696 193c 2468 a93c
00000190: 007d 633d e8b8 18bd 5aee 2bbc 9534 d63b
000001a0: 148a 103e 930c 4bbd 49f4 03be 69c2 5fbc
000001b0: 6c49 babc 5031 b23e b165 2e3c e59a b6bc
000001c0: 2811 56bc 7fac 8ebd e8cf e63c 0a16 e53d
000001d0: c28f ce3e 6607 723c d5e0 6f3d 80f9 e2bd
000001e0: 3955 b03e 8a38 1bbd 4614 1cbf 026e 05bd
000001f0: 4aca 9d3d f108 60bd f06a ecbc 0fe1 6f3d
00000200: a4dd 593e 4f12 16bd f5cf 563d e97c af3c
00000210: 1e13 c1bb 9ebe f4bd 576b 4abe 8f11 dcbc
00000220: a276 893d 928e c0be 6f85 11bf 03b5 4dbd
00000230: 5594 1cbe b5bf 5a3d 284b 9e3b 1d63 1abc
00000240: 0a35 873e 0dca 9c3b 760b 79bd 2b37 25bc
00000250: c954 5dbc 3759 9c3c bc4b 51b5 263d e43c
00000260: c64b 15bd c5db 13bf 0940 1bbd 312e 5abd
00000270: bd68 0ebf 655d 28bd 2a00 b7bc 0b64 39bc
00000280: 413d 98be 8e30 ff3e c9c2 32bd d156 adbd
00000290: 49ff f93c 2ade 023d dfdd 773d c2d0 b33c
000002a0: c513 d53c e873 99bb 9344 ec3c 16b6 55bd
000002b0: 8f62 833e e207 5dbb 2b17 083d 17a3 5639
000002c0: 46c7 20bd 0393 593e ee81 04bd 2f98 6d3d
000002d0: eb08 68bd 889b 0ebd 5d0a 1bbc b055 a7bc
000002e0: 9d62 84bd 0a0b f4bc e1d6 89bc 56c2 083e
000002f0: e3b8 813e 230f edbb c19a b93e 81cf 3cbd
00000300: cbb7 a23e 0c83 cd3c a76a 283d 1e0c 1f3d
00000310: 2eea b7bc 2c0b e9bc 3029 8c3e 8090 603b
00000320: 8903 99be 5b95 0b3d d362 cd3e 6cf6 bb3c
00000330: 5964 a7bb d5d5 ad3c e54c 4ebd fe98 133d
00000340: b597 67bd 3bd6 86bc adcb a3be 2095 37bc
00000350: cc05 02be bfda 4ebd f83c 8c3e 2e61 24bd
00000360: dfd0 383e 1a9a eb3e 36b8 14bd efd2 00bd
00000370: 3a16 7b3c 9ac6 8bbd 51b2 9c3b ef81 743c
00000380: dbb7 36bd e89f 0d3e c29b ea3c a129 1bbb
00000390: fa52 22bd f886 203d 7d2d 72bc e04a adbe
000003a0: 4a17 a03e d327 b7be e941 ad3c c75d 8b3c
000003b0: 287a d0bc 6560 d6bc dac8 1bbe acdd e03c
000003c0: 5b1d 73be d700 ccbc 257f a83c e99c 003d
000003d0: baf2 ad3e dcb3 91bc 584b 91be 7ce2 54bd
000003e0: 504d a8bb a7d7 213f abb8 fa3d d04b 6fbd
000003f0: 398c 113d 392e fdbc a2d9 10be b6f7 0a3d

net.model.4.bias f4 [16]
-0.017476944 -0.058665976 -0.015461774 0.016212264 0.025254289 -0.0025191037 -0.01922678 -0.10053944
-0.1060745 -0.082868434 -0.12492429 -0.06875827 -0.14933851 -0.06284413 -0.14807428 -0.15147215
00000000: cf2b 8fbc bc4b 70bd 6153 7dbc 95cf 843c
00000010: 15e2 ce3c 8c17 25bb 7b81 9dbc 9fe7 cdbd
00000020: 963d d9bd edb6 a9bd 4ed8 ffbd 23d1 8cbd
00000030: 32ec 18be 6cb4 80bd c9a0 17be 841b 1bbe
