SAC/sac_actor.pth (torch, 291053 bytes, 6 tensors)

net.model.0.weight f4 [256, 7]
0	0x3e973dcd	0.29539338
1	0xbef5d0f3	-0.48010978
2	0xbeab4857	-0.33453628
3	0xbf64dafb	-0.8939664
4	0x3f4c1c6a	0.79730856
5	0xbd6509c7	-0.055917528
6	0xbd3f6484	-0.04672672
7	0x3e5eee2a	0.2177054
8	0x3d4c60b9	0.04989693
9	0xbe3b43f3	-0.1828764
10	0xbdfa2c30	-0.12215459
11	0xbdf6e6db	-0.12055751
12	0x3e30c05f	0.17260884
13	0x3c1cf2f2	0.009579407
14	0xbf0b711f	-0.54469484
15	0x3edfafee	0.4368891
16	0x3e17ce1d	0.1482472
17	0x3dde7875	0.10862819
18	0xbecc0821	-0.39849952
19	0xbf14687a	-0.5797192
20	0x3f3d7fa5	0.74022895
21	0xbe180865	-0.14846952
22	0xbe07c4bd	-0.13258643
23	0xbe9ff336	-0.31240243
24	0xbe497537	-0.1967362
25	0xbe0b3a4c	-0.13596457
26	0xbc43a595	-0.011941333
27	0xbd9b6811	-0.075882085
28	0x3ed42a20	0.4143839
29	0x3ed46bda	0.41488534
30	0x3e77f60e	0.24214956
31	0x3f204da4	0.6261847
32	0x3e0364e9	0.12831463
33	0xbdf39694	-0.11893955
34	0xbe9f8ff4	-0.31164515
35	0xbe12f983	-0.14352994
36	0xbd5d8521	-0.05408204
37	0xbe9af436	-0.30264443
38	0xbd152a5d	-0.036417354
39	0x3dabdabc	0.0839133
40	0xbe669684	-0.22518355
41	0xbe8853bf	-0.26626393
42	0xbd6ba572	-0.057530828
43	0xbeb458db	-0.3522404
44	0xbead4621	-0.33842567
45	0xbec00f29	-0.37511566
46	0x3eb0a03e	0.34497255
47	0x3e34b19e	0.1764588
48	0xbe43b863	-0.19113307
49	0x3da2b32e	0.07944332
50	0xbdadd363	-0.084875844
51	0xbe5fe3b6	-0.21864209
52	0xbf3dcd8c	-0.74141765
53	0xbe16e6b7	-0.14736448
54	0xbeed06ef	-0.46294352
55	0xbdec3f6b	-0.115355335
56	0x3d934cb1	0.07192362
57	0xbede8946	-0.43464106
58	0x3e235d46	0.1595355
59	0xbf5a00e3	-0.85157603
60	0xbe77563f	-0.24153994
61	0x3f6e0126	0.929705
62	0xbea6a259	-0.32545736
63	0xbe5a484c	-0.21316642
64	0xbe4f5675	-0.20247824
65	0xbe8d839c	-0.27639472
66	0xbf124ca3	-0.5714819
67	0xbe509484	-0.20369154
68	0xbca609ac	-0.020268284
69	0xbdccccc6	-0.09999995
70	0x3e83749b	0.256749
71	0x3e8c985d	0.27459994
72	0x3c96ab27	0.018392159
73	0x3eff5992	0.49873024
74	0x3eec4494	0.4614607
75	0xbe76b44e	-0.24092218
76	0xbd9b8276	-0.07593243
77	0xbce55979	-0.027996765
78	0xbd834dc6	-0.064113185
79	0xbc3e6e3c	-0.011622962
80	0xbeaae7c7	-0.33379957
81	0x3ea6d4ed	0.32584324
82	0xbe8b2858	-0.27179217
83	0xbebe42e3	-0.37160406
84	0xbed3db66	-0.41378325
85	0xbe1e3215	-0.15448792
86	0x3d86eae0	0.065877676
87	0x3f8991e0	1.0747643
88	0xbf94976c	-1.160871
89	0x3d64a095	0.055817205
90	0x3f0ee3df	0.55816454
91	0x3eaa560a	0.33268768
92	0x3e96f0f0	0.29480696
93	0xbdd41594	-0.10355678
94	0x3dc44920	0.0958426
95	0x3e5089a3	0.20365004
96	0x3e9562d3	0.2917696
97	0x3dd4ed1d	0.10396788
98	0x3f4afffb	0.79296845
99	0x3d3b6adf	0.045756217
100	0xbe854c66	-0.2603485
101	0xbc873efb	-0.016509524
102	0x3e7381bd	0.2377996
103	0x3ec60a87	0.38679907
104	0xbf409a63	-0.75235575
105	0x3eba8c7f	0.36435315
106	0x3d46cee6	0.048537157
107	0xbad387ba	-0.0016138472
108	0x3ea4bf99	0.32177427
109	0xbe4d028a	-0.200205
110	0x3e82fedb	0.25585064
111	0x3eb1502d	0.34631482
112	0x3e52c528	0.20583022
113	0xbd013455	-0.03154405
114	0xbe9bea06	-0.30451983
115	0xbdf42cf8	-0.119226396
116	0x3e92c3b8	0.28664947
117	0xbe6de086	-0.2323018
118	0xbd543ecd	-0.051817704
119	0x3e10d39f	0.14143227
120	0xbe4fd1b3	-0.20294838
121	0xbeae02bc	-0.3398646
122	0xbe6bc6f7	-0.23025118
123	0xbd83bdb3	-0.06432667
124	0xbe819de8	-0.25315785
125	0xbe96480c	-0.29351842
126	0x3df0d615	0.11759583
127	0xbde8099b	-0.11329957
128	0xbd40d6b2	-0.04707975
129	0xbe61f54a	-0.22066227
130	0x3d3568d3	0.04428942
131	0xbcaf4429	-0.021394806
132	0xbe194de2	-0.14971116
133	0xbbe825c9	-0.0070845825
134	0x3f0d3d86	0.55172
135	0x3d019b17	0.031642046
136	0x3f241605	0.640961
137	0x3f165d10	0.5873575
138	0xbf6e7fa4	-0.93163514
139	0xbe982574	-0.29716074
140	0x3eed5091	0.4635053
141	0xbf1b19d3	-0.6058628
142	0x3e40ee72	0.1884096
143	0xbf0fa2bf	-0.56107706
144	0x3f0c4e8b	0.5480735
145	0x3eb1c955	0.34723917
146	0xbf2c51db	-0.673124
147	0x3f3466c2	0.70469296
148	0x3eb8d4dc	0.360999
149	0x3d47d0b7	0.04878303
150	0xbf3e83df	-0.7441997
151	0xbf1d99bb	-0.615627
152	0x3dc1ca89	0.09462459
153	0x3edf85e1	0.4365683
154	0x3f19f40c	0.6013801
155	0x3e7f55de	0.249351
156	0xbc962ebf	-0.018332837
157	0x3ee64166	0.4497177
158	0x3f0e6d1e	0.5563525
159	0x3eb86443	0.36013994
160	0x3e9c4a00	0.30525208
161	0x3ea1f001	0.3162842
162	0x3ebc645a	0.36795312
163	0xbe4fdceb	-0.20299117
164	0x3d87f5ce	0.066386804
165	0xbf04c6f4	-0.5186608
166	0xbf4142df	-0.7549266
167	0x3eea57ac	0.45770013
168	0x3eb89c8d	0.3605694
169	0x3e18d5b1	0.14925267
170	0x3d78bb9b	0.06072579
171	0x3f4734bb	0.77814835
172	0xbf705661	-0.93881804
173	0x3f2b2bc9	0.66863686
174	0xbf0b8fe9	-0.54516464
175	0xbe91efff	-0.28503415
176	0x3e16e61c	0.14736217
177	0x3db4446c	0.08802113
178	0xbdb294b1	-0.08719767
179	0xbf58a113	-0.8462078
180	0x3e76694d	0.24063607
181	0xbf2aef4a	-0.66771376
182	0xbddff9a8	-0.1093629
183	0x3d9228bb	0.07136675
184	0x3dbd988b	0.09257611
185	0xbe1b2c25	-0.15153559
186	0x3dcd8d3e	0.100367054
187	0x3e4dd06b	0.20099036
188	0x3f273e22	0.6532918
189	0x3eab2cc2	0.33432585
190	0xbe7004bd	-0.23439308
191	0xbdf7bee9	-0.1209696
192	0x3dd49ffc	0.10382077
193	0xbdf6f6d9	-0.12058801
194	0xbeab169c	-0.33415687
195	0x3ca23bdf	0.01980394
196	0xbf00a349	-0.50249153
197	0xbd3c6f4c	-0.04600458
198	0xbd50ebfb	-0.0510063
199	0xbdad8a15	-0.08473603
200	0x3edbb2df	0.42909905
201	0x3f50a9f8	0.8150935
202	0x3f077b19	0.5292221
203	0xbec49e4e	-0.38402027
204	0x3f1b7a24	0.60733247
205	0x3c1a21e1	0.009407491
206	0xbe68d60a	-0.227379
207	0x3befeb58	0.0073217563
208	0x3f03f406	0.51544225
209	0x3f93399c	1.1501956
210	0x3e4dfb2b	0.20115344
211	0x3e949455	0.29019418
212	0xbe9b1773	-0.30291328
213	0xbe2b29cc	-0.16715163
214	0xbdc593e4	-0.096473485
215	0x3eb1eb2d	0.34749737
216	0x3e8488a3	0.25885496
217	0x3efcaf2e	0.49352401
218	0x3d0c328b	0.03422789
219	0xbe048ff8	-0.12945545
220	0xbde5a36f	-0.11212813
221	0xbf3779de	-0.7167033
222	0x3e551468	0.20808566
223	0xbf1ff136	-0.62477434
224	0x3e259be5	0.1617275
225	0xbe7b4c2a	-0.24540773
226	0xbe016009	-0.12634291
227	0xbd94f8fe	-0.07274054
228	0xbe8ed1c7	-0.27894422
229	0x3e97f584	0.296795
230	0xbe543dfa	-0.20726767
231	0xbd8fdf55	-0.07025019
232	0xbef5fe4e	-0.48045582
233	0x3e2a373f	0.16622637
234	0x3f2ad9f9	0.6673885
235	0x3eae9580	0.34098434
236	0xbf0b95d3	-0.5452549
237	0x3ebc7070	0.36804533
238	0x3ef8edfb	0.48619065
239	0xbc3f8591	-0.01168956
240	0x3d229ae3	0.039698493
241	0xbf5e3322	-0.8679677
242	0x3f55fdbf	0.8359031
243	0xbdbba6eb	-0.091626965
244	0x3ee31103	0.44348916
245	0xbf30399d	-0.6883791
246	0x3f5d86b7	0.86533684
247	0xbe383d25	-0.17992075
248	0xbd898cf9	-0.067163415
249	0xbf2af5d4	-0.66781354
250	0x3f03c480	0.5147171
251	0xbf1f3b08	-0.6219945
252	0x3f47e898	0.78089285
253	0x3e71a689	0.23598684
254	0xbe42679b	-0.18984835
255	0x3e8c487c	0.2739905

net.model.0.bias f4 [256]
0	0x3e9731ef	0.29530284
1	0xbe126884	-0.14297682
2	0xbe210be4	-0.15727192
3	0x3d522152	0.051301308
4	0xbe616b20	-0.22013521
5	0xbcb4ded2	-0.022078905
6	0x3da589eb	0.080829464
7	0x3e4b0fde	0.19830272
8	0xbe57d0ed	-0.21075793
9	0x3e4f1c93	0.20225744
10	0xbdc20c7c	-0.094750375
11	0xbe904fbe	-0.28185838
12	0xbdeab257	-0.11459797
13	0xbe6cfd40	-0.23143482
14	0x3e6132b4	0.21991998
15	0xbe6f51fc	-0.23371118
16	0xbeb375e0	-0.3505087
17	0xbe2aec9e	-0.16691825
18	0xbe835926	-0.25653952
19	0xbe08611f	-0.13318299
20	0xbe829048	-0.25500703
21	0xbdadcff3	-0.08486929
22	0x3ccc64d0	0.024950415
23	0x3e404eec	0.18780106
24	0xbdc162ed	-0.09442697
25	0xbe3a0be8	-0.18168604
26	0xbe98ca59	-0.2984188
27	0xbdcff4b2	-0.10154094
28	0x3e402aed	0.18766375
29	0xbc47936e	-0.012181146
30	0xbd558d95	-0.052136976
31	0x3e1362b6	0.14393124
32	0xbe71866a	-0.23586431
33	0xbe0d4905	-0.13797386
34	0xbd9b4ded	-0.075832225
35	0x3e2f6b0f	0.17130683
36	0x3b5c1766	0.0033583282
37	0x3c1b0561	0.009461732
38	0x3cbb75fb	0.022883406
39	0xbe1ba600	-0.15200043
40	0xbd18f0d2	-0.03733904
41	0x3d5f73ef	0.054553922
42	0xbe180e14	-0.1484912
43	0xbce93027	-0.028465344
44	0xbe093492	-0.1339896
45	0xbe95120a	-0.29115325
46	0xbc1e1eac	-0.009650867
47	0xbe66a1a1	-0.22522594
48	0x3cf66d33	0.030081367
49	0xbe915ada	-0.28389627
50	0xbdcf504e	-0.10122739
51	0x3e45d720	0.19320345
52	0xbe268173	-0.16260318
53	0xbdc81561	-0.09769703
54	0xbdecccfe	-0.11562537
55	0xbed21152	-0.4102884
56	0x3d8ddf9f	0.06927418
57	0x3e105495	0.14094765
58	0x3e212b4b	0.15739171
59	0xbe4dfd7c	-0.20116228
60	0xbe02b8c2	-0.12765792
61	0x3e7b7505	0.24556358
62	0xbd4ecef1	-0.050490323
63	0xbe245ed1	-0.16051795
64	0xbe7282df	-0.23682736
65	0x3cb83d3b	0.022490134
66	0x3e28ce52	0.16484955
67	0x3e435f0a	0.19079223
68	0xbe8269c0	-0.25471306
69	0xbe718778	-0.23586833
70	0xbece67d9	-0.40313604
71	0xbdca5b66	-0.09880714
72	0x3dede172	0.11615266
73	0xbdc99f7f	-0.098448746
74	0xbf19bf0a	-0.6005713
75	0x3dafed84	0.085902244
76	0x3e34033a	0.17579356
77	0xbc87baf8	-0.016568646
78	0x3d9fe413	0.078071736
79	0xbe5c7d2e	-0.21532127
80	0xbe3b3afa	-0.18284217
81	0xbc7f1d15	-0.015570899
82	0xbe5a4401	-0.21315004
83	0xbceab3b0	-0.028650135
84	0x3e94267b	0.28935608
85	0xbe3f649f	-0.18690728
86	0xbe89fb62	-0.26949602
87	0xbebb427c	-0.3657416
88	0xbe738b48	-0.237836
89	0x3e531e6b	0.20617072
90	0xbe9eb174	-0.3099476
91	0xbdfc0ee9	-0.123075314
92	0xbebcc5af	-0.3686957
93	0x3dc6eecd	0.097135164
94	0x3ba496b1	0.0050228466
95	0x3af1e4c2	0.0018455016
96	0x3e5f6249	0.21814837
97	0x3df9c654	0.12196031
98	0xbd89bd78	-0.067255914
99	0x3dbe173c	0.09281775
100	0x3ea6fd69	0.32615212
101	0xbe8610db	-0.26184735
102	0x3e5fb4a3	0.21846251
103	0xbe9d20ec	-0.3068918
104	0x3eaf311e	0.3421716
105	0xba9d462e	-0.0011999065
106	0xbe817cab	-0.25290427
107	0x3e3f389b	0.18673937
108	0xbe7b7f00	-0.24560165
109	0xbe322c26	-0.17399654
110	0xbe3305b6	-0.17482647
111	0xbdd72dfa	-0.10506816
112	0xbca4656d	-0.020067895
113	0x3e7fc82c	0.24978703
114	0x3e3ce64e	0.1844723
115	0x3be2e98f	0.006924815
116	0xbec0603f	-0.3757343
117	0x3e709f87	0.23498355
118	0x3bba4f30	0.0056857094
119	0xbe374c77	-0.17900263
120	0xbd078c1d	-0.033092607
121	0xbe6188af	-0.22024797
122	0xbe94ab0c	-0.29036748
123	0xbeb2e0b1	-0.3493705
124	0x3c77f8d5	0.01513501
125	0xbeb0fd90	-0.34568453
126	0xbd4ced6c	-0.05003111
127	0xbe9f4f45	-0.31115165
128	0x3e8166b3	0.25273666
129	0xbd144521	-0.03619874
130	0xbe05e785	-0.13076599
131	0xbe42eb82	-0.19035152
132	0x3e1bb492	0.15205601
133	0xbcdbece8	-0.026846364
134	0xbce7cd8e	-0.028296258
135	0xbe2d77b6	-0.16940197
136	0x3d9b46bf	0.07581853
137	0xbe997645	-0.29973045
138	0xbdeea18b	-0.116519056
139	0xbcdbe044	-0.026840337
140	0xbe859096	-0.26086873
141	0xbebaed55	-0.36509195
142	0xbd76b878	-0.060234517
143	0x3d690aab	0.05689494
144	0xbe049723	-0.12948279
145	0xbeb1c8c0	-0.34723473
146	0xbe7325af	-0.23744844
147	0xbebc298a	-0.36750442
148	0x3d261be7	0.040553953
149	0xbe63ea60	-0.22257376
150	0xbd9ab3b7	-0.07553809
151	0xbcab6900	-0.020924091
152	0xbd88fa19	-0.06688327
153	0xbe90c3eb	-0.28274474
154	0xbe39e916	-0.18155321
155	0xbc68aaaa	-0.014200846
156	0xbe493022	-0.19647267
157	0x3d7433b3	0.059619617
158	0xbcfc7f4b	-0.030822417
159	0x3c28b22e	0.010296388
160	0xbde1fc5a	-0.1103446
161	0x3e3643f4	0.1779936
162	0x3bb0f893	0.005400726
163	0xbeac3b2b	-0.33638892
164	0x3e1d91db	0.1538767
165	0xbd927df6	-0.071529314
166	0x3d604d83	0.05476142
167	0xbccf6d22	-0.025320593
168	0xbe57da80	-0.21079445
169	0xbe9459d5	-0.28974786
170	0x3cee6b25	0.029103825
171	0x3d978ccd	0.073999025
172	0xbddcffc6	-0.107909724
173	0xbdb152af	-0.08658349
174	0x3e2359a4	0.15952164
175	0xbd00c83d	-0.031440962
176	0x3d0c3b00	0.034235954
177	0xbea495ba	-0.32145482
178	0xbe4584ed	-0.19288988
179	0xbcbcd3da	-0.023050237
180	0x3de31803	0.11088564
181	0xbeb50a72	-0.35359532
182	0xbd8ede62	-0.0697601
183	0xbe986f39	-0.29772356
184	0xbe033c84	-0.12816054
185	0x3cbc4ed6	0.02298681
186	0xbe953856	-0.29144543
187	0xbe0a492b	-0.13504474
188	0xbdda5bce	-0.106620416
189	0x3d66d3e4	0.05635442
190	0xbea6f831	-0.3261123
191	0xbdef51f5	-0.11685554
192	0xbe13df4d	-0.14440651
193	0x3e47d208	0.19513714
194	0xbd8b0045	-0.06787161
195	0x3dce99bb	0.100879155
196	0xbe205165	-0.1565605
197	0xbe9c9884	-0.3058511
198	0xbe85030a	-0.2597888
199	0xbe8d878c	-0.27642477
200	0x3d011174	0.031510785
201	0x3e57609f	0.21032952
202	0xbe60120d	-0.21881886
203	0x3e21ee4e	0.15813562
204	0xbd817cea	-0.063226536
205	0xbeadf6c5	-0.33977333
206	0xbea3ff4e	-0.3203072
207	0xbec0e9dd	-0.37678424
208	0xbd69a4b7	-0.05704185
209	0xbe2b68f4	-0.16739255
210	0xbec1d46d	-0.3785738
211	0xbc651247	-0.013981408
212	0xbe08b992	-0.1335204
213	0x3d2158cf	0.039391335
214	0xbe033bd8	-0.12815797
215	0x3c200628	0.009767093
216	0xbcf51e84	-0.029921778
217	0x3d15155c	0.036397323
218	0xbdcce891	-0.10005296
219	0x3d585121	0.052811746
220	0xbd1cd97c	-0.038293347
221	0xbde809be	-0.11329983
222	0x3e2165ac	0.15761441
223	0x3dbd4f8d	0.09243689
224	0x3d969c90	0.07354081
225	0xbe356530	-0.17714381
226	0xbe8c79c7	-0.2743666
227	0xbd252602	-0.04031945
228	0xbe82902a	-0.25500613
229	0x3e91b3f7	0.28457615
230	0xbe4c862a	-0.19973055
231	0x3d02520b	0.031816524
232	0xbdbbb426	-0.0916522
233	0xbea223c0	-0.316679
234	0xbe931e28	-0.28733945
235	0xbe2fd9c8	-0.1717292
236	0xbea2b558	-0.3177898
237	0xbed6da18	-0.41963267
238	0xbd40753e	-0.04698681
239	0x3d8fc3e0	0.07019782
240	0x3c88ff0a	0.016723175
241	0x3e00c589	0.12575354
242	0x3e51e4c2	0.2049742
243	0xbdd1c0b4	-0.10241833
244	0xbe9ba3c9	-0.30398396
245	0xbe071da1	-0.13194896
246	0xbd2f9f34	-0.042876437
247	0x3e2d9787	0.16952334
248	0x3d63db3a	0.055628993
249	0xbdd5e08c	-0.104432195
250	0xbe89c789	-0.26910046
251	0xbe276a44	-0.16349131
252	0xbd4926f1	-0.049109403
253	0x3d86f1d9	0.065890975
254	0xbdbcc3e8	-0.09217054
255	0xbebf5984	-0.37372983

net.model.2.weight f4 [256, 256]
0	0xbd06304e	-0.03276091
1	0x3d3b5954	0.045739487
2	0x3c8877e1	0.016658725
3	0xbbd2c9f0	-0.006432764
4	0x3c9e69fd	0.019337649
5	0x3cb88e1c	0.0225287
6	0xbcefa75c	-0.029254608
7	0xbd078b61	-0.033091906
8	0xbceee3a6	-0.029161286
9	0x3d3f3de2	0.046689875
10	0xbd669255	-0.056291897
11	0x3c9e57e0	0.019329011
12	0x3c0e56ae	0.008687658
13	0xbcd86300	-0.026414394
14	0x3c57154c	0.013127636
15	0xbbc6bef0	-0.006065242
16	0xbd3bddae	-0.045865707
17	0xbd5bae78	-0.053633183
18	0x3d63c7cc	0.055610463
19	0x3c822d9f	0.015890894
20	0xbd23a923	-0.039956223
21	0x3c044b31	0.008074568
22	0xbd0be08e	-0.0341497
23	0xbd8a8398	-0.06763381
24	0xbd5255e3	-0.05135144
25	0xbd2add42	-0.041714914
26	0x3d32f7b6	0.043693267
27	0xbd22e37e	-0.039767735
28	0x3ca6686a	0.02031346
29	0xbc602452	-0.013680534
30	0xbc443e08	-0.01197768
31	0xbd809f43	-0.06280377
32	0x3d319c64	0.043362036
33	0x3a3f09da	0.000728754
34	0x3bdfc400	0.006828785
35	0xbb023dcd	-0.0019873262
36	0x38236a4d	3.896123e-05
37	0xbd0e64ac	-0.034763977
38	0x3bfc92fb	0.007707951
39	0x3ca23481	0.019800426
40	0x3d2118a0	0.039330125
41	0x3c661767	0.0140436655
42	0xbd9aad49	-0.07552583
43	0xbdc16f15	-0.09445015
44	0x3d662caa	0.05619494
45	0xbd870470	-0.06592643
46	0x3d36c6e2	0.044623263
47	0xbcf1beb8	-0.029509887
48	0x3c98b258	0.018639728
49	0xbb2b853d	-0.0026171946
50	0xbc8380e4	-0.01605267
51	0xbd2e9f2b	-0.042632263
52	0x3c977228	0.018487051
53	0x3c890859	0.016727613
54	0xbd10d1fa	-0.0353565
55	0x3cbbab32	0.02290878
56	0xba9c4ba8	-0.0011924403
57	0xbd45ef75	-0.048324067
58	0xbc7d25ff	-0.0154509535
59	0xbc966d5e	-0.018362697
60	0x3c6cc31f	0.014450817
61	0xbcdd018d	-0.026978279
62	0x3c588340	0.013214886
63	0xbd84a6ee	-0.06477152
64	0xbd4ef754	-0.05052884
65	0xbc699f92	-0.014259236
66	0xbd186423	-0.037204873
67	0xbdbb3524	-0.09140995
68	0xbd99143f	-0.07474565
69	0xbd112265	-0.03543319
70	0xbc81bedc	-0.01583808
71	0xbd569d0b	-0.05239586
72	0xbd4ff594	-0.05077131
73	0xbd211266	-0.039324187
74	0xbd384e5d	-0.044996608
75	0x3c6667dd	0.014062849
76	0xbcca7207	-0.024712576
77	0xbd238af6	-0.039927445
78	0xbd843759	-0.06455869
79	0xbd4595aa	-0.048238434
80	0xbb1cecae	-0.0023944783
81	0xbd9257c2	-0.07145645
82	0x3c87b9ce	0.01656809
83	0x3d2f2544	0.04276015
84	0xbd43f546	-0.047841333
85	0x3d66e87a	0.05637405
86	0x3c453c35	0.01203828
87	0xbcb3a892	-0.021930967
88	0xbc616bc0	-0.0137586
89	0x39a71f65	0.00031876113
90	0xbce91154	-0.028450646
91	0x3cbc655c	0.02299755
92	0x3ca71152	0.020394001
93	0xba1c4822	-0.00059616764
94	0xbc742952	-0.01490243
95	0x3cf7a4a8	0.030229881
96	0xbcc74547	-0.024325026
97	0xbc5c7e38	-0.013457827
98	0x3c893b42	0.01675189
99	0x3c20be10	0.009810939
100	0xbcbcb52e	-0.023035612
101	0x3b7da280	0.0038701594
102	0x3c90bb1c	0.017667346
103	0x3c827acc	0.015927695
104	0xbd170d8a	-0.036878146
105	0xbd528914	-0.05140026
106	0xba3e98d5	-0.00072706986
107	0xbd9a01e5	-0.075198926
108	0x3d07fe4a	0.033201493
109	0xbd64f789	-0.05590013
110	0xbd4996cc	-0.049216077
111	0xbd48572b	-0.048911255
112	0xbd6849ea	-0.056711115
113	0xbd7d1fdf	-0.061797973
114	0xbbc361f1	-0.0059626033
115	0xbd23719e	-0.039903276
116	0xbd452f74	-0.048140958
117	0xbd4df1d9	-0.050279472
118	0x3bac003b	0.005249051
119	0xbd11383c	-0.03545402
120	0xbd6104a0	-0.05493605
121	0x3c0778d0	0.00826855
122	0xbccf7180	-0.025322676
123	0xbc6716f8	-0.014104597
124	0x3c5e5c08	0.013571747
125	0xbcc78776	-0.024356585
126	0x3c8d355c	0.017237358
127	0x3a692e4e	0.00088951446
128	0x3c93b43e	0.018030282
129	0x3ce3df14	0.027816333
130	0xbdbe289c	-0.092850894
131	0x3d30897c	0.043099865
132	0x3ceaf5a6	0.028681587
133	0x3c122c82	0.008921744
134	0xb99ed800	-0.0003029704
135	0xbda2d1aa	-0.079501465
136	0x3bf62a20	0.007512346
137	0xbd72a9ee	-0.05924409
138	0xbda71213	-0.08157744
139	0x3caa71ac	0.020806156
140	0xbd15ec0e	-0.036602072
141	0x3d15155a	0.036397316
142	0x3c8f17d4	0.017467417
143	0xbd37e40a	-0.04489521
144	0xba7e4295	-0.00096992526
145	0x3d32b5f8	0.04363057
146	0x3c4ceebb	0.01250809
147	0xbc4f8050	-0.012664869
148	0x3bc41ce1	0.005984888
149	0xbc951dce	-0.018202689
150	0xbd8dbd65	-0.0692089
151	0x3ab0bb00	0.0013483465
152	0x3ab851b3	0.0014062434
153	0xbca9a2e0	-0.020707548
154	0xbc2fc298	-0.010727547
155	0x3d3af354	0.045642212
156	0x3d5153c0	0.05110526
157	0x3d132208	0.035921127
158	0xbcaa7778	-0.02080892
159	0xbdaa4c69	-0.08315355
160	0xbd320070	-0.04345745
161	0x3c79faad	0.01525752
162	0xbcf28b85	-0.029607544
163	0x3d0e71b4	0.034776405
164	0x3d119f56	0.035552345
165	0xbcae795a	-0.0212981
166	0xbd605a14	-0.054773405
167	0xbd80b53d	-0.062845685
168	0x3d482936	0.048867427
169	0x3d2aae0e	0.041669898
170	0xbd635fa0	-0.055511117
171	0xbda19434	-0.07889596
172	0x3cc4e570	0.024035186
173	0xbd887d53	-0.06664529
174	0xbdc9f632	-0.09861411
175	0x3c23a7c6	0.009988731
176	0x3c95a30a	0.01826622
177	0x3c0d2a90	0.008616105
178	0xbd5e3fe5	-0.054260153
179	0xbdad52b2	-0.084630385
180	0x3bc842a8	0.0061114617
181	0x3cd56ea8	0.026053742
182	0xbdafe144	-0.08587888
183	0xbca6a12c	-0.020340525
184	0x3cef2a58	0.029194996
185	0x3c561432	0.013066338
186	0xbd72515e	-0.05915963
187	0xbcbe46f4	-0.023227192
188	0xbd3cc27e	-0.04608392
189	0xbc898ae1	-0.016789855
190	0xbd91d881	-0.07121373
191	0xbda7def2	-0.0819682
192	0xbd7302a8	-0.059328705
193	0xbd9d15a2	-0.07670142
194	0x3c812bf0	0.015768021
195	0x3cc7ba03	0.02438069
196	0x3d343771	0.043998186
197	0xbcb91395	-0.022592345
198	0x3cc84b4c	0.024449967
199	0xbc83605b	-0.016037157
200	0xbaf9bb2b	-0.0019052973
201	0xbdaaac5e	-0.08333658
202	0x3ce968fc	0.028492443
203	0xbc6632af	-0.01405017
204	0xbb946bfb	-0.004529474
205	0xbc439a30	-0.011938617
206	0xbbe91df4	-0.0071141664
207	0xbd8b6490	-0.0680629
208	0xbc225436	-0.009907773
209	0x3c9e820c	0.01934912
210	0xbc82c8ec	-0.015964948
211	0xbd26eed5	-0.04075511
212	0xbc713728	-0.014722623
213	0x3d15263e	0.036413424
214	0xbca3cce0	-0.019995153
215	0xbcb2c0b8	-0.021820411
216	0x3c017064	0.007900331
217	0xbd6ba4d3	-0.057530235
218	0x3d1e9dd8	0.03872475
219	0x3d2b4309	0.041811977
220	0xbd300049	-0.042969022
221	0xbd32048e	-0.043461375
222	0xbd7b5d2a	-0.061368145
223	0xbc7e4b5f	-0.0155209
224	0xbd1cd8e9	-0.0382928
225	0xbce4278c	-0.027850889
226	0xbcffcfec	-0.031227075
227	0xbd79afb7	-0.06095859
228	0xbcead247	-0.028664721
229	0x3cd5f616	0.02611832
230	0xbc72bb5d	-0.014815179
231	0xbc225de1	-0.009910078
232	0xbca68740	-0.020328164
233	0x3cb5cbb4	0.02219186
234	0xbc12b1a8	-0.008953489
235	0xbd7abeb9	-0.061217044
236	0x3cd0d608	0.025492683
237	0xbc33e3a0	-0.010979563
238	0xbc061912	-0.008184688
239	0x3c625007	0.013813025
240	0xbd6e908c	-0.05824332
241	0xbda6450d	-0.08118639
242	0xbb7fdfa0	-0.0039043203
243	0x3d01b18a	0.031663455
244	0xbd97a9f1	-0.074054606
245	0xbdc74ffe	-0.09732054
246	0x3c19898a	0.009371171
247	0xbc819e92	-0.015822683
248	0x3c495887	0.012289173
249	0x3c61fd40	0.01379329
250	0xbd163feb	-0.03668205
251	0xbd966a27	-0.07344466
252	0xbca1cbbb	-0.019750467
253	0xbd8ffd4a	-0.07030733
254	0xbd902389	-0.07038028
255	0xbceeb232	-0.029137705

net.model.2.bias f4 [256]
0	0x3b56fbac	0.0032803817
1	0xbd6f4f24	-0.058425084
2	0xbccc632f	-0.024949638
3	0xbb10cafe	-0.002209365
4	0xbd630549	-0.055424962
5	0xbc9bc276	-0.019013625
6	0xbcbdf98b	-0.02319028
7	0x3beb5c5e	0.007182642
8	0x3d4841ad	0.04889076
9	0xbce05eea	-0.027389009
10	0xbd62f89b	-0.05541287
11	0x3c98a21f	0.018631993
12	0x3c0cb46c	0.008587938
13	0xbd645fd8	-0.055755466
14	0xbd459022	-0.04823316
15	0x3d73036c	0.059329435
16	0x3c52e508	0.012871988
17	0x3cb7a7ff	0.022418974
18	0xbd71f4cf	-0.05907136
19	0xbc846e8e	-0.016165998
20	0xbd1b65f4	-0.037939027
21	0x3ce402d3	0.027833378
22	0xbdc30276	-0.09521954
23	0xbc3e519d	-0.011616138
24	0xbc888dd7	-0.016669197
25	0x3c6c930d	0.0144393565
26	0x3d00108c	0.03126578
27	0xbd857898	-0.06517142
28	0xbd5e4c9a	-0.05427227
29	0xbcf51f5f	-0.029922185
30	0xbd5b44ed	-0.05353253
31	0xbd33ef06	-0.043929122
32	0xbe569e51	-0.2095883
33	0xbd406e5f	-0.046980258
34	0xbd6f09d0	-0.058358967
35	0xbd1a335d	-0.03764664
36	0xbd480ff7	-0.04884335
37	0xbd3de5fc	-0.04636191
38	0x3d88ea45	0.06685308
39	0xbd8bcaf0	-0.06825817
40	0xbd4bc52b	-0.04974858
41	0xbb016733	-0.001974535
42	0xbc759271	-0.014988528
43	0xbd2c02ed	-0.041994978
44	0xbc6c1451	-0.014409141
45	0xbd03d3c0	-0.032184362
46	0xbce3cf50	-0.027808815
47	0x3d0456fd	0.03230952
48	0xbd27c239	-0.04095671
49	0xbd4cfc06	-0.050045036
50	0x3c0e0eec	0.00867055
51	0xbd4f86c6	-0.05066564
52	0xbc15467a	-0.009111041
53	0xbd79c2a4	-0.06097664
54	0xbd842ec3	-0.064542316
55	0x3cbb9900	0.022900105
56	0xbc1dd147	-0.009632415
57	0xbd0bc38c	-0.034122035
58	0xbcd59bc4	-0.026075251
59	0x3ca34a03	0.019932752
60	0xbd7eeaac	-0.06223552
61	0xbd2f8df0	-0.04285997
62	0xbd12031d	-0.0356475
63	0x3a8e35d8	0.0010849787
64	0xbba2c792	-0.0049676383
65	0xbc3a9269	-0.011387446
66	0xbd8a510d	-0.067537405
67	0xbd2c165e	-0.04201352
68	0xbd8b4d42	-0.06801845
69	0xbd2422b7	-0.04007217
70	0x3cb37066	0.021904182
71	0x3cb36475	0.021898488
72	0xbb56c379	-0.003277032
73	0xbd24eebd	-0.04026674
74	0xbd703110	-0.05864054
75	0x3d10d78d	0.035361815
76	0xbcf4b8a3	-0.029873198
77	0xbd2b8922	-0.041878827
78	0xbd3aa406	-0.04556658
79	0xbd09242f	-0.033481773
80	0xbbbf40b9	-0.005836573
81	0xbd653101	-0.055954937
82	0xbc48a9e0	-0.012247533
83	0x3d519d3c	0.05117534
84	0x3c076fd3	0.008266407
85	0xbc9a428a	-0.018830556
86	0xbd5040f3	-0.05084319
87	0xbd75b52e	-0.05998724
88	0xbd3fd199	-0.046830747
89	0xbc00054a	-0.007813761
90	0xbd6b1b34	-0.05739899
91	0xbc985e79	-0.018599736
92	0xbd8c0824	-0.0683749
93	0xbcc824db	-0.024431637
94	0xbd2778b8	-0.04088661
95	0xbc788d24	-0.015170369
96	0xbdafd8ec	-0.085862964
97	0xbbea969b	-0.007159067
98	0x3c8a1c87	0.016859306
99	0xbca7f758	-0.020503685
100	0x3c1dd9d9	0.009634458
101	0xbd8a3a83	-0.067494415
102	0xbd3eae79	-0.04655311
103	0xbd1f3202	-0.03886605
104	0xbd6295e6	-0.055318736
105	0xbd0d33a1	-0.034473065
106	0x3d1dce5f	0.03852689
107	0xbd2bb788	-0.041923076
108	0xbcc9091d	-0.024540478
109	0x3ce267df	0.02763742
110	0xbd8d49ee	-0.068988666
111	0xbb830af5	-0.003999109
112	0x3d66c285	0.056337852
113	0x3cda3818	0.026638076
114	0x3cc54dd6	0.024084967
115	0xbcbc9efd	-0.02302503
116	0xbd3c0d20	-0.045910954
117	0xbd2cf899	-0.04222927
118	0x3cbf9d17	0.023390336
119	0x3af7bc52	0.0018900728
120	0xbd08046e	-0.03320735
121	0xbd68caae	-0.056833915
122	0x3d484218	0.048891157
123	0xbd2168f6	-0.03940674
124	0xbd03a5f1	-0.032140676
125	0x3b6c010c	0.0036011366
126	0x3c202876	0.009775272
127	0xbd6544d4	-0.055973843
128	0x3bacd4ec	0.0052744057
129	0xbd04c0bf	-0.03241038
130	0xbd153344	-0.036425844
131	0xbbdba075	-0.0067024776
132	0xbcb92d7e	-0.0226047
133	0xbc58e812	-0.013238924
134	0xbd8513c6	-0.06497912
135	0xbc92bc56	-0.017912071
136	0xbd23daf1	-0.04000372
137	0xbd077d9d	-0.03307878
138	0x3cbd92c1	0.023141267
139	0xbebaa7ab	-0.36456046
140	0xbd3ed9e9	-0.046594534
141	0xbd111b1e	-0.03542625
142	0xbd82d014	-0.06387344
143	0x3dbc7c1b	0.09203359
144	0xbc5db236	-0.013531258
145	0x3ba67803	0.0050802245
146	0xbc8d1141	-0.017220141
147	0xbd671b6a	-0.05642263
148	0x3c89ca6d	0.016820157
149	0x39c59d53	0.00037691984
150	0xbce93c87	-0.028471244
151	0x3cd60539	0.026125537
152	0xbcbeeb34	-0.023305513
153	0xbce98ca9	-0.028509455
154	0xbbf73cc1	-0.007545084
155	0xbd45e476	-0.04831358
156	0xbd913252	-0.07089676
157	0x3cef3408	0.029199615
158	0xbc4ecb92	-0.012621777
159	0xbd08ad81	-0.03336859
160	0xbcf2f008	-0.029655471
161	0xbd5613d0	-0.05226499
162	0x3d82c718	0.0638563
163	0x3c4d654e	0.01253636
164	0xbd2d4d2b	-0.04230992
165	0xbdd7dcff	-0.105401985
166	0x3b85f632	0.0040881867
167	0xbd8658ee	-0.06559931
168	0x3d884d50	0.06655371
169	0x3c35fa81	0.011107088
170	0xbcddca8b	-0.02707412
171	0xbb38c972	-0.0028196243
172	0x3d795d2e	0.06087988
173	0xbc7862c8	-0.01516027
174	0xbd5592ed	-0.052142072
175	0xbd5be03f	-0.053680655
176	0x3c201aac	0.009771984
177	0x3d3bc6af	0.045843776
178	0x3c825fe7	0.01591487
179	0xbcd48e55	-0.025946775
180	0x3c92a238	0.017899618
181	0xba3c58b9	-0.00071848516
182	0x3cb6bdd2	0.02230731
183	0xbd45d173	-0.04829545
184	0x3bd19840	0.0063963234
185	0xbc8838b6	-0.016628604
186	0x3c2dd9ff	0.010611056
187	0x3c1029c7	0.008799023
188	0x3c5d302a	0.013500253
189	0x3ba10ee2	0.0049151042
190	0x3c83bb82	0.016080622
191	0xbc8cf3e9	-0.01720615
192	0xbd44584a	-0.04793576
193	0xbd3fd3f5	-0.046832997
194	0x3ac2f599	0.0014874219
195	0xbd960425	-0.07325009
196	0xbc6c30d4	-0.014415938
197	0xbcca0a7e	-0.024663206
198	0x3ca06ba8	0.019582585
199	0xbc41490f	-0.011797204
200	0xbd127a84	-0.03576137
201	0xbd995481	-0.07486821
202	0xbced475a	-0.028964687
203	0xbd4690bf	-0.048477884
204	0xbcd1b298	-0.025597855
205	0x3d0c3f4c	0.034240052
206	0xbd8c8a3f	-0.06862306
207	0x3c608212	0.013702886
208	0xbd3e62f5	-0.04648109
209	0xbd8a9876	-0.06767361
210	0xbd83de09	-0.06438834
211	0xbd4060fc	-0.04696749
212	0xbe6f5be6	-0.233749
213	0xbd681629	-0.05666176
214	0xbd8c168a	-0.068402365
215	0xbc21887a	-0.009859199
216	0xbd3db2bf	-0.046313044
217	0xbccda81e	-0.025104579
218	0xbd625370	-0.055255353
219	0x3c8343dc	0.016023569
220	0x3c91c13c	0.017792337
221	0xbc1f8014	-0.009735126
222	0xbda1f36c	-0.07907757
223	0xbd64bbf6	-0.055843316
224	0xbd5edadb	-0.054407936
225	0xbabca2f5	-0.0014391827
226	0x3d42dbd9	0.047572944
227	0xbd8b0b97	-0.0678932
228	0x3ca15575	0.01969407
229	0x3bb1e565	0.0054289573
230	0xbc9c6dd4	-0.019095339
231	0xbd2d407a	-0.042297818
232	0xbb53354d	-0.0032227815
233	0x3d44d3f5	0.0480537
234	0xbcfeae75	-0.031089047
235	0xbd62a05f	-0.055328723
236	0x3cbf4a98	0.023350999
237	0xbc8c8af8	-0.01715611
238	0xbbc2ef59	-0.0059489426
239	0xbce0cb02	-0.027440552
240	0xbd47b2b8	-0.048754424
241	0xbd811c13	-0.06304183
242	0x3c1c8a5f	0.009554475
243	0xbce6b124	-0.02816064
244	0x3bd3d1f5	0.006464238
245	0xbd6507fd	-0.05591582
246	0x3d435d86	0.047696613
247	0x3c6d4eea	0.014484147
248	0x3c1b36fa	0.009473557
249	0x3d4daa9b	0.05021153
250	0x3ca83128	0.020531252
251	0xbc224fb5	-0.009906699
252	0xbc49171a	-0.012273574
253	0x3cc77f79	0.024352776
254	0xbcbb992f	-0.022900192
255	0xbbedfd80	-0.0072628856

net.model.4.weight f4 [16, 256]
0	0xbd8225f9	-0.06354899
1	0x3bcd3830	0.0062628016
2	0x3bd0a17e	0.0063669076
3	0x3d767d71	0.060178224
4	0x3d3c7a0b	0.046014827
5	0xbbb5b363	-0.005545066
6	0x3d2e8a7d	0.04261254
7	0xbe8ff885	-0.28119293
8	0xbd486e92	-0.048933573
9	0x3d1020a2	0.03518737
10	0x3ca6aff4	0.020347573
11	0x3c7af6eb	0.015317659
12	0xbd3e2375	-0.046420533
13	0x3d38bdf5	0.045103032
14	0x3ce42c66	0.027853202
15	0x3e2a09c6	0.16605291
16	0xbcfcfd1f	-0.030882416
17	0x3cfc21c8	0.030777827
18	0x3d3ad765	0.045615572
19	0xbc07b96d	-0.008283955
20	0x3d814da4	0.06313637
21	0xbd6b8dc0	-0.05750823
22	0xbcaefe56	-0.021361511
23	0x3c0998ed	0.008398277
24	0x3c58b212	0.013226049
25	0xbcd84f91	-0.026405128
26	0x3d10f362	0.035388358
27	0xbb73aedb	-0.003718308
28	0xbcd3b030	-0.025840849
29	0xbd29e21e	-0.041475408
30	0x3bae21de	0.005314096
31	0xbd5cd9b9	-0.053918574
32	0xbe57f427	-0.2108923
33	0x3d10ea8f	0.035379943
34	0xbd5111a0	-0.0510422
35	0xbd7ca2fd	-0.061678875
36	0xbd570e66	-0.052503966
37	0x3cbd4f0d	0.023108983
38	0x3d5d3bb4	0.054012015
39	0x3d4869ec	0.04892914
40	0x3d834e16	0.06411378
41	0x3caf7cb0	0.02142176
42	0x3b92ba3c	0.0044777673
43	0x3d4edb4c	0.050502107
44	0x3b1a480f	0.0023541485
45	0xbccc615a	-0.024948765
46	0xbe694731	-0.22781064
47	0x3cb0acca	0.021566767
48	0x3ce07f19	0.027404355
49	0x3cc6c99c	0.024266057
50	0xbc9b6b11	-0.018971952
51	0xbbd0ddb0	-0.0063740835
52	0xbe0e416b	-0.13892142
53	0xbc92920f	-0.017891912
54	0x3d2a60b3	0.041596126
55	0x3d2a202e	0.041534595
56	0x3d5246e3	0.051337134
57	0xbd3a78c5	-0.04552533
58	0x3c2ac3bc	0.010422643
59	0x3d161eed	0.036650587
60	0xbc08c203	-0.008347037
61	0xbd51b91e	-0.051201932
62	0x3cfeddad	0.031111563
63	0xbd58710d	-0.05284219
64	0xbd12ff6c	-0.03588812
65	0x3d251690	0.04030472
66	0xbd0e0686	-0.03467419
67	0xbd556464	-0.052097693
68	0x3c93be7e	0.01803517
69	0xbce22d29	-0.027609425
70	0xbd7b4229	-0.061342392
71	0x3e365565	0.17806013
72	0xbd495beb	-0.049159925
73	0x3ca6e46c	0.020372592
74	0xbbd5b5d9	-0.006521922
75	0x3d753f44	0.059874788
76	0xbba56a1b	-0.005048049
77	0xbe02382e	-0.12716743
78	0x3c48fa3e	0.012266694
79	0xbcd46791	-0.02592829
80	0x3c91c113	0.01779226
81	0xbceecc5c	-0.02915018
82	0x3c4e0b24	0.012575898
83	0x3e1d3fd2	0.15356377
84	0xbd3142fd	-0.043276776
85	0x3c824605	0.015902529
86	0x3c9baf47	0.019004477
87	0x3cc396e2	0.023875657
88	0xbdcda5be	-0.100413784
89	0xbc702659	-0.01465758
90	0xbc0e0b10	-0.00866963
91	0x3c72e2db	0.014824594
92	0xbcf89f8a	-0.030349512
93	0xbd041199	-0.032243345
94	0xbd2fc7cc	-0.04291515
95	0xbcdc39e1	-0.026883068
96	0xbe8892a1	-0.2667437
97	0xbc087d0b	-0.008330594
98	0x3d4b00ef	0.049561437
99	0x3d06988e	0.03286033
100	0xbda593ca	-0.08084829
101	0xbe846201	-0.2585602
102	0xbcb90189	-0.02258374
103	0xbd590c56	-0.05299028
104	0xbcbcea93	-0.023061072
105	0x3cb6e4a5	0.022325823
106	0x3c939227	0.018014027
107	0x3d4c4b8c	0.049876735
108	0x3da28f3f	0.07937478
109	0x3cd7675f	0.026294408
110	0xbc93f314	-0.018060245
111	0x3c085ada	0.008322442
112	0xbd1be901	-0.038064007
113	0xbcf05632	-0.029337976
114	0x3c31efe5	0.010860418
115	0xbc775553	-0.0150960265
116	0x3d262346	0.040560983
117	0x3b826f47	0.0039805504
118	0xbcb68f64	-0.02228517
119	0x3c9ef6e7	0.019404842
120	0x3cee411b	0.02908378
121	0xbd18ef7d	-0.03733777
122	0xbd447304	-0.04796125
123	0xbd46ca90	-0.048533022
124	0x3d16bd57	0.036801662
125	0x3d56923a	0.052385546
126	0x3d489856	0.048973404
127	0x3d4e5d56	0.05038198
128	0xbe174824	-0.14773613
129	0x3a810638	0.0009843772
130	0xbcb4c975	-0.022068718
131	0xbb292106	-0.0025807037
132	0x3d04e4c2	0.032444723
133	0x3ce0a045	0.027420172
134	0x3d56a938	0.052407473
135	0xbd2aa4c7	-0.04166105
136	0x3ace8a61	0.0015757793
137	0xbc81667c	-0.015795939
138	0x3d5b1791	0.05348927
139	0x3f3210b1	0.6955672
140	0xbc58cdcc	-0.01323266
141	0xbba3ced5	-0.0049990215
142	0xbd76763c	-0.06017135
143	0x3e4fde6e	0.20299694
144	0x3cc7ebde	0.024404462
145	0xbdcf32db	-0.10117122
146	0xbd0d5879	-0.034508202
147	0x3cb3abcf	0.02193251
148	0xbe094ec4	-0.13408953
149	0xbd2d810f	-0.042359408
150	0x3ca71c5f	0.02039927
151	0x3c96bd95	0.018400947
152	0xbcd366a5	-0.02580578
153	0x3d195bf7	0.03744122
154	0x3dbd2fc0	0.09237623
155	0xba9db425	-0.0012031837
156	0x3be22457	0.0069013047
157	0xbc71fa28	-0.014769115
158	0x3d1a32a1	0.03764594
159	0xbd56b40b	-0.052417796
160	0x3c87c7c0	0.01657474
161	0xbc3b487f	-0.011430859
162	0x3d69f7a9	0.057120953
163	0xbd3945ed	-0.045232702
164	0xbb668f33	-0.0035180568
165	0x3e8a3109	0.26990536
166	0x3c4facf5	0.0126755135
167	0x3d254012	0.040344305
168	0x3d0a49a2	0.033761628
169	0xbd36a5e3	-0.044591796
170	0xbd555cbd	-0.052090395
171	0x3c5d10ff	0.013492822
172	0xbe3af812	-0.18258694
173	0xbc74c57d	-0.014939663
174	0x3d4e43fc	0.050357804
175	0x3c47a053	0.01218422
176	0xbb23edcb	-0.0025013562
177	0x3e1dd135	0.15411837
178	0xbdb63752	-0.0889727
179	0x3d5aa10c	0.053376243
180	0xbc4cff74	-0.012512077
181	0x3d8778f6	0.06614868
182	0x3cdfd2e2	0.027322236
183	0x3d091d97	0.033475485
184	0xbda32739	-0.079664655
185	0x3e6b98d8	0.23007524
186	0xbcf613cf	-0.030038742
187	0xbd138f87	-0.03602555
188	0xb834e8db	-4.3132208e-05
189	0x3cbdbdc3	0.023161775
190	0xbbb5f73b	-0.005553154
191	0xbd82e5b6	-0.0639147
192	0xbd70d6ed	-0.05879872
193	0x3c8f82cf	0.01751843
194	0x3df5be98	0.119992435
195	0xbd250cec	-0.040295526
196	0xbd913dcd	-0.07091866
197	0x3cf9bbe1	0.030485095
198	0x3d13ef56	0.03611692
199	0xbceb4980	-0.028721571
200	0x3df74567	0.12073784
201	0xbcaca151	-0.021073015
202	0xbe583502	-0.21113971
203	0x3d2ae312	0.041720457
204	0xbc6b3ade	-0.014357297
205	0x3d0be441	0.034153227
206	0xbc9107d8	-0.017703936
207	0x3be35b78	0.006938394
208	0x3cb87936	0.022518735
209	0x3c70f630	0.014707133
210	0x3c59946b	0.0132800145
211	0x3d01c982	0.031686313
212	0xbe14146e	-0.14460918
213	0xbcd3a02e	-0.025833216
214	0x3c491c4c	0.012274813
215	0x3d84f152	0.06491341
216	0x3c8f96c2	0.017527942
217	0xbcafb749	-0.021449702
218	0x3d53e7c0	0.051734686
219	0xb9b55991	-0.00034589742
220	0x3d437bbc	0.047725424
221	0xbc3ba695	-0.0114532905
222	0xbbe82acc	-0.00708518
223	0xbe544428	-0.20729125
224	0x3d4ffd56	0.05077871
225	0x3d26de9e	0.040739648
226	0xbb344316	-0.0027505807
227	0x3d14fefc	0.036375985
228	0x3d3c357f	0.045949455
229	0x3c94a14e	0.018143322
230	0x3c5602a0	0.013062149
231	0x3c63b1bd	0.013897357
232	0x3ca3d9ce	0.020001318
233	0x3cf0ec6e	0.029409613
234	0x3c9f0d11	0.01941541
235	0xbc3d4624	-0.011552367
236	0x3b938646	0.0045020906
237	0x3d184403	0.037174236
238	0xbd5f2644	-0.054479852
239	0xbd01b030	-0.031662166
240	0xbe337a3a	-0.17527094
241	0xbd5f6ff4	-0.054550126
242	0x3cd45a51	0.025921972
243	0xbb6cd703	-0.00361389
244	0xbc8055c7	-0.015665902
245	0xbcbf96ce	-0.023387339
246	0x3d6c610c	0.05770974
247	0x3c116b2d	0.00887565
248	0x3c9c4c04	0.019079216
249	0x3d270d4f	0.040784176
250	0x3bba5a2b	0.0056870184
251	0x3cb01b0a	0.021497268
252	0x3a117e4a	0.00055501296
253	0xbc829e06	-0.015944492
254	0xbcc4b5e0	-0.024012506
255	0x3b4fa7c0	0.003168568

net.model.4.bias f4 [16]
0	0x3cabc1df	0.020966468
1	0x3ca65afb	0.020307055
2	0x3cf82f0f	0.030295877
3	0xbc87d12a	-0.01657923
4	0xba0cc9f4	-0.00053706695
5	0xbcf9d69c	-0.030497842
6	0xbbd0bc2b	-0.0063700876
7	0xbc9276a1	-0.017878832
8	0xbe072f32	-0.13201597
9	0xbe12db1f	-0.143414
10	0xbdd3160f	-0.10306942
11	0xbe2b5c74	-0.16734487
12	0xbe1fbd6b	-0.15599601
13	0xbe234899	-0.15945663
14	0xbe26ae8f	-0.16277526
15	0xbe1db1a1	-0.15399791
